robotics-rl-srl-backup/logs/baxter_real/19-01-29_15h13_32_custom_cnn_ST_DIM2_inverse/srl_model.pth (torch_old, 360579 bytes, 27 tensors)

forward_net.weight f4 [2, 7]
00000000: da6c 473e 40d4 2abe 0610 96bd 99a9 353e
00000010: 4f2f b6be a81c 683e fd3e 9fbd eae6 443e
00000020: d537 573d 9d8f 3dbd 75b2 d63d c9be 983c
00000030: 375b 0d3e 03d4 16be
0.19475117 -0.1668253 -0.07327275 0.17740478 -0.3558297 0.22667181 -0.07775686 0.19228712
0.05254348 -0.04627954 0.10483257 0.018645661 0.13804327 -0.14729314

forward_net.bias f4 [2]
00000000: 0dbf e1bc 0960 0bbd
-0.02755692 -0.034027133

inverse_net.weight f4 [5, 4]
00000000: 6a93 c3be c2c1 773e a423 c53e a61c 95be
00000010: 328f 9b3d da9a 0cbf 2355 96bd 3b94 023f
00000020: 68aa e63e 7e54 0bbe 056f e6be 2d2b a43d
00000030: b666 43bf 4bb0 a3be 124a 493f 5e0b 883e
00000040: 810f 933e 9f3a 373e 696c 8ebe 196d 6fbe
-0.38198406 0.24195006 0.38503754 -0.2912342 0.07595672 -0.54923785 -0.07340457 0.5100743
0.45051885 -0.1360645 -0.45006576 0.080160476 -0.763286 -0.31970438 0.7862865 0.26571172
0.28722766 0.17893456 -0.27817085 -0.23381461

inverse_net.bias f4 [5]
00000000: a57c 223f 4b1a 593f 193b b2be 3676 9ebe
00000010: c59e 41bc
0.6347144 0.84805745 -0.34810713 -0.30949563 -0.011817639

reward_net.0.weight f4 [16, 4]
00000000: 5ca0 58be 12fb bf3e 8003 c23b 82dd 86be
00000010: 7a96 833e d4e3 87be e494 163e fcd7 13be
00000020: 0088 60bd 881d f6be bc1c 74be 10ea 8a3e
00000030: 40e9 f8bd 1afd fe3e e634 cd3e 20ca bfbc
00000040: 2ce0 aabe f2e4 9b3e 20e7 1e3e c47b a5be
00000050: 8e48 a63e 066b 9b3e 8c0b e33e d680 8fbe
00000060: 788e a8bd c0b1 1ebc 1890 953d 7848 c2be
00000070: d0a9 b5be e243 8b3e a81e f0bd 3019 7a3e
00000080: 4083 e93c d01c 283e 802a e13d b429 3a3e
00000090: cccd 7d3e ae15 edbe a4db 803e e2ff b3be
000000a0: 8027 c1be 8018 f93c 387f aebd de5a 963e
000000b0: 3c42 94be 5294 e3be 0e4f ba3e 30d7 97bd
000000c0: 32fd 8f3e a099 243e d4f7 bfbe 48b8 cd3d
000000d0: 18f6 f53d 3268 abbe 08ee 72be 5c94 2e3e
000000e0: e86b b73d 70ca 59be 94fd 1abe 4a77 ea3e
000000f0: 3876 bdbd a654 903e 98b2 5d3e f07a a5be
-0.21154922 0.3749624 0.0059208274 -0.26340872 0.25700742 -0.26541007 0.14705235 -0.1443786
-0.0548172 -0.48069406 -0.23839086 0.271317 -0.12153864 0.49802476 0.4007942 -0.02341181
-0.33374155 0.3044811 0.15517855 -0.32320988 0.3247723 0.3035509 0.44344747 -0.28027982
-0.08230299 -0.009685934 0.07302874 -0.37945914 -0.3548112 0.27200228 -0.11724597 0.24423671
0.028504968 0.16417241 0.10994434 0.18179971 0.24785537 -0.46305603 0.25167572 -0.3515616
-0.3772545 0.03040719 -0.08520359 0.293662 -0.28956783 -0.44449097 0.3638844 -0.07414091
0.2812286 0.16074228 -0.37493765 0.100449145 0.12009829 -0.33477932 -0.23723614 0.17048782
0.08956128 -0.2126863 -0.15135795 0.45794135 -0.09251064 0.28189582 0.2165016 -0.32320356

reward_net.0.bias f4 [16]
00000000: c0b5 d9be 44bb f53e 40e1 d53c 2e7a af3e
00000010: 7834 d43d bcab 243e ae38 bf3e 32be f23e
00000020: 72e0 a9be 9807 803d b80a bf3e 9474 b93e
00000030: 7c09 9f3e a445 b9be c058 b8be 50d2 9abe
-0.42521477 0.47994435 0.026108384 0.34272903 0.1036157 0.16081136 0.3734793 0.47410733
-0.3317905 0.062514484 0.37312865 0.36221755 0.31061924 -0.36185944 -0.3600521 -0.3023858

reward_net.2.weight f4 [16, 16]
00000000: b8a4 003d 6e25 7f3e 7eb5 21be e26a 083e
00000010: 66b1 0dbe fab1 70be 00a4 59bd f07f 133e
00000020: faa9 6d3e 66fc 1ebe 3038 5e3d 68e4 5c3e
00000030: aaa3 293e 8c8b 1f3e 04ec 353e 98ec 213e
00000040: 6c3f 843d d60e 2fbe 6afa 56be e49b eabd
00000050: 307b eebc 70ea 1cbe 2c51 bb3d 3075 9e3d
00000060: a8de 67bd 50c8 c43d 7878 a53d 484c 1c3e
00000070: ce66 2c3e e463 adbd 5a1e 7a3e c0c3 ecbc
00000080: e0b8 0cbc 20a2 71be 08c4 24be 5c8e 15be
00000090: 80fe dabd 1a02 363e d84f a7bd d24d 3fbe
000000a0: f0fd c43d 44ed a33d 0ecf 253e 0e79 04be
000000b0: c004 5e3d d864 babd 2011 66bd d802 4cbe
000000c0: 8059 e9bd d0cd 9cbd 04f3 da3d f012 3b3d
000000d0: e0f1 7c3d d283 7f3e 3081 793e a49a 2e3e
000000e0: 606e 023c 3e19 31be 0411 483e 5008 80bd
000000f0: 4092 a5bc 328b 5cbe f044 4abd ec1d 25be
00000100: 6c3d 6b3e 4051 5dbe 2e8c 47be c015 0bbc
00000110: 546c 0abe 1833 b73d f814 c5bd e47a f0bd
00000120: e0fc 673c 6051 393e 9413 34be 3c70 f03d
00000130: 0a77 243e 226b 7a3e ac2e 33be a000 783d
00000140: 144b 3dbe 608f 5a3e a89b c6bd ca33 1a3e
00000150: 40e3 f33b f080 9fbc c0b1 02bc 0813 2e3d
00000160: d45a f13d a03a 243d 2830 9c3d 4047 66be
00000170: 6e81 3a3e 7a32 5f3e 709c 533e b23d 3d3e
00000180: d6bc 38be 64cc bdbd c0b8 613e 0efc 42be
00000190: a63f 683e ce57 49be 1e54 34be 384e fa3d
000001a0: e6ee 37be 6099 6abd e83c 3a3e 56c6 4a3e
000001b0: 0c1d 723e 98c9 4fbd 90fa 46be 760f 7c3e
000001c0: 8823 5abd a0a7 d2bd d89f 793d ee06 33be
000001d0: 8443 283e 8e71 203e 9621 4bbe 7645 52be
000001e0: c065 b3bc 940d d73d 0042 edbb d6cf 01be
000001f0: 004a bb3b 669f 70be 4aee 34be 9e6a 2abe
00000200: e2d2 523e 5eaa 613e cce8 adbd 00b5 373c
00000210: 3857 e43d d062 f53c 5231 00be 20a5 133e
00000220: 385f 1d3e c062 6dbc 301d fcbc 86a3 683e
00000230: e8c6 5f3e 7c25 11be 9c77 7a3e 7069 7d3d
00000240: 000d 2abe 3a23 0c3e 821f 3fbe 9686 6c3e
00000250: ba93 24be d4ce 903d 74e7 9b3d 0891 733d
00000260: 0455 543e b0a8 d4bd b426 d8bd a0d7 5dbe
00000270: 4019 28bc 808b f2bd a01f 243c 20eb 51bd
00000280: dce0 a93d a475 5d3e 7c14 973d 90ef a4bd
00000290: 883c fbbd 6c45 5fbe 1069 573e 98fc 41bd
000002a0: 18b3 4e3d 0084 173c f023 23be a82c 103e
000002b0: 9a77 0f3e 4046 4e3c 627b 11be 5c8d d9bd
000002c0: 00a0 613b 2843 12be 5ad6 0ebe 40bf 18bd
000002d0: 3c6e 93bd 505f 7b3d b093 86bd a0be 07bd
000002e0: c46b c3bd c4f2 69be b643 5f3e 705c 433d
000002f0: e6eb 643e 6807 25bd 14ac 80bd ccaa 70be
00000300: 545c c2bd ace0 273e f2bc 7abe 7414 b3bd
00000310: 6af8 1b3e 5e8b 133e b80d bd3d 20b2 4abd
00000320: d010 9bbc f076 42bd 70be bcbd 90ab d53d
00000330: 8063 aebd dad0 0fbe 184e 683d d009 39be
00000340: 6889 5abd cad1 023e 7859 bf3d 4cf1 593e
00000350: a29a 2ebe 8073 0e3b ec31 97bd 622f 0fbe
00000360: 8203 10be c4fd 803d 7045 d63c c0ac 02be
00000370: ac71 34be 6c1a 54be 84e5 7a3e 4089 2ebd
00000380: f0c8 6cbd 8845 bcbd de0a 00be 781d 6abe
00000390: 8049 16be 7879 1c3e a06f 603d c89c b4bd
000003a0: bc7d c1bd 4e89 233e 4689 383e a2a3 763e
000003b0: 705a 953d 585a f73d a08d a4bc aeaa 15be
000003c0: 6ccc 7abe 9aed 1b3e d0d5 14bd 645a d23d
000003d0: c09c 493c 20ee 6ebe 402f fbbd c80a 903d
000003e0: 1042 4fbd a835 77be a489 b33d c016 1d3c
000003f0: 008c a4bd 58d5 ce3d b82f 583d c0d3 bcbd
0.031407088 0.24916622 -0.1579189 0.13322023 -0.13837203 -0.23505393 -0.05313492 0.14404273
0.23209372 -0.1552597 0.054252803 0.21571505 0.16566339 0.15580577 0.17765814 0.1581291
0.06457409 -0.17095503 -0.20993963 -0.11455515 -0.029111475 -0.15323806 0.09146342 0.077371955
-0.056608826 0.09608519 0.08079618 0.15263474 0.16836092 -0.08466318 0.2442564 -0.028901935
-0.0085889995 -0.23597002 -0.16090405 -0.14605087 -0.10693073 0.17774239 -0.08169526 -0.1868203
0.09618747 0.08004239 0.16192266 -0.12936804 0.05420375 -0.09101266 -0.056168675 -0.1992296
-0.11394024 -0.07656443 0.10690883 0.045672357 0.061754107 0.24952629 0.24365687 0.17051178
0.007960886 -0.17294785 0.19537741 -0.062515855 -0.020211339 -0.21537474 -0.04938215 -0.16124696
0.2297265 -0.21613026 -0.19487068 -0.008489072 -0.13517886 0.08945292 -0.0962314 -0.117421895
0.014159411 0.18097448 -0.17585593 0.11740157 0.16061035 0.2445493 -0.17498273 0.06054747
-0.18485671 0.21343756 -0.09697658 0.15058818 0.007442862 -0.019470662 -0.007976949 0.04249862
0.11784902 0.04009497 0.076263726 -0.22488117 0.18213436 0.21796599 0.20665145 0.18480566
-0.18040785 -0.092675 0.22043133 -0.19041464 0.2268053 -0.19662401 -0.17610213 0.1222195
-0.17962226 -0.057275176 0.18187296 0.19802222 0.23643893 -0.050729364 -0.1943152 0.24615273
-0.05325654 -0.10285878 0.060943455 -0.17483112 0.16432005 0.15668318 -0.19837031 -0.2053431
-0.021899104 0.10500637 -0.007240534 -0.1267694 0.0057156086 -0.23498306 -0.17669025 -0.16642234
0.20588258 0.22037646 -0.08491668 0.011212587 0.11149448 0.029954344 -0.12518814 0.14418459
0.15368354 -0.014488876 -0.030775636 0.22718629 0.2185322 -0.14174455 0.2445969 0.06186813
-0.16606522 0.13685313 -0.18664363 0.23098215 -0.16071978 0.07070699 0.076125056 0.059464484
0.20735556 -0.10383737 -0.10554257 -0.21664286 -0.010259926 -0.11843014 0.010017306 -0.051249623
0.08294842 0.21626908 0.07376954 -0.080535054 -0.12267405 -0.21803826 0.21036172 -0.047360033
0.050463766 0.00924778 -0.15931678 0.14079535 0.14010468 0.012589991 -0.14207223 -0.10622665
0.0034427643 -0.1428343 -0.13948956 -0.037291765 -0.0719876 0.061370194 -0.06571138 -0.03314078
-0.09542039 -0.22846514 0.21803173 0.047695577 0.22355613 -0.040290266 -0.06282821 -0.23502654
-0.094902664 0.163943 -0.2448614 -0.087441355 0.15231481 0.14408633 0.09231132 -0.04948628
-0.018928915 -0.04747671 -0.092160106 0.104331136 -0.08515072 -0.14044514 0.0567151 -0.1807015
-0.053353697 0.1277534 0.09343237 0.21283454 -0.17051175 0.0021736324 -0.07382569 -0.13982919
-0.14063838 0.06298402 0.026156157 -0.12761211 -0.17621487 -0.20713204 0.24501616 -0.04261136
-0.057808816 -0.091929495 -0.12504146 -0.22862804 -0.14676476 0.15280712 0.054793954 -0.08818966
-0.0944781 0.15970346 0.18021116 0.24085858 0.0729264 0.120777786 -0.020087063 -0.1461589
-0.24492043 0.15227357 -0.03633672 0.10271147 0.0123054385 -0.23333025 -0.122648716 0.07033306
-0.05060011 -0.24141562 0.08766487 0.009587944 -0.080345154 0.10099286 0.052779883 -0.092200756

reward_net.2.bias f4 [16]
00000000: 26fa 653e 126e 003e 8093 003d 20a9 44bd
00000010: 9ad7 58be dea6 453e d81d 84bd 0a6f 25be
00000020: 8822 243e 5cd6 b53d 7068 7d3d 080a 4bbd
00000030: acc7 9fbd 70c5 2d3d f81a 463e 18a4 123d
0.22458705 0.12541988 0.031390667 -0.048012853 -0.21175995 0.19301936 -0.06451005 -0.1615564
0.16028798 0.088787764 0.061867177 -0.049570113 -0.07801756 0.04242462 0.19346225 0.035801023

reward_net.4.weight f4 [2, 16]
00000000: 2019 f2bd b04e 7e3e 0034 af3b 5c5f 4a3e
00000010: b091 793d 9e77 653e 8eb4 133e 0884 02be
00000020: 1cd4 333e 00cd d23a e27e 4dbe 3893 56bd
00000030: 9611 67be 58a2 04be 0e5c 35be 7417 2f3e
00000040: 5821 57bd 70ec 30bd b85b f53d 745e d03d
00000050: a8f3 28be 94b0 bc3d 5882 d93d 4a8c 4bbe
00000060: 6c93 5e3e 68c5 1bbe d037 c8bd 10dd 52be
00000070: 76fa 693e d0fc 423d 988f 573e 70bc 853c
-0.118211985 0.24834704 0.005346775 0.19762939 0.060929954 0.22408912 0.14424345 -0.12745678
0.17561382 0.0016082823 -0.20067933 -0.052386492 -0.22565302 -0.12952554 -0.17710897 0.1709879
-0.052522033 -0.043194234 0.119803846 0.101742655 -0.16499197 0.09213367 0.10620564 -0.19877735
0.21735924 -0.15212023 -0.097762704 -0.20592141 0.2284945 0.047604382 0.2105087 0.016325206

reward_net.4.bias f4 [2]
00000000: ae25 0b3e 6479 a3bd
0.13588592 -0.07982138

model.conv_layers.0.weight f4 [64, 3, 7, 7]
00000000: 99dc acbd 3eba c0bc 05d5 80bd f8bc 91bd
00000010: b2d3 063b 143e 5cbd c63b 8bbd a1ce f63d
00000020: af82 04bd ad68 3b3e cc29 033e 6e71 803e
00000030: 71cf 913d 0d7f 8eba 66b0 6c3e dfdc 18bd
00000040: cf65 0e3d 05d9 163e b40a d53d 7c4a 5fbd
00000050: aa24 02be 2b3d 983e 2771 613e f048 1e3e
00000060: 1245 1abd 9a86 c23b fc70 3a3c cef5 0e3e
00000070: c587 ad3e 612d b33e ba19 503e 2459 843e
00000080: fc52 953b 885d df3d 6455 7bbc d0fd 0a3e
00000090: 2d4a f53d b079 6e3e c577 683e 8d1b 113e
000000a0: 9b8e 3e3e 5a70 863e eff1 debe 8ce1 d5be
000000b0: 6f8b c3bd 5661 a93e 61c3 7f3e e013 bf3e
000000c0: 6900 be3e 3d02 1fbe 0cd8 81bd 541f a2bd
000000d0: 2134 23be 564f 563d c4f4 dfbd 966a 5bbd
000000e0: 6025 403d ebcd 3c3d 0f24 6e3d 559e 893d
000000f0: d9a7 833e a1a3 8a3c 9162 953d f444 d13d
00000100: bed4 04bd fc17 c53c 7aba 263d ec95 44bb
00000110: 3b11 40bd 4a55 08be f855 863e 385a 553e
00000120: daff 1c3e 358d 33be 6629 4cbe ab2a c4bc
00000130: 89ac be3c d43a cc3e a12c 173f 7b26 f93e
00000140: 3df4 7c3e cf6e 0a3e 206b bf3d 781d 8a3d
00000150: 08f3 3b3e 5204 c23d 07c2 c63e ea6c 913e
00000160: 45b7 ec3d 6b2d e63d 93df 383e 60ed dbbe
00000170: 3e22 c6be 346c f0bd 1550 503e 3095 333e
00000180: 18d7 773e d138 a23e b62c 14be 5a1f 82bd
00000190: 9ea8 d4bd e270 13be 96d5 35bd 9bdb a7bd
000001a0: 482e c5bd 87fe da3d 073b b73c c9e9 d03d
000001b0: 521e c23d 6443 933e 8ce7 e33c fb39 913c
000001c0: e7ae 353e 0692 953d db07 92bd 3f63 f23d
000001d0: 057d 06bc 2b5b d7bd 44c0 36be b77d 7c3e
000001e0: 302a be3e 9082 de3d 9c8c acbd 6acc 25be
000001f0: 7ade 43bd 1416 b73d 6606 763e 2995 d33e
00000200: f66f a93e bde9 763e 755e 12bd 4499 8cbb
00000210: 8b34 643b c76b 65bc 928b a13c a424 353e
00000220: 88f2 c53d 99d5 1c3e 2484 183e 0edf 173e
00000230: baac 05bf 6dd4 eebe 74ed 2abe 4448 503e
00000240: 2a1a 6c3d 2bb8 fe3d 3528 343e 68bd cdbc
00000250: bd86 4e3c fd19 14bd 9d11 7ebd c801 5ebb
00000260: 17af 89bc 06cd a63d 65ec 0e3d 25da 36ba
00000270: 1b49 583d 45ff 82bc ae54 e4bd 86c0 adbd
00000280: a624 823d ef07 a13d aa84 9f3d 6322 c23c
00000290: f433 1e3d 78c4 91bb 4641 c7bc 003d ebbc
000002a0: fa9f e63d f095 693d 4355 2dbd 6151 6bbd
000002b0: b364 073d f1d9 c83c ca4c fd3c 17e9 6e3d
000002c0: c711 063d 40c5 e4bd 21a7 2ebe ac51 973c
000002d0: 4f4e 073d d4f7 bdbd 51e8 7d3d 6f18 523d
000002e0: 1a66 bcbc c9a4 82bd 5e33 9a3c 10ae f4bc
000002f0: 19db b1bc a5e9 1d3d e46d c03d 501f bc3c
00000300: bfd0 28bc 0a77 2a3c ebb7 eebd 9c9e 393b
00000310: 5a0e 913c 3e8f ef3d 4497 903d 4255 adbd
00000320: a9d3 b4bc 350e 26bd daa2 793d a02c 5b3d
00000330: 5644 12bd 91e0 76bd e46b 15be bf80 2fbe
00000340: ccb4 f1bd 9528 c5bc c18c 11bd 71a3 09be
00000350: 8de1 a8bd 73d1 86bd 0dc2 d5bd b45b 0fbd
00000360: e46e 493c 77f3 603c 9d5b 20bc e9f9 f6bd
00000370: 23ab 1f3a 09be 0bbe 3d4d 97bd 3fbd 0bbd
00000380: 8b02 4dbd c5f3 09be b449 16be 63db 3cbe
00000390: 8eb6 e4bd 7524 e1bd d771 9f3c 6b48 fbb9
000003a0: fe93 0f3d 8c76 eabd 01bc 9aba 159d 75bd
000003b0: a79f 00be 1ba6 54bc 63ad 3abd 9e92 563d
000003c0: 6394 18be 07e5 18be 07f9 debd 67bb 89bd
000003d0: a1f1 86bd 8c46 afbd b621 5e3d 596e 40bd
000003e0: 78b3 55bd e83e 18be 277c f2bd 7281 c93b
000003f0: 0859 33bd aae9 563d 5d26 fc3a cbd7 2cbe
-0.08440513 -0.023526307 -0.0629063 -0.07116121 0.0020572958 -0.05377014 -0.0679851 0.1205113
-0.032351192 0.1830165 0.12808913 0.2508654 0.071196444 -0.0010871604 0.23114166 -0.037320014
0.03476506 0.14731224 0.10402432 -0.054514393 -0.12709299 0.29734167 0.2201582 0.15457511
-0.037663527 0.005936456 0.011379477 0.13960955 0.33892646 0.3499556 0.20322314 0.2584926
0.0045570116 0.109065115 -0.015340183 0.13573384 0.119770385 0.23288608 0.22701938 0.14170666
0.18609087 0.26257592 -0.43543956 -0.4177364 -0.09548079 0.33082074 0.24976875 0.3731985
0.37109688 -0.15528198 -0.06340036 -0.079161316 -0.15937854 0.052321754 -0.10935357 -0.053568445
0.046910644 0.046094816 0.058139857 0.067196526 0.25713995 0.016923727 0.07294191 0.1021823
-0.03242945 0.024059288 0.04070518 -0.0029996587 -0.046891432 -0.13313785 0.26237464 0.20835197
0.15331975 -0.17534335 -0.19937667 -0.023946127 0.02327563 0.39888632 0.59052473 0.4866217
0.24702545 0.13518833 0.09346604 0.06743902 0.18354428 0.0947348 0.38819906 0.28403407
0.115583934 0.112391315 0.18054037 -0.4295454 -0.38698 -0.11739388 0.20343049 0.1753738
0.24203146 0.31683972 -0.14470181 -0.06353636 -0.10383724 -0.1439853 -0.044393145 -0.08196183
-0.09627968 0.106930785 0.022367014 0.10200841 0.094784394 0.28762352 0.027820371 0.017727843
0.17742501 0.073032424 -0.071304046 0.11835336 -0.008208518 -0.10515436 -0.17846781 0.24657331
0.37141562 0.108647466 -0.084252566 -0.16191259 -0.047819592 0.08939758 0.24025878 0.41324738
0.33093232 0.24112602 -0.035734612 -0.0042907316 0.0034821357 -0.014002747 0.019719873 0.17689759
0.096654 0.15315856 0.14894158 0.14831182 -0.52216685 -0.46646443 -0.16692144 0.20340067
0.05764214 0.12437471 0.17593463 -0.02511473 0.012605366 -0.036157597 -0.062028516 -0.0033875573
-0.016807122 0.08144574 0.034893412 -0.0006975255 0.052804094 -0.015990863 -0.11148964 -0.084839866
0.063546464 0.07862841 0.077889755 0.023698037 0.038623765 -0.0044484697 -0.024323117 -0.02871561
0.11260982 0.057027757 -0.04231764 -0.057450656 0.03305502 0.024517985 0.030920405 0.05832776
0.032731798 -0.11170435 -0.17055942 0.018471561 0.033033665 -0.09275785 0.061989132 0.051292833
-0.022997905 -0.063790865 0.018823322 -0.029868156 -0.02171092 0.0385529 0.0939596 0.02296415
-0.010303675 0.010404358 -0.11656173 0.0028323298 0.017707039 0.11697243 0.07060102 -0.08463527
-0.022073584 -0.040540893 0.060946323 0.053509355 -0.0357097 -0.060272757 -0.14591938 -0.17138956
-0.118020624 -0.024067203 -0.035534624 -0.13441254 -0.082461454 -0.06582918 -0.10437403 -0.034999564
0.012294505 0.013729922 -0.009787467 -0.12059385 0.000609087 -0.13646711 -0.07387779 -0.034116026
-0.050051253 -0.13471897 -0.14676553 -0.18443064 -0.11167632 -0.10993282 0.019463463 -0.00047928406
0.035053246 -0.11448392 -0.0011805297 -0.05996426 -0.12560903 -0.012979056 -0.04557551 0.05238592
-0.14900355 -0.14931117 -0.10887342 -0.06725197 -0.06589056 -0.085583776 0.054231368 -0.046980236
-0.052173108 -0.14867747 -0.118400864 0.0061494643 -0.04378608 0.052468933 0.0019237507 -0.16879193

model.conv_layers.1.weight f4 [64]
00000000: 57a5 513f 1ce6 443f 5c18 1d3f fec9 c93e
00000010: 0637 463f 7ad5 763e 45a4 7e3e 4c4b 2b3f
00000020: 6068 293f 4aed 973f 06c3 0a3f 5ac7 973f
00000030: 0923 983f 41d4 693e 64af 073e 05d4 a23e
00000040: cbe3 4c3f d73f 5b3f e361 4e3f ffdf c83e
00000050: 4ce2 823e d2ba 50bf 2393 ea3e aa64 c43d
00000060: 47b5 eb3e 4833 5e3f 5e6f 123f aedd 273f
00000070: dd8c 063f d0b0 323f c984 323f b623 6a3c
00000080: 1394 f63e 662e 7b3e 4d17 493f 40e1 083f
00000090: 749c e03e 2358 4f3f c3ed 933b 04af 593f
000000a0: 796d dc3c aaf4 ad3e 4fb6 733d ac61 aa3e
000000b0: 207c 4abb 560f aa3e a7f8 c33e 0eda 883f
000000c0: 14d7 3a3f 257d 263e 4b90 933f 5215 3c3f
000000d0: 0403 393f b7e5 223f 5c02 073f 454e 0e3f
000000e0: 0b4b 453f aca9 3d3e 0453 8f3f 6214 913f
000000f0: bd05 713f ced2 083d f74c 353f b96d 713f
0.81892914 0.7691362 0.61365294 0.3941192 0.7742771 0.24104872 0.24867351 0.6691177
0.6617489 1.186929 0.5420383 1.1857712 1.1885692 0.22834875 0.132505 0.31802383
0.80035084 0.85644287 0.80618113 0.39233395 0.25563276 -0.81535065 0.4581538 0.09589513
0.4603674 0.86797 0.5720118 0.6557263 0.5255869 0.69801044 0.69733864 0.014290741
0.48159847 0.24529418 0.7855118 0.53468704 0.43869364 0.8099386 0.0045144274 0.8503268
0.02690767 0.33975726 0.059500035 0.33277643 -0.0030896738 0.33214825 0.38275644 1.0691545
0.72984433 0.16258676 1.152841 0.7347003 0.72270226 0.6363177 0.52737975 0.5558818
0.7706763 0.18521756 1.1197209 1.1334345 0.9414938 0.033404164 0.70820564 0.9430805

model.conv_layers.1.bias f4 [64]
00000000: 315d d2be c2a5 db3d 9d80 34bf 9fbf 17bc
00000010: c412 5c3d e927 393e d15a 4f3e 1c3b 05bf
00000020: 74d8 14be cf6e 1f3e 8939 f1be 5883 30bd
00000030: d349 08bd 234c f3bd c484 aabe 0e4b 90be
00000040: ca4c 28be 16be 0d3e 2583 b53d d89e dbbe
00000050: 0f84 263e 4889 7c3e 9483 20bf cc12 79be
00000060: 4c32 63be 7a8a 073e 6f54 943d 0791 17bf
00000070: 1d13 b2ba 05ea 3fbe cec7 fabe 09e3 c73d
00000080: 5a6d 3b3e 52ad 0dbd dddc f0be 1940 8ebe
00000090: 2708 3b3e 0ffd efbd dff2 fabd 86ce 90be
000000a0: 4503 36be 3190 43bd d589 33be d36e a7be
000000b0: ff4f edbd 58a7 fc3c dc76 d3be 63c0 333e
000000c0: 09d1 69be 6ae9 fdbe 8254 973e f517 9b3b
000000d0: d94b 0cbf c6dd 1ebf b24c 8cbe de99 90bd
000000e0: 0a02 653f 3c7f a2be eac5 dabd 37a1 e7be
000000f0: 7a21 0b3e 987a a9bd 50cd 03be 5c0e 7abc
-0.41086724 0.10724975 -0.7050875 -0.009261995 0.053728834 0.18081631 0.20249487 -0.5204332
-0.14535695 0.15569614 -0.47114208 -0.04309401 -0.03327353 -0.11879756 -0.33304417 -0.28182262
-0.16435543 0.13842043 0.088629045 -0.42894626 0.16261314 0.24661744 -0.6270077 -0.24323577
-0.22187155 0.13236418 0.07242667 -0.5920567 -0.0013586018 -0.18741615 -0.48980564 0.097601004
0.18303433 -0.03458912 -0.47043505 -0.27783278 0.18264829 -0.11718189 -0.12253355 -0.28282565
-0.17774685 -0.047744934 -0.17533047 -0.3270174 -0.11587524 0.030841514 -0.4130162 0.17553858
-0.22833647 -0.49592143 0.29556662 0.0047330805 -0.54803234 -0.6205715 -0.27402264 -0.07060598
0.89456236 -0.31737697 -0.1068228 -0.45240185 0.13586989 -0.08275336 -0.12871289 -0.015262213

model.conv_layers.1.running_mean f4 [64]
00000000: feeb 42be 4bf5 c73e 3951 77be 0dfc c73e
00000010: de73 2a3d 4b08 f7be ae27 02bd 6749 b1be
00000020: 32c1 433d 53fb 923f 7eaf 14bf 8194 103e
00000030: db6b 4abf 7e03 96bf 46be 02be 9b91 5fbf
00000040: 2122 703e f88b 97bf dce6 43bf fcef 35bf
00000050: 4020 5bbc 1fd9 d4bf d13f 04bd 3cf1 5ebf
00000060: fd32 24bd 7694 27be b372 3b3f f7fb 02bf
00000070: 1a64 12bf 0838 93be f123 7d3e 2c72 f5be
00000080: d998 0ebf 7132 453e 637a 02bf 0147 46bf
00000090: f136 57bf 1cb4 273f 97fa b2be 71b6 08bc
000000a0: 6952 ebbd 6700 68bc 82ea 84bd 4f87 41be
000000b0: f098 06bf fcd1 db3e 2c03 62be 3254 2dbe
000000c0: 7cce 9dbf fa4b 47be c134 a4bc 16bb 75bf
000000d0: dded 89be cca0 c0bd 7b5b 733f 534b ffbe
000000e0: a995 e0bf 2c17 f43f 34cd 963f 0db2 31bf
000000f0: eb04 a9bf bd97 12be 48ad 663e 6ff9 b33e
-0.19035336 0.3905433 -0.24152078 0.39059487 0.041614406 -0.48248515 -0.031776123 -0.34626314
0.047791667 1.1482948 -0.5808028 0.1411915 -0.79070824 -1.1719816 -0.12767896 -0.8733155
0.23450519 -1.183959 -0.7652414 -0.7106931 -0.013374388 -1.662876 -0.032287423 -0.87086844
-0.04008769 -0.16365227 0.7322189 -0.5116572 -0.5718399 -0.28753686 0.24720742 -0.4793867
-0.55701977 0.19257523 -0.50968 -0.77452093 -0.8406821 0.655092 -0.3495681 -0.008344279
-0.11490328 -0.014160252 -0.06490041 -0.18899272 -0.52577114 0.42933643 -0.22071522 -0.16926649
-1.2328639 -0.19462577 -0.020044686 -0.95988595 -0.26939288 -0.094056696 0.95061463 -0.49862155
-1.7545673 1.9069571 1.1781373 -0.6941231 -1.3204626 -0.14315696 0.22527039 0.3515124

model.conv_layers.1.running_var f4 [64]
00000000: 4b39 1943 c1dc 4e42 e00f 6242 7663 db42
00000010: cda2 0743 fc0d 9541 5746 8d42 7a41 5042
00000020: 7ce5 3442 972c 3b42 d992 0c42 bbf8 c842
00000030: cf45 af42 85e6 f343 080b 1942 e98d db42
00000040: 6c0f 0243 03c5 ce42 10b2 9642 50cf c943
00000050: dfd7 a041 d029 9242 5a66 6342 8657 1744
00000060: 84ce 9441 db58 8942 caf2 4e42 4005 8843
00000070: 7cd6 8d42 4e85 2243 92f7 0044 8413 3942
00000080: 30f3 9242 1c32 1142 4316 3742 1c4b 7542
00000090: af54 b241 e164 1b43 4b19 6442 ff8f 6b42
000000a0: fcb6 0c42 d903 d041 0b71 2d42 f703 bb43
000000b0: 9a8e 6d42 9907 5542 342b 4f42 fe07 ff42
000000c0: 33fa ba42 b785 9e42 f635 7b42 00ae 4b43
000000d0: 0043 aa42 d02b 7342 2f80 1c43 baf2 9342
000000e0: ea70 9a42 008a 8c43 4cc0 7c42 dd9a c742
000000f0: 6de4 d441 87ae df41 8de8 cc42 1ded 9743
153.2238 51.71558 56.515503 109.69426 135.63594 18.631828 70.63738 52.063942
45.224106 46.793545 35.143406 100.4858 87.636345 487.80093 38.260773 109.77717
130.06024 103.38479 75.34778 403.61963 20.105406 73.081665 56.849953 605.36755
18.600838 68.673546 51.7371 272.04102 70.918915 162.52072 515.8683 46.26906
73.474976 36.298935 45.77174 61.32335 22.29135 155.39406 57.0247 58.89062
35.178696 26.001879 43.360394 374.03098 59.38926 53.25742 51.79219 127.51561
93.48867 79.26116 62.802696 203.67969 85.13086 60.792786 156.50072 73.974075
77.220535 281.07812 63.18779 99.80247 26.611536 27.960218 102.4542 303.85245

model.conv_layers.4.weight f4 [64, 64, 3, 3]
00000000: bed8 693d 62fe 3b3e 645e ffbc fe64 6fbc
00000010: 0b17 a1bc 3c2b 3c3d 6ba3 ba3c 4f95 813d
00000020: 9fbc 443c 9bf1 8abd 2a97 d7bc b01d cdbc
00000030: 74ee a83c ff0d adbc 876b b0bc df75 06bd
00000040: d7b4 fcbc d03f 81bd 9901 da3d c7c9 a03c
00000050: 415a e23c c0a3 f03d dd70 583d e0c6 a03c
00000060: 4cea 83bd d8fc 753d 562f 863d 9614 1e3d
00000070: 722e 12bd 5e43 983d d494 533d 5835 1d3d
00000080: fa86 563d a8ff debc 2d92 01bd 55df 943c
00000090: 9537 85bd b9ad 163d 2a7a 613e e595 f239
000000a0: ca4e 863d 4c7e ad3d 058e 0cbd 0c11 52bd
000000b0: 0ddd 413d 15d2 293e 54fc 103e b359 713e
000000c0: 5e6c 1abc 50b3 41bd 51e7 003d e4bc 20bd
000000d0: 589f 893d ab13 ed3d 397d 643c ee04 013d
000000e0: df51 8f3b 4e3c 07bc 49f6 bebd 115d 37be
000000f0: 8b4e df3d 110b 9f3c acf0 36bd 46b9 d53d
00000100: 5ce4 fe3c 2b46 903d 5fe4 913d 0ba9 d33d
00000110: 07ce 903d 137d c3bc 5e5e bc3d 1db0 2f3d
00000120: e102 3dbb 9eed ef3d 04a7 163e 818d ba3d
00000130: 7053 35bd a6d9 56bc c3b7 123d e11f a3bd
00000140: c3e4 993c ddda 193d 614c 3e3c 67fe 45be
00000150: 75a4 bdbd e2fa e4bd 31f0 10be 39ef acbd
00000160: 5a83 cbbd 2861 02be 3b08 043e 655a b6bc
00000170: 4d1b 17bd ac1a 483d a360 8cbc 6b40 0bbd
00000180: b056 7c3c df9f 653d 1f22 4cbc 0488 2dbd
00000190: ff36 b33d 662c 853e 5a93 163c e36a cfbd
000001a0: 704b 3f3d 9ab2 0bbd b731 a33d e1aa 7d3d
000001b0: ca31 cbbd ee6f a73c 4d8f 363e 3647 a9bd
000001c0: 7d09 22be 2e2b 373e 85cc a4bd ea93 8f3d
000001d0: 1a74 323e ae42 f43d 2abf d73d fcf0 053e
000001e0: 6f1d 3d3e 0404 a53e 1a4b 643e 6e50 2cbe
000001f0: 9803 893d 2fcc 883d 98b6 013d a712 433d
00000200: b324 bb3b d38a a8bb 5c04 8b3d 12eb 973d
00000210: cc31 f4bc 7d54 a5bc f24a c93b 9696 2d3d
00000220: 3c9a 1c3e acb9 d33d f609 803d bf60 fe3c
00000230: 92d6 943d 4e8b 8bbc 275d a43d 9de1 773c
00000240: 89af fd3c 767e 26be 235a 04bd f0b1 093d
00000250: 7aa0 7c3c e61f 8dbe 7d66 5f3c 4026 d63c
00000260: a801 d13c 3588 20be 0f93 98be 8455 92be
00000270: fa15 dabc c7d4 22be d588 c1be 3901 b1bb
00000280: c3e4 b2bc dba5 04be a6c7 1e3e cb4a 873e
00000290: 3ef7 e23e 99c7 06bc 9967 8b3d 3c5c 453e
000002a0: 2aca 84bd 1b4b fdbd 779b c13d e72d 8a3e
000002b0: 6f81 493e 1c44 5a3d 9201 d23d ed12 bc3d
000002c0: ef39 a73d bb5d ec3c 2880 b23d 2649 e63d
000002d0: 9a74 50bd 9723 f2bc 5d36 593e e71a 933c
000002e0: 1456 96bd 16f1 173e ddb5 02bd e2bb 11bd
000002f0: 39da 5d3d 30f7 52be d6f9 33be d87c 17bf
00000300: e26c d3be 360c 41be f9ab 29be 3e58 32bf
00000310: 8809 2dbe b03f 133e ca68 a83d 95b7 173e
00000320: 84a3 ab3d 338e 7d3e 4663 183e f180 133e
00000330: c04e bfbd 96ee 513d b3dd 143e b7b9 6a3d
00000340: a4e4 683d 874e 833d 0c82 173d 7166 a93d
00000350: 2087 bd3c 689c 93bb c945 0d3d 8443 1a3d
00000360: b78f 3b3d 132f d7bb f3cc 8fbd 22ab e83d
00000370: 8594 5d3d 41b0 dcbc 7cfb d73c ce6c 1d3d
00000380: b8f8 9c3c c03e b8bd adf9 21be fcb0 873e
00000390: a28c cebb 4aa5 d8bd db3c 0a3e 14ff 4fbd
000003a0: faa7 263d 4871 ab3d 87b2 17bc 64aa 223e
000003b0: 7367 ad3e 1c49 47bf 9c1f 80be f6a7 4c3e
000003c0: b6d7 e7be 8e8b 0cbf f310 7bbe 1cfb 393e
000003d0: 5491 ce3d 1932 4c3e da65 3bbe 366e e83d
000003e0: d0b8 2b3e 6231 46bd ce84 423d bfb4 a4bd
000003f0: 71ed ec3d ed30 3f3d b98e f33c 60fb 3d3d
0.057091467 0.18358758 -0.031172939 -0.014611481 -0.019664308 0.04593967 0.022783002 0.063273065
0.012007861 -0.06784364 -0.026317198 -0.02503857 0.020621516 -0.021124838 -0.021535648 -0.032827254
-0.03084795 -0.063109994 0.10644836 0.019627465 0.027630927 0.11749983 0.05284201 0.019626081
-0.06441173 0.060055584 0.06551997 0.03859385 -0.035688825 0.07434724 0.051655605 0.03838095
0.052374817 -0.027221516 -0.031633545 0.0181729 -0.06504742 0.03678677 0.22019258 0.00046269517
0.065579966 0.08471355 -0.034315128 -0.05128579 0.04732995 0.16584046 0.14158756 0.23569374
-0.009425251 -0.047290146 0.0314706 -0.03924264 0.067198455 0.11576017 0.013945871 0.031498842
0.0043737735 -0.008254124 -0.09324319 -0.17906596 0.10903653 0.019414457 -0.044663116 0.10435729
0.03111475 0.070446335 0.071236365 0.10334977 0.070705466 -0.023863351 0.091976866 0.042892564
-0.0028840827 0.11715244 0.14712149 0.09109021 -0.044269025 -0.013113415 0.03581978 -0.07965065
0.01878584 0.03756224 0.01161489 -0.19335328 -0.09259883 -0.111806646 -0.14154126 -0.084440656
-0.09937163 -0.12732375 0.12893765 -0.0222599 -0.03689127 0.04885356 -0.017135924 -0.03399698
0.015401527 0.056060668 -0.012459307 -0.042366043 0.08750724 0.26010436 0.009190405 -0.10127809
0.046702802 -0.034105875 0.07968467 0.06193054 -0.09921606 0.020439114 0.17828102 -0.082655355
-0.15823932 0.17887565 -0.080468215 0.07010634 0.17427102 0.11926781 0.105345085 0.1308021
0.1846826 0.32229626 0.22294274 -0.16827556 0.066901386 0.0667957 0.031668276 0.04762521
0.005711162 -0.0051435023 0.06787941 0.07417883 -0.029808901 -0.020181889 0.0061429674 0.042379938
0.1529321 0.103381485 0.062519 0.031051992 0.072674885 -0.0170342 0.0802558 0.015129474
0.03096749 -0.16259179 -0.032312524 0.03361696 0.01541912 -0.275634 0.013635275 0.026141286
0.025513485 -0.15676959 -0.29799697 -0.28580868 -0.026621807 -0.1590148 -0.37799707 -0.005401757
-0.021837598 -0.12953894 0.15505847 0.2642425 0.44329256 -0.008226299 0.06806869 0.19273466
-0.06483872 -0.12367841 0.09453481 0.26988146 0.19678281 0.05328761 0.10254206 0.09183297
0.08165347 0.028853288 0.0871585 0.11244421 -0.05089245 -0.029557986 0.21212144 0.017957164
-0.07340637 0.1483806 -0.03191172 -0.03557957 0.05416319 -0.20602107 -0.17575774 -0.5917487
-0.41294008 -0.18852314 -0.16569509 -0.69665897 -0.16898167 0.14379764 0.08223112 0.14816125
0.083807975 0.24761276 0.1488162 0.14404656 -0.09341192 0.051252924 0.14537697 0.057306018
0.056858674 0.06411462 0.036989257 0.08271492 0.023135722 -0.004504729 0.03449038 0.037662044
0.045791354 -0.006566891 -0.07021513 0.11360766 0.054096717 -0.026939513 0.026365034 0.038433842
0.019161567 -0.089963436 -0.158179 0.26502216 -0.006303386 -0.105784014 0.13499777 -0.05078037
0.04068754 0.08371216 -0.009258873 0.15885311 0.33867988 -0.7784593 -0.25024116 0.19985947
-0.45281762 -0.54900444 -0.24518184 0.18162197 0.10086313 0.19940986 -0.18300572 0.11349146
0.16769719 -0.04838694 0.047489934 -0.08042287 0.11568726 0.04667752 0.029731141 0.046382308

model.conv_layers.5.weight f4 [64]
00000000: 5f1e 6a3e 0e67 6b3f c140 203f c335 c83e
00000010: 6f02 313f c509 823e 9ec2 463f edb4 513d
00000020: 5800 153f 1a5f 393e 179e 7d3f afff 743e
00000030: cad6 a73e 9199 93bc 7114 ad3f 8667 4d3f
00000040: 28c3 9d3e 2cf6 8c3d 5242 0d3f e245 013f
00000050: 5c34 223f 2f20 683e 1886 2f3f 3faf cc3e
00000060: 50a9 9c3e 4735 543f 90e0 ec3e 0b15 b63e
00000070: 3511 7d3d 2551 363f 6fa0 593c a953 17bd
00000080: 1c37 153f e44e 893e c1dc 2d3e f510 2abc
00000090: 6e15 433f f1e6 dd3e 87d9 3b3f 916c 023f
000000a0: 5002 633f c242 353f 7456 cc3d 56e6 683f
000000b0: 7370 b93e 25d4 4e3f d47a 4abc 3bce a03e
000000c0: 07d2 123f 28bf 863f ba18 873e 2ce1 0e3f
000000d0: f73b 143f 3a35 073f dafa 1f3f 4b9a 173f
000000e0: 0613 323f edc3 cb3e 0935 363e 5dba 823f
000000f0: 6718 193f 2e1a 4f3f e835 033f f6ff 5c3f
0.22863148 0.91954124 0.62598807 0.39103517 0.6914434 0.2539808 0.7764071 0.051197935
0.5820365 0.18102685 0.9906935 0.2392566 0.3278106 -0.018017562 1.3521863 0.8023609
0.30812955 0.06882891 0.5517932 0.5049726 0.63361144 0.22668527 0.68563986 0.39977452
0.30597925 0.82893795 0.46265078 0.3556293 0.061783988 0.71217567 0.013282879 -0.03694502
0.58287215 0.26818 0.16978742 -0.010380019 0.76204574 0.43340257 0.73378795 0.5094691
0.88675404 0.7080499 0.09977427 0.90976465 0.36218604 0.80792457 -0.012358386 0.3140734
0.57351726 1.0527086 0.26386052 0.55812335 0.57904 0.5281559 0.62492144 0.5921981
0.6956028 0.39797917 0.17793669 1.0213124 0.5980286 0.8089932 0.5125413 0.86328065

model.conv_layers.5.bias f4 [64]
00000000: 4f88 ebbe 9ae0 14bf f834 d4be 0985 a2be
00000010: 168f 9bbe 397e acbe a327 b0be 043f 633f
00000020: 9efb e3be ee7d c6be 4292 95be c08f 81be
00000030: 86cc c9be cb83 d9bc 1f63 bdbe a8d5 9cbe
00000040: a1b7 e4be 47fe 4bbe ea0e 05bf 4dd0 9cbe
00000050: 8c08 f8be d4dd cdbe 0059 11bd 4ac0 873d
00000060: 6065 cdbe 4ad1 4fbf 3ab0 6cbe ce3f 40be
00000070: 6f09 26be e89a b3be 4359 85bd 521f 453e
00000080: 81f5 90be 3a77 ccbe c62c a3be 315f 30bd
00000090: 8a43 3fbd 6d3b 43be 706d d9be 5ce8 a3bd
000000a0: 739f 2fbf 1f52 a2be 1105 86be 323d 1abf
000000b0: be2d aebe 3b01 c83c ea24 42bd 69cc ebbe
000000c0: a9e7 8abd aeb8 0fbe e1df 4ebe 8d5d 25be
000000d0: 1250 6ebe fb5f d9be 4b6a 82be dedf 80be
000000e0: 3b76 9dba df51 c6be 4bc5 a7be d0a8 0abf
000000f0: 3c60 2fbf 2281 94be 3590 b8be 2f3f afbe
-0.46002433 -0.58155215 -0.41446662 -0.31742123 -0.30382603 -0.3369005 -0.3440524 0.8876803
-0.44527906 -0.38767952 -0.29213148 -0.25304985 -0.39413851 -0.026552102 -0.36989686 -0.30631757
-0.44671348 -0.19921218 -0.5197588 -0.3062767 -0.4844402 -0.40208304 -0.035485268 0.06628473
-0.40116405 -0.81178725 -0.231141 -0.1877434 -0.16214536 -0.35079122 -0.06511166 0.19250229
-0.28312305 -0.39934713 -0.31870097 -0.04305953 -0.04669527 -0.19065638 -0.42466307 -0.080033034
-0.68602675 -0.31703278 -0.2617574 -0.60249627 -0.34019274 0.02441465 -0.047398485 -0.4605439
-0.06782467 -0.14035293 -0.2020259 -0.16148968 -0.23272732 -0.4245604 -0.2547172 -0.25170797
-0.0012013385 -0.38734338 -0.3276771 -0.5416384 -0.68506217 -0.2900477 -0.3604752 -0.34227893

model.conv_layers.5.running_mean f4 [64]
00000000: 5776 e0be 2761 7440 dd1f ec3f 107e 1dc0
00000010: 8a52 d8c0 4597 423f 0307 8f40 d9ac b4bf
00000020: 874a 3540 e1fe bcc0 9ff3 cec0 6256 86c0
00000030: 5ad5 1dc0 6730 723e a6dc 26c1 b0cb 18c1
00000040: 022b 1cc0 14ce dbbf 4f60 6140 cc78 1241
00000050: 8405 66c0 f3be 17bf 4eac c83e 1ae1 b9c0
00000060: 1c4c febf b733 9640 47cb 7bbf 3d0f 9240
00000070: 1b72 b7bf 1c05 07c1 bfaa e0bf 6f5d 44c0
00000080: 726c 12c1 4ffd aebf ca81 6940 9728 f9bf
00000090: e2c6 66bf b2ff f1c0 5966 e4c0 7260 293f
000000a0: 5e30 b740 77b0 96c0 a199 b3c0 b877 9040
000000b0: 6280 f040 a490 bbc0 fbd1 f9bf 514b 6540
000000c0: 12d1 6ec0 d679 e73e 028d 75c0 8dc5 e4c0
000000d0: 87c3 2241 b507 88c0 e2ed 98c0 5903 d6bf
000000e0: 9ebb 25c1 4ec1 47c0 3f1e 1dc0 9c9e 7440
000000f0: 92bc c740 b69a 3bc1 79da 83bf 4aa1 ff3f
-0.43840286 3.8184297 1.8447224 -2.4608192 -6.7600756 0.7601207 4.469606 -1.4115249
2.8326738 -5.906113 -6.467239 -4.198045 -2.466147 0.23651277 -10.428869 -9.549728
-2.440125 -1.7172265 3.5215032 9.154491 -3.5940866 -0.5927574 0.39193958 -5.808728
-1.9866977 4.693813 -0.9835705 4.56436 -1.4331697 -8.438747 -1.7552108 -3.0682027
-9.151476 -1.3671054 3.6485467 -1.9465512 -0.9014722 -7.562463 -7.1374936 0.6616279
5.724654 -4.709041 -5.6125035 4.514614 7.5156717 -5.8614063 -1.9517206 3.582722
-3.7315106 0.4521014 -3.8367314 -7.149115 10.172736 -4.250941 -4.7790384 -1.6719772
-10.358305 -3.1211734 -2.454971 3.8221807 6.241769 -11.725271 -1.0301048 1.9971097

model.conv_layers.5.running_var f4 [64]
00000000: 602a 2741 d674 e041 66e5 b641 8d2b 1d41
00000010: f4e9 8242 0510 d241 8f44 4841 13c5 0d43
00000020: c869 8b41 2078 ab41 0c51 f641 9de5 4741
00000030: e75d e641 ea89 2040 174f 2942 5b21 1542
00000040: 0ff7 8e41 ba62 7941 5c35 0941 ce92 bd41
00000050: 5b3b b941 971f a940 f445 5741 f846 3142
00000060: 2ebd cf41 d88a 9d41 cedb da41 7793 8641
00000070: cede dd3f b602 2c42 c1ec 2b3f a7c1 c841
00000080: 2e03 5f41 2eba 5641 659d 9141 2431 973f
00000090: d7ef 7d42 299c 6e41 db1c 9441 801d 3242
000000a0: c8a6 0142 8455 fc41 4e53 e741 ffab a041
000000b0: 152c 1942 64bd 0a42 1c51 c23f 39cb ff40
000000c0: 65af 2341 c4a6 3d41 72c2 3242 9c5d 1e41
000000d0: 34c7 dc41 ad30 4b41 bf8d 1841 dc5c 8441
000000e0: 6937 9241 d6c7 8b41 8a4a 0540 2bf3 bf41
000000f0: dd34 8041 57ce ee41 3dae 9c41 e6e7 4b41
10.447845 28.057049 22.862011 9.8231325 65.45694 26.257822 12.516738 141.76982
17.426651 21.433655 30.789574 12.493558 28.79585 2.5084176 42.327236 37.282574
17.870634 15.586603 8.575527 23.696682 23.153982 5.285106 13.454578 44.319305
25.967373 19.692795 27.357327 16.822004 1.733362 43.002647 0.6715813 25.094557
13.938276 13.420454 18.201853 1.1811872 63.48422 14.913125 18.51409 44.52881
32.412872 31.541756 28.915676 20.083982 38.29305 34.68495 1.5181003 7.9935575
10.230321 11.853214 44.689888 9.897854 27.597267 12.699384 9.534606 16.545341
18.277056 17.472576 2.0826745 23.993734 16.025812 29.850752 19.585077 12.744116

model.conv_layers.8.weight f4 [64, 64, 3, 3]
00000000: 15e4 89bc fc45 85ba b7c3 f0bc a2b3 c53d
00000010: f389 29bd 97bc 7dbc 21bd bd3c 075e 0bbd
00000020: ece6 0cbe d990 d63b ee5f 283d 88b0 293e
00000030: 5f24 4fbe 2558 b93d 8f0e 38bd ef18 eebc
00000040: 67d2 5bbd d677 02be e48e 69bd d3b6 c73b
00000050: 1d0b 85bc b732 51bd 714e 8fbd 3b0c 3abe
00000060: cfc2 95bd 15d2 eabc 6cd5 f0bd 02d1 71bd
00000070: ee64 7b3d 29f1 883d 0c0d f03b 76c7 10bc
00000080: 0e65 413d 079d c53c 1221 cdbc 927e 9bbc
00000090: 024a 033c 97fc 353d 350c 2e3e e46c 74bc
000000a0: 1e87 af3d ed3c 803d 4b71 e73c 26e7 15be
000000b0: e95b 2a3e 0586 47bb 2423 3b3d 45a4 1cbd
000000c0: d3c9 06bc c547 103d 6236 f43c 3e30 803c
000000d0: c864 513d c415 7d3c 6569 c03d 9cb5 3c3d
000000e0: 8030 28bc 3a11 1b3e a30d f53d c31d 1c3d
000000f0: 9f68 223c 09cc 8a3d 5874 a0bd bd3e 8c3e
00000100: cafe 7bbe 6ed3 7bbe 5b15 913e aac2 07bd
00000110: 5dba 18be b985 863e 87dd d63d 2a11 dbbd
00000120: db4f c7bc 9c4a bd3b 842f 873d 440c 033d
00000130: 7202 b13d ea06 3ebd 1e5b d33d 4ffb 293e
00000140: 679f 39bd 74d2 493d 0592 c33d b879 053d
00000150: 1d52 953c c769 8f3d d60f 103d 7331 8f3d
00000160: e271 2d3d e5ff b0bb 57b8 2cbd 91fb bebb
00000170: 9797 b1bd c9e5 123d 5b0a b8bc 16ba 0dbc
00000180: e954 963d dc76 e63c 6e20 063b 963f 5d3c
00000190: b3dd c43d d4d0 0a3d bbbe 4d3d c984 383c
000001a0: 58f5 dd3d 79f9 403c 76a0 923d 9fc3 163e
000001b0: 043e 1c3d d1af 653d a37f 8dbc 0e72 293d
000001c0: bd03 9e3d 4cd0 cdbd ca59 c23d 4979 db3d
000001d0: 344f 723d b025 163b 38cf 803c 624f 773c
000001e0: 7c5e cb3b 27f7 293c c3d7 243d c4cf 133c
000001f0: 2ce5 f0ba 2b0a 0cbb acb0 3bbd 7a29 4fbc
00000200: 4c1f a93d 3b63 c4bd eeef 95bc 1ad1 df3d
00000210: 0618 b7bd 6f48 a03d 32ef b8bd 5735 87bd
00000220: afbb bc3d a6a6 be3d 94f7 25bd ae8c 1bbe
00000230: 3f50 27bd 9e2d 60be 437d a7be 9712 e0bd
00000240: af60 9ebd 6c52 71bd c5b5 36bc c9f6 0d3d
00000250: 1a12 78bd fa08 43bb c058 92bc f509 f83c
00000260: cbcf 97bb 1a9a 313d 9a08 623e 0c8e c93d
00000270: c2a2 0a3c da68 3d3e 1acf cd3d ddbb 323d
00000280: 81f0 0a3d 6fae 8d3d b4e3 123c 2cca 0ebd
00000290: 5f3d 9c3c 217b 5f3d 6055 f43c f48f 9abd
000002a0: e57e 20bd 2d0a 99bd 0fa2 d9bd 9329 f5bd
000002b0: 5446 a03c 525c 423e e27c 94bd 52b1 133e
000002c0: c307 d3bd 042e 7fbc 98c9 a9bd fcc2 94bd
000002d0: 9146 143d af87 02bd c560 963c 5aec e1bc
000002e0: 2bb0 823c 1c12 8b3c 1006 9abd 9aae 4cbd
000002f0: ca46 543b bea0 17bd fa97 2cbd d0f9 36bd
00000300: 8c8c debb eee9 d8ba 99dc a13c 6b45 d63b
00000310: dbf1 38bc f194 a7bc 0eb3 4f3d e9cd 9dbe
00000320: 7f63 5bbe eff6 443e ee20 3a3d b279 0ebd
00000330: 1b39 b4bc 01c1 913d 4401 3cbd 361d 0fbe
00000340: 792d f0bd dd69 4cbd 072a 73bc 4155 b1bd
00000350: 80ae 41be c304 0ebe 0d7e 303b 9f92 52bd
00000360: d3c0 c9bc 1ea5 2f3e e1d2 bc3d c176 2d3d
00000370: fc9c 763d 8656 6b3d 2313 8fbb d215 8e3c
00000380: 260a 453d 9d52 d53c 1e59 1ebe eca6 0d3c
00000390: 4193 073e 0689 2ebb 5c29 e3bd 006e 63bd
000003a0: df00 22be 7a3c ddbd 4b2f a23d bd40 543d
000003b0: 1718 73bc 1a4c efbc c86f ac3d 90f3 a93d
000003c0: 7b21 8dbc 1f37 603d e9e3 63bd a607 393d
000003d0: 2b39 0d3c fab3 833e fb3d 1e3d 9caa bd3c
000003e0: 2103 debc bac4 053d 975f 9bbe ff16 61bc
000003f0: a04b 273d 2f7a c8bc e111 4b3c d3a3 75bb
-0.01683239 -0.0010167952 -0.0293902 0.09653403 -0.041391324 -0.015486858 0.023161473 -0.03402522
-0.13759965 0.006548029 0.04110711 0.16571248 -0.20228718 0.09050015 -0.04493576 -0.029064624
-0.053667452 -0.12741026 -0.057021037 0.0060947924 -0.01624065 -0.051073756 -0.069973834 -0.18168728
-0.073125474 -0.028664628 -0.11759457 -0.059037216 0.06137555 0.06686623 0.007325774 -0.008836618
0.047215514 0.024122728 -0.025040183 -0.018981252 0.00801325 0.04443034 0.16996844 -0.01491854
0.085706934 0.06261621 0.028252264 -0.14638957 0.16636623 -0.0030444872 0.04568781 -0.038242597
-0.00822683 0.035224695 0.029811088 0.015648004 0.051121503 0.015447084 0.093951024 0.046071634
-0.01026547 0.1514329 0.119654916 0.03811432 0.009912639 0.06777198 -0.07834691 0.27391616
-0.24608913 -0.24592373 0.28336605 -0.03314463 -0.14914842 0.26273897 0.10491472 -0.10696633
-0.02433007 0.0057767164 0.0660086 0.03199412 0.086430445 -0.046393313 0.103201136 0.16599773
-0.045318034 0.04927297 0.095493354 0.032586783 0.018227631 0.07002597 0.035171352 0.069918536
0.042344935 -0.0054015988 -0.042167988 -0.005828329 -0.086714916 0.03586367 -0.022465875 -0.008650323
0.07340414 0.028132848 0.0020466107 0.01350393 0.09612598 0.03389056 0.050230723 0.011262127
0.10837811 0.011778229 0.07159512 0.14723061 0.03814508 0.056075875 -0.017272776 0.041368537
0.07715557 -0.10049495 0.09489782 0.10716493 0.059157565 0.0022910647 0.01572381 0.01509461
0.006206332 0.010373867 0.04024483 0.009021703 -0.0018378845 -0.0021368365 -0.045822784 -0.012644166
0.082579225 -0.09589239 -0.018302884 0.10928555 -0.08940129 0.078263156 -0.09029998 -0.06601971
0.09215485 0.093091294 -0.040519312 -0.15190384 -0.040848013 -0.21892402 -0.32712755 -0.10941046
-0.07733285 -0.058916494 -0.011151736 0.03465918 -0.060564138 -0.002975999 -0.017864585 0.030278185
-0.004632925 0.043359853 0.22073594 0.098415464 0.008461656 0.18497029 0.10049267 0.04363619
0.03392077 0.06918036 0.0089654215 -0.034860775 0.019072233 0.054560784 0.029825866 -0.07546988
-0.039183516 -0.07472644 -0.10626613 -0.1197082 0.019564785 0.1898053 -0.07250382 0.14423111
-0.10304215 -0.015574936 -0.08290404 -0.07263753 0.03620011 -0.03186768 0.01835669 -0.027578522
0.015953144 0.016976409 -0.075206876 -0.0499712 0.0032390826 -0.03701853 -0.042137124 -0.044671834
-0.006791657 -0.0016549209 0.01975851 0.006539037 -0.011288132 -0.020456763 0.05070787 -0.3082116
-0.21424673 0.19234823 0.04544156 -0.034784026 -0.021999886 0.07116891 -0.045899644 -0.13975987
-0.11727423 -0.049905647 -0.014841563 -0.08658839 -0.18914223 -0.13869004 0.00269306 -0.05140936
-0.024628079 0.17152831 0.092199095 0.04234958 0.060208306 0.057455562 -0.004366295 0.01734439
0.04810538 0.02604037 -0.15463683 0.008645754 0.13239767 -0.0026631965 -0.11091873 -0.055524826
-0.15820645 -0.108025506 0.07919177 0.05181955 -0.014837286 -0.029211093 0.08419758 0.08298409
-0.017227879 0.054740068 -0.055637274 0.04517331 0.008619587 0.2572325 0.038633328 0.023152642
-0.027101101 0.032658316 -0.30346367 -0.013738393 0.040843606 -0.024472324 0.012394399 -0.003748168

model.conv_layers.9.weight f4 [64]
00000000: 4759 6b3f c8c1 b73c c6b5 2d3f 312f 5f3f
00000010: b75f 923f da32 c23f e17e 8f3f 0007 8b3f
00000020: a012 c23b 2a5a d73e 4bb8 753f 3c63 493f
00000030: b36a ad3f 9aa7 4d3f b5ee 033f 5f9f b93f
00000040: 7a3a c73f 4b76 833f 21eb 963f 3454 8d3f
00000050: 1fc0 c13f b6af 743f 47e4 853f bd38 9c3f
00000060: 1536 583f 8f15 843f 941c 8f3f 48c4 a53f
00000070: 4145 193f 7ec4 d63f 595c 213f 1fa0 d13f
00000080: 6997 983c e519 dd3f bdb8 0fbc 0076 a43f
00000090: d0b8 a43f faeb 833f c2a5 5d3f 2666 b93e
000000a0: d445 a63f 7994 953f 0c72 603f cf54 a63e
000000b0: 2bcc c33f 5b05 9b3f b0e7 343f b865 1f3f
000000c0: d458 d53e 9cfd bf3f aac1 933f f0ba 223f
000000d0: 89f3 523f 5867 b53f dba1 383f d590 dd3f
000000e0: c113 053c b66c c63f 12de 203f fb0b d13f
000000f0: 7089 873f 8659 ae3f 63dd 903f 4c99 533f
0.919331 0.02243127 0.6785549 0.87181383 1.143546 1.5171769 1.1210595 1.0861511
0.0059226304 0.42060977 0.95984334 0.78667045 1.3548187 0.80333865 0.51536113 1.4501761
1.5564721 1.0270475 1.1790506 1.1041322 1.5136756 0.95580614 1.046029 1.2204815
0.8445752 1.0319079 1.1180596 1.2950525 0.598713 1.6778715 0.63031536 1.637699
0.018626885 1.7273527 -0.008772072 1.2848511 1.28689 1.0306389 0.8658105 0.36210746
1.299006 1.1685935 0.8767402 0.3248658 1.5296682 1.2111009 0.7066603 0.62264585
0.41669333 1.499927 1.1543477 0.63566494 0.82402855 1.4172163 0.7212197 1.7309824
0.0081223855 1.5501926 0.6283885 1.6331781 1.0588818 1.362107 1.1317562 0.8265579

model.conv_layers.9.bias f4 [64]
00000000: dd1d 1ebe 0bb3 89bd f42d c4bd 21f1 0abe
00000010: 6782 27be cb17 48bd ed72 e63c 392d 133c
00000020: f7cf 69bd 2468 2ebd 3f1b b9bd 5f27 563d
00000030: 714c 083e 77c5 a5bc 59e2 3ebd 2f0c 383c
00000040: 122b 9e3d d732 9a3c 094a 88bc 7ab4 fe3a
00000050: e828 773d 116b 0cbe 80a7 71bd d657 a83d
00000060: 3afd b8bd 69cb 9ebd 7752 76be cbec 9cbc
00000070: aa23 22be 4710 60be b79e 52be 5d41 ec3d
00000080: 0080 8fbd f70b 2a3e de11 92bd 320a b1bd
00000090: 54dc 833d 7fcd 0dbe 33a4 52be f61a 633d
000000a0: 1c6e 0c3e 225e f8bc c99f 3dbe 2ab3 c6bd
000000b0: 08ec 1b3b b6a0 b3bd 9449 d1bd 6b77 453d
000000c0: 22d3 3bbd effa 86be 2ba0 a63c 0945 bbbd
000000d0: 2025 e1bd 53d3 02bd 3e4e f9bd 3421 f43d
000000e0: d818 23bd d56d ffbd 6649 b6bd e649 183d
000000f0: dca1 ec3c 97bb e53c d5b2 75bc 3225 34be
-0.1544108 -0.06723603 -0.09579077 -0.13568546 -0.16358338 -0.048850816 0.028130973 0.00898295
-0.057083096 -0.042579785 -0.090384 0.05228364 0.1331041 -0.02023576 -0.04660258 0.011233374
0.07723059 0.01882307 -0.016636865 0.0019432448 0.060341746 -0.13712718 -0.05899763 0.082198784
-0.09032674 -0.07753641 -0.24054895 -0.01915588 -0.15833917 -0.2188121 -0.20568357 0.115359046
-0.07006836 0.16606127 -0.07132314 -0.08644523 0.06438509 -0.13847922 -0.2057045 0.055445634
0.13713878 -0.030318324 -0.18517984 -0.097021416 0.0023791809 -0.087708876 -0.10219112 0.04820959
-0.04585565 -0.26363322 0.020340046 -0.09144027 -0.10993409 -0.031939816 -0.12173127 0.119203955
-0.039818615 -0.12472121 -0.089007184 0.03717985 0.028885774 0.028043551 -0.01499625 -0.17592314

model.conv_layers.9.running_mean f4 [64]
00000000: dc55 d93f 5800 1bbe 58ba 2a40 c6b5 953d
00000010: ec3d 803f 3225 913f 951f a33f 4f2a 0240
00000020: e970 e9bf ef89 043f f1b5 063f 7ef9 bcbf
00000030: 85c3 b73f 9e40 3c3d 496c 233f 15fd e93e
00000040: 3be2 0140 be8d 14be 7471 7d3d 2d79 9440
00000050: 9df6 24c0 de5d 873f 60e4 2a40 0e75 d13e
00000060: 3666 3740 4d14 933f d092 0a40 6880 7b3f
00000070: 0eac 293f b2f9 69bf eaaa 9e3f e2f9 0840
00000080: 7e3f d73f 5fe1 ef3f 7dad 30c0 26a2 5340
00000090: 51f3 3540 1517 c8be 984f c2bf 67c6 ef3f
000000a0: ccb9 ac3f 64f8 843c e8e0 a83e fd0a 72c0
000000b0: fea1 0340 5f15 82bd 80f3 5bbe be6d 3740
000000c0: 30da 50bf c636 a1be 19d6 313e fd02 1c40
000000d0: 89b8 6fc0 9670 bd3f 6c89 1f40 99ab 0b3f
000000e0: 67e9 5cbf fc53 3f3e 0aba 603f 89e3 8f3f
000000f0: 7657 b93f dded 1e40 7c46 9040 c00c cc3f
1.6979327 -0.1513685 2.6676235 0.07310061 1.0018897 1.1339476 1.2744013 2.0338323
-1.8237582 0.5177297 0.5262137 -1.4763639 1.4356543 0.04596006 0.63837105 0.457009
2.029433 -0.14507195 0.061875775 4.639792 -2.577552 1.0575521 2.670189 0.40909618
2.8656135 1.149057 2.1652107 0.9824281 0.6627816 -0.9139663 1.2395909 2.1402516
1.6816251 1.8740653 -2.760589 3.3067718 2.8429759 -0.3908011 -1.518054 1.8732423
1.3494201 0.016231723 0.3298409 -3.7819207 2.0567622 -0.063517325 -0.21479607 2.8660731
-0.8158293 -0.314871 0.17366828 2.4376824 -3.7456381 1.4799984 2.4927626 0.5455871
-0.86293644 0.18684381 0.87783873 1.1241313 1.4479816 2.483268 4.508604 1.5941391

model.conv_layers.9.running_var f4 [64]
00000000: 7266 5240 1b1b a93e af0a 9b40 a54c 8340
00000010: b2aa 8640 e5d0 db40 15b8 2f41 455c 1541
00000020: d8e9 e03e 6241 3240 4ca0 f640 5541 0f41
00000030: ac8c 0541 5129 2e41 41fd 8040 aada 6241
00000040: 96ac af41 4bb3 5c41 45cd d340 e566 a141
00000050: e91f 2b41 b4a5 e740 f16e 9c41 9b38 0e41
00000060: 9b0e 1c41 17af 1441 8a89 a240 e414 f740
00000070: 8036 5740 36da 5841 e075 8d40 d432 a441
00000080: 3ee1 6f3f b875 f640 6fd7 583f ad7c 1241
00000090: c012 0841 bc30 bd40 cb01 4840 a03e 4c41
000000a0: 072d 2141 1a3f 6540 4e35 1340 f0c8 8640
000000b0: 1539 f340 d40a 6041 6bce 3640 ed2e 0f41
000000c0: a954 8941 88e8 4a41 091a f440 dfd6 3740
000000d0: 4bc9 0941 ee38 c141 7e03 9d40 910d 3241
000000e0: f358 c13e 017a 3a41 6ba4 7c40 8f04 1b41
000000f0: b1b6 9a41 5713 ab41 577c f340 7f8a a540
3.2875028 0.33028492 4.845054 4.103106 4.208337 6.86925 10.982442 9.335027
0.4392841 2.7852407 7.7070675 8.95345 8.346844 10.885087 4.030915 14.178385
21.95927 13.793773 6.6188073 20.175241 10.695291 7.2389774 19.55417 8.88882
9.753566 9.292747 5.0792894 7.7213 3.3627014 13.553274 4.420639 20.524818
0.9370307 7.70187 0.84703726 9.155438 8.504578 5.912199 3.1251094 12.765289
10.073493 3.5819764 2.3001285 4.2120285 7.600718 14.002644 2.8563488 8.9489565
17.166338 12.68177 7.628178 2.8724897 8.611644 24.152798 4.9066763 11.128312
0.37763175 11.654786 3.9475353 9.688613 19.339205 21.384443 7.608928 5.1731563
