robotics-rl-srl/logs/baxter_real/19-01-31_14h02_11_custom_cnn_ST_DIM2_priors/srl_model.pth (torch_old, 360573 bytes, 27 tensors)

forward_net.weight f4 [2, 7]
000000 da 6c 47 3e 40 d4 2a be 06 10 96 bd 99 a9 35 3e
       0.19475117 -0.1668253 -0.07327275 0.17740478
000010 4f 2f b6 be a8 1c 68 3e fd 3e 9f bd ea e6 44 3e
       -0.3558297 0.22667181 -0.07775686 0.19228712
000020 d5 37 57 3d 9d 8f 3d bd 75 b2 d6 3d c9 be 98 3c
       0.05254348 -0.04627954 0.10483257 0.018645661
000030 37 5b 0d 3e 03 d4 16 be
       0.13804327 -0.14729314

forward_net.bias f4 [2]
000000 0d bf e1 bc 09 60 0b bd
       -0.02755692 -0.034027133

inverse_net.weight f4 [5, 4]
000000 30 6c 94 3d 00 e7 02 bb 64 c9 df 3e 50 54 1f 3e
       0.07247198 -0.0019974113 0.43708336 0.15559506
000010 08 ac 3e be 36 9d 9a be 70 a3 ab bd b0 d8 5c be
       -0.18620312 -0.30198067 -0.083807826 -0.21567035
000020 d4 11 24 be 80 1f c4 3c d4 9b 98 3e 38 25 8b 3e
       -0.16022426 0.023940802 0.29806387 0.27176833
000030 c6 40 fa be 1c b3 9e 3e c8 08 0f 3e 88 d4 f2 3e
       -0.48877543 0.30996025 0.13968194 0.47427773
000040 ae f9 a8 3e 52 40 e9 be 2e 68 f3 be 3c f4 76 be
       0.3300299 -0.45556885 -0.4754042 -0.24116606

inverse_net.bias f4 [5]
000000 ee cb e0 3e 10 91 aa bd 80 1d 5b 3e a8 ee 6d be
       0.43905586 -0.0832845 0.21397972 -0.23235571
000010 1a 31 fb 3e
       0.490609

reward_net.0.weight f4 [16, 4]
000000 5c a0 58 be 12 fb bf 3e 80 03 c2 3b 82 dd 86 be
       -0.21154922 0.3749624 0.0059208274 -0.26340872
000010 7a 96 83 3e d4 e3 87 be e4 94 16 3e fc d7 13 be
       0.25700742 -0.26541007 0.14705235 -0.1443786
000020 00 88 60 bd 88 1d f6 be bc 1c 74 be 10 ea 8a 3e
       -0.0548172 -0.48069406 -0.23839086 0.271317
000030 40 e9 f8 bd 1a fd fe 3e e6 34 cd 3e 20 ca bf bc
       -0.12153864 0.49802476 0.4007942 -0.02341181
000040 2c e0 aa be f2 e4 9b 3e 20 e7 1e 3e c4 7b a5 be
       -0.33374155 0.3044811 0.15517855 -0.32320988
000050 8e 48 a6 3e 06 6b 9b 3e 8c 0b e3 3e d6 80 8f be
       0.3247723 0.3035509 0.44344747 -0.28027982
000060 78 8e a8 bd c0 b1 1e bc 18 90 95 3d 78 48 c2 be
       -0.08230299 -0.009685934 0.07302874 -0.37945914
000070 d0 a9 b5 be e2 43 8b 3e a8 1e f0 bd 30 19 7a 3e
       -0.3548112 0.27200228 -0.11724597 0.24423671
000080 40 83 e9 3c d0 1c 28 3e 80 2a e1 3d b4 29 3a 3e
       0.028504968 0.16417241 0.10994434 0.18179971
000090 cc cd 7d 3e ae 15 ed be a4 db 80 3e e2 ff b3 be
       0.24785537 -0.46305603 0.25167572 -0.3515616
0000a0 80 27 c1 be 80 18 f9 3c 38 7f ae bd de 5a 96 3e
       -0.3772545 0.03040719 -0.08520359 0.293662
0000b0 3c 42 94 be 52 94 e3 be 0e 4f ba 3e 30 d7 97 bd
       -0.28956783 -0.44449097 0.3638844 -0.07414091
0000c0 32 fd 8f 3e a0 99 24 3e d4 f7 bf be 48 b8 cd 3d
       0.2812286 0.16074228 -0.37493765 0.100449145
0000d0 18 f6 f5 3d 32 68 ab be 08 ee 72 be 5c 94 2e 3e
       0.12009829 -0.33477932 -0.23723614 0.17048782
0000e0 e8 6b b7 3d 70 ca 59 be 94 fd 1a be 4a 77 ea 3e
       0.08956128 -0.2126863 -0.15135795 0.45794135
0000f0 38 76 bd bd a6 54 90 3e 98 b2 5d 3e f0 7a a5 be
       -0.09251064 0.28189582 0.2165016 -0.32320356

reward_net.0.bias f4 [16]
000000 c0 b5 d9 be 44 bb f5 3e 40 e1 d5 3c 2e 7a af 3e
       -0.42521477 0.47994435 0.026108384 0.34272903
000010 78 34 d4 3d bc ab 24 3e ae 38 bf 3e 32 be f2 3e
       0.1036157 0.16081136 0.3734793 0.47410733
000020 72 e0 a9 be 98 07 80 3d b8 0a bf 3e 94 74 b9 3e
       -0.3317905 0.062514484 0.37312865 0.36221755
000030 7c 09 9f 3e a4 45 b9 be c0 58 b8 be 50 d2 9a be
       0.31061924 -0.36185944 -0.3600521 -0.3023858

reward_net.2.weight f4 [16, 16]
000000 b8 a4 00 3d 6e 25 7f 3e 7e b5 21 be e2 6a 08 3e
       0.031407088 0.24916622 -0.1579189 0.13322023
000010 66 b1 0d be fa b1 70 be 00 a4 59 bd f0 7f 13 3e
       -0.13837203 -0.23505393 -0.05313492 0.14404273
000020 fa a9 6d 3e 66 fc 1e be 30 38 5e 3d 68 e4 5c 3e
       0.23209372 -0.1552597 0.054252803 0.21571505
000030 aa a3 29 3e 8c 8b 1f 3e 04 ec 35 3e 98 ec 21 3e
       0.16566339 0.15580577 0.17765814 0.1581291
000040 6c 3f 84 3d d6 0e 2f be 6a fa 56 be e4 9b ea bd
       0.06457409 -0.17095503 -0.20993963 -0.11455515
000050 30 7b ee bc 70 ea 1c be 2c 51 bb 3d 30 75 9e 3d
       -0.029111475 -0.15323806 0.09146342 0.077371955
000060 a8 de 67 bd 50 c8 c4 3d 78 78 a5 3d 48 4c 1c 3e
       -0.056608826 0.09608519 0.08079618 0.15263474
000070 ce 66 2c 3e e4 63 ad bd 5a 1e 7a 3e c0 c3 ec bc
       0.16836092 -0.08466318 0.2442564 -0.028901935
000080 e0 b8 0c bc 20 a2 71 be 08 c4 24 be 5c 8e 15 be
       -0.0085889995 -0.23597002 -0.16090405 -0.14605087
000090 80 fe da bd 1a 02 36 3e d8 4f a7 bd d2 4d 3f be
       -0.10693073 0.17774239 -0.08169526 -0.1868203
0000a0 f0 fd c4 3d 44 ed a3 3d 0e cf 25 3e 0e 79 04 be
       0.09618747 0.08004239 0.16192266 -0.12936804
0000b0 c0 04 5e 3d d8 64 ba bd 20 11 66 bd d8 02 4c be
       0.05420375 -0.09101266 -0.056168675 -0.1992296
0000c0 80 59 e9 bd d0 cd 9c bd 04 f3 da 3d f0 12 3b 3d
       -0.11394024 -0.07656443 0.10690883 0.045672357
0000d0 e0 f1 7c 3d d2 83 7f 3e 30 81 79 3e a4 9a 2e 3e
       0.061754107 0.24952629 0.24365687 0.17051178
0000e0 60 6e 02 3c 3e 19 31 be 04 11 48 3e 50 08 80 bd
       0.007960886 -0.17294785 0.19537741 -0.062515855
0000f0 40 92 a5 bc 32 8b 5c be f0 44 4a bd ec 1d 25 be
       -0.020211339 -0.21537474 -0.04938215 -0.16124696
000100 6c 3d 6b 3e 40 51 5d be 2e 8c 47 be c0 15 0b bc
       0.2297265 -0.21613026 -0.19487068 -0.008489072
000110 54 6c 0a be 18 33 b7 3d f8 14 c5 bd e4 7a f0 bd
       -0.13517886 0.08945292 -0.0962314 -0.117421895
000120 e0 fc 67 3c 60 51 39 3e 94 13 34 be 3c 70 f0 3d
       0.014159411 0.18097448 -0.17585593 0.11740157
000130 0a 77 24 3e 22 6b 7a 3e ac 2e 33 be a0 00 78 3d
       0.16061035 0.2445493 -0.17498273 0.06054747
000140 14 4b 3d be 60 8f 5a 3e a8 9b c6 bd ca 33 1a 3e
       -0.18485671 0.21343756 -0.09697658 0.15058818
000150 40 e3 f3 3b f0 80 9f bc c0 b1 02 bc 08 13 2e 3d
       0.007442862 -0.019470662 -0.007976949 0.04249862
000160 d4 5a f1 3d a0 3a 24 3d 28 30 9c 3d 40 47 66 be
       0.11784902 0.04009497 0.076263726 -0.22488117
000170 6e 81 3a 3e 7a 32 5f 3e 70 9c 53 3e b2 3d 3d 3e
       0.18213436 0.21796599 0.20665145 0.18480566
000180 d6 bc 38 be 64 cc bd bd c0 b8 61 3e 0e fc 42 be
       -0.18040785 -0.092675 0.22043133 -0.19041464
000190 a6 3f 68 3e ce 57 49 be 1e 54 34 be 38 4e fa 3d
       0.2268053 -0.19662401 -0.17610213 0.1222195
0001a0 e6 ee 37 be 60 99 6a bd e8 3c 3a 3e 56 c6 4a 3e
       -0.17962226 -0.057275176 0.18187296 0.19802222
0001b0 0c 1d 72 3e 98 c9 4f bd 90 fa 46 be 76 0f 7c 3e
       0.23643893 -0.050729364 -0.1943152 0.24615273
0001c0 88 23 5a bd a0 a7 d2 bd d8 9f 79 3d ee 06 33 be
       -0.05325654 -0.10285878 0.060943455 -0.17483112
0001d0 84 43 28 3e 8e 71 20 3e 96 21 4b be 76 45 52 be
       0.16432005 0.15668318 -0.19837031 -0.2053431
0001e0 c0 65 b3 bc 94 0d d7 3d 00 42 ed bb d6 cf 01 be
       -0.021899104 0.10500637 -0.007240534 -0.1267694
0001f0 00 4a bb 3b 66 9f 70 be 4a ee 34 be 9e 6a 2a be
       0.0057156086 -0.23498306 -0.17669025 -0.16642234
000200 e2 d2 52 3e 5e aa 61 3e cc e8 ad bd 00 b5 37 3c
       0.20588258 0.22037646 -0.08491668 0.011212587
000210 38 57 e4 3d d0 62 f5 3c 52 31 00 be 20 a5 13 3e
       0.11149448 0.029954344 -0.12518814 0.14418459
000220 38 5f 1d 3e c0 62 6d bc 30 1d fc bc 86 a3 68 3e
       0.15368354 -0.014488876 -0.030775636 0.22718629
000230 e8 c6 5f 3e 7c 25 11 be 9c 77 7a 3e 70 69 7d 3d
       0.2185322 -0.14174455 0.2445969 0.06186813
000240 00 0d 2a be 3a 23 0c 3e 82 1f 3f be 96 86 6c 3e
       -0.16606522 0.13685313 -0.18664363 0.23098215
000250 ba 93 24 be d4 ce 90 3d 74 e7 9b 3d 08 91 73 3d
       -0.16071978 0.07070699 0.076125056 0.059464484
000260 04 55 54 3e b0 a8 d4 bd b4 26 d8 bd a0 d7 5d be
       0.20735556 -0.10383737 -0.10554257 -0.21664286
000270 40 19 28 bc 80 8b f2 bd a0 1f 24 3c 20 eb 51 bd
       -0.010259926 -0.11843014 0.010017306 -0.051249623
000280 dc e0 a9 3d a4 75 5d 3e 7c 14 97 3d 90 ef a4 bd
       0.08294842 0.21626908 0.07376954 -0.080535054
000290 88 3c fb bd 6c 45 5f be 10 69 57 3e 98 fc 41 bd
       -0.12267405 -0.21803826 0.21036172 -0.047360033
0002a0 18 b3 4e 3d 00 84 17 3c f0 23 23 be a8 2c 10 3e
       0.050463766 0.00924778 -0.15931678 0.14079535
0002b0 9a 77 0f 3e 40 46 4e 3c 62 7b 11 be 5c 8d d9 bd
       0.14010468 0.012589991 -0.14207223 -0.10622665
0002c0 00 a0 61 3b 28 43 12 be 5a d6 0e be 40 bf 18 bd
       0.0034427643 -0.1428343 -0.13948956 -0.037291765
0002d0 3c 6e 93 bd 50 5f 7b 3d b0 93 86 bd a0 be 07 bd
       -0.0719876 0.061370194 -0.06571138 -0.03314078
0002e0 c4 6b c3 bd c4 f2 69 be b6 43 5f 3e 70 5c 43 3d
       -0.09542039 -0.22846514 0.21803173 0.047695577
0002f0 e6 eb 64 3e 68 07 25 bd 14 ac 80 bd cc aa 70 be
       0.22355613 -0.040290266 -0.06282821 -0.23502654
000300 54 5c c2 bd ac e0 27 3e f2 bc 7a be 74 14 b3 bd
       -0.094902664 0.163943 -0.2448614 -0.087441355
000310 6a f8 1b 3e 5e 8b 13 3e b8 0d bd 3d 20 b2 4a bd
       0.15231481 0.14408633 0.09231132 -0.04948628
000320 d0 10 9b bc f0 76 42 bd 70 be bc bd 90 ab d5 3d
       -0.018928915 -0.04747671 -0.092160106 0.104331136
000330 80 63 ae bd da d0 0f be 18 4e 68 3d d0 09 39 be
       -0.08515072 -0.14044514 0.0567151 -0.1807015
000340 68 89 5a bd ca d1 02 3e 78 59 bf 3d 4c f1 59 3e
       -0.053353697 0.1277534 0.09343237 0.21283454
000350 a2 9a 2e be 80 73 0e 3b ec 31 97 bd 62 2f 0f be
       -0.17051175 0.0021736324 -0.07382569 -0.13982919
000360 82 03 10 be c4 fd 80 3d 70 45 d6 3c c0 ac 02 be
       -0.14063838 0.06298402 0.026156157 -0.12761211
000370 ac 71 34 be 6c 1a 54 be 84 e5 7a 3e 40 89 2e bd
       -0.17621487 -0.20713204 0.24501616 -0.04261136
000380 f0 c8 6c bd 88 45 bc bd de 0a 00 be 78 1d 6a be
       -0.057808816 -0.091929495 -0.12504146 -0.22862804
000390 80 49 16 be 78 79 1c 3e a0 6f 60 3d c8 9c b4 bd
       -0.14676476 0.15280712 0.054793954 -0.08818966
0003a0 bc 7d c1 bd 4e 89 23 3e 46 89 38 3e a2 a3 76 3e
       -0.0944781 0.15970346 0.18021116 0.24085858
0003b0 70 5a 95 3d 58 5a f7 3d a0 8d a4 bc ae aa 15 be
       0.0729264 0.120777786 -0.020087063 -0.1461589
0003c0 6c cc 7a be 9a ed 1b 3e d0 d5 14 bd 64 5a d2 3d
       -0.24492043 0.15227357 -0.03633672 0.10271147
0003d0 c0 9c 49 3c 20 ee 6e be 40 2f fb bd c8 0a 90 3d
       0.0123054385 -0.23333025 -0.122648716 0.07033306
0003e0 10 42 4f bd a8 35 77 be a4 89 b3 3d c0 16 1d 3c
       -0.05060011 -0.24141562 0.08766487 0.009587944
0003f0 00 8c a4 bd 58 d5 ce 3d b8 2f 58 3d c0 d3 bc bd
       -0.080345154 0.10099286 0.052779883 -0.092200756

reward_net.2.bias f4 [16]
000000 26 fa 65 3e 12 6e 00 3e 80 93 00 3d 20 a9 44 bd
       0.22458705 0.12541988 0.031390667 -0.048012853
000010 9a d7 58 be de a6 45 3e d8 1d 84 bd 0a 6f 25 be
       -0.21175995 0.19301936 -0.06451005 -0.1615564
000020 88 22 24 3e 5c d6 b5 3d 70 68 7d 3d 08 0a 4b bd
       0.16028798 0.088787764 0.061867177 -0.049570113
000030 ac c7 9f bd 70 c5 2d 3d f8 1a 46 3e 18 a4 12 3d
       -0.07801756 0.04242462 0.19346225 0.035801023

reward_net.4.weight f4 [2, 16]
000000 20 19 f2 bd b0 4e 7e 3e 00 34 af 3b 5c 5f 4a 3e
       -0.118211985 0.24834704 0.005346775 0.19762939
000010 b0 91 79 3d 9e 77 65 3e 8e b4 13 3e 08 84 02 be
       0.060929954 0.22408912 0.14424345 -0.12745678
000020 1c d4 33 3e 00 cd d2 3a e2 7e 4d be 38 93 56 bd
       0.17561382 0.0016082823 -0.20067933 -0.052386492
000030 96 11 67 be 58 a2 04 be 0e 5c 35 be 74 17 2f 3e
       -0.22565302 -0.12952554 -0.17710897 0.1709879
000040 58 21 57 bd 70 ec 30 bd b8 5b f5 3d 74 5e d0 3d
       -0.052522033 -0.043194234 0.119803846 0.101742655
000050 a8 f3 28 be 94 b0 bc 3d 58 82 d9 3d 4a 8c 4b be
       -0.16499197 0.09213367 0.10620564 -0.19877735
000060 6c 93 5e 3e 68 c5 1b be d0 37 c8 bd 10 dd 52 be
       0.21735924 -0.15212023 -0.097762704 -0.20592141
000070 76 fa 69 3e d0 fc 42 3d 98 8f 57 3e 70 bc 85 3c
       0.2284945 0.047604382 0.2105087 0.016325206

reward_net.4.bias f4 [2]
000000 ae 25 0b 3e 64 79 a3 bd
       0.13588592 -0.07982138

model.conv_layers.0.weight f4 [64, 3, 7, 7]
000000 f8 4c c5 3c 21 0a bb 3d c1 63 87 3d 6a 08 6c 3d
       0.024084553 0.09132791 0.066108234 0.05762521
000010 a7 91 b2 3c 0c 83 81 3c 9b 16 17 3d aa 4c a6 3d
       0.021797968 0.015809558 0.036886793 0.08120091
000020 75 31 20 bd df 17 9c 3d 05 89 8a 3c e4 c2 a9 3d
       -0.039109666 0.076217405 0.01691104 0.082891256
000030 b2 15 2d 3d 7d d2 8b bd 62 80 0d 3e a2 b5 71 bd
       0.04225702 -0.06827257 0.13818505 -0.05901111
000040 ba 86 85 3d 5e f7 ba 3c 02 8a 73 3d 3e 48 71 bb
       0.06519838 0.022823032 0.059457786 -0.0036816741
000050 ce 24 a4 3d 30 b3 dd 39 fb 2a 62 bd 15 ec 26 3d
       0.080148324 0.0004228591 -0.05521677 0.04075249
000060 75 42 5a 3d 95 e9 9d 3d fe bd 06 bd 63 0d 8a 3d
       0.053286035 0.07710568 -0.032896034 0.067408346
000070 38 c5 09 3e 57 fc 2c 3d a6 50 d0 3c 79 a4 09 3e
       0.13454139 0.042232838 0.025429081 0.13441648
000080 a4 ec 8d 3d b0 fd fd 3d c8 7d 78 bc 6e b3 30 3e
       0.06929901 0.12401903 -0.015166707 0.17255947
000090 12 ab d9 3d 4f 80 1e 3e 95 9b da 3d 1c f1 b2 3c
       0.10628332 0.15478633 0.10674206 0.021843486
0000a0 6a e8 8b 3d b4 8e d0 3d 43 f8 dc bc 1e 7c d4 b9
       0.06831439 0.101834685 -0.02697385 -0.00040528266
0000b0 71 e1 5b 3c 6f 05 cb 3d b1 07 07 3e af 93 43 3e
       0.013420449 0.09913146 0.13186528 0.19099306
0000c0 90 06 13 3e 8c 6b d4 bd c6 10 23 bc a7 67 33 bc
       0.14357972 -0.103720754 -0.00995273 -0.010950006
0000d0 1f 5c cc bd c0 c4 e5 3b 62 e4 f9 bd 8c 1b 0e bd
       -0.09978508 0.00701198 -0.12201764 -0.03469424
0000e0 7f 99 c4 ba af c4 21 3c cb ea e8 bd c5 eb 2c be
       -0.0014999359 0.009873553 -0.11372908 -0.16886814
0000f0 59 fc db 3c e8 e9 30 bd 48 95 97 bc 4d 23 2c 3b
       0.026853727 -0.04319182 -0.0185038 0.0026266158
000100 a7 33 d5 bd d0 13 41 bd 53 83 17 be 65 dd 55 bd
       -0.104102425 -0.047138035 -0.1479619 -0.05221309
000110 0a 3e 5b bc da ba 0b 3d ff 1d c0 bd 20 6e 19 be
       -0.0133814905 0.034113742 -0.09380721 -0.14983416
000120 23 08 af bd 6c 59 31 be ad 56 51 be 02 8e 57 be
       -0.08546474 -0.17319268 -0.2044322 -0.21050265
000130 7b cf 29 be 20 91 b9 bc b4 39 0f bd b8 49 1e bd
       -0.16583054 -0.022652209 -0.03496714 -0.038644522
000140 c5 78 f4 bd db 3c b4 3c f1 90 47 bd d4 a6 97 bd
       -0.119370975 0.022001674 -0.04872221 -0.07404867
000150 90 b6 9f 3c 29 cd 91 bd 26 1c ab 3d 15 d7 8e bd
       0.019496232 -0.07119209 0.08354978 -0.069746174
000160 ab f2 ca bd 8a 10 84 bd 32 1d 37 bc 61 69 d4 bd
       -0.099095665 -0.06448467 -0.011176394 -0.10371662
000170 d4 fa 91 bd 3a 66 26 be 9f e7 23 be e9 4a a2 3c
       -0.0712792 -0.16249934 -0.16006325 0.01981111
000180 a5 3e 62 3c cc fd ee bc 59 94 77 bd 32 d6 16 3d
       0.013808881 -0.029173754 -0.06044421 0.036825366
000190 91 39 18 3c f0 06 9d bc 68 1d 92 bc b6 2a 07 3d
       0.009291069 -0.019168347 -0.017836288 0.032999717
0001a0 41 d7 17 3d 83 2d f5 3c 86 dc 19 bc 83 61 2a bd
       0.037070516 0.029928928 -0.009390956 -0.0415969
0001b0 9f a6 f9 bd d6 47 2a 3d 79 cd ed bc 92 ab 5e bd
       -0.121899836 0.041572414 -0.029028641 -0.05436284
0001c0 5d b1 a5 3d 2c d4 3c 3d 89 d2 e2 bd 95 85 74 bd
       0.0809047 0.04610078 -0.11075313 -0.059697706
0001d0 85 59 87 bc 2c 9c c7 3c f6 f6 bc 3d b7 55 24 bd
       -0.016522178 0.02436646 0.092267916 -0.040120807
0001e0 77 05 6a 3d 88 81 94 bd 01 bc b1 3c 4b 32 02 bc
       0.057134118 -0.072512686 0.021696093 -0.007946561
0001f0 0a 46 26 bd bc 99 9a 3d 86 5d f9 38 fe 27 0c 3d
       -0.04059414 0.07548854 0.00011890665 0.034217827
000200 2c fd d2 3d 64 d9 4c 3e cc 44 43 3e 07 6f e2 3d
       0.10302195 0.20004803 0.19069213 0.11056333
000210 89 b0 ed 3d f6 b3 6e 3c 9f 04 a7 3c 0a b6 a4 3d
       0.11605937 0.014569273 0.020387946 0.08042534
000220 1e 5d 91 3d fe 09 0f 3e e1 d5 06 3e a8 8f c7 3d
       0.07097839 0.13968655 0.13167526 0.09744197
000230 06 62 b2 bd 79 3d b5 bc c2 f6 30 3c 09 10 99 3d
       -0.08710103 -0.022124039 0.010801019 0.074737616
000240 5e 07 6e 3d b7 ca 96 3d a8 54 5d 3d f2 35 96 bc
       0.058112495 0.073628835 0.054035813 -0.01833627
000250 78 b4 c1 bc dd 74 0f bd e8 22 a3 bd fc fa 78 bc
       -0.023645625 -0.03502356 -0.07965642 -0.015196558
000260 30 58 42 bd 85 d2 85 3d 41 54 64 3d f5 c0 2d 3a
       -0.047447383 0.06534294 0.055744413 0.0006628179
000270 2c 4a 77 3d 27 f4 3e bc 3e 8b a6 bd bd 4e 5e bd
       0.06037347 -0.01165489 -0.08132027 -0.05427431
000280 7c 10 1d 3d 4d df e3 3d 21 ac c7 3d 7f 39 08 bc
       0.0383458 0.111265756 0.09749628 -0.008314489
000290 38 9f a1 bc cb 39 c1 bc d6 9d 3a bc 9d b3 4b bd
       -0.019729242 -0.023587128 -0.01139017 -0.04973184
0002a0 2b 6d dc 3d 5c 3e 1f 3c a5 58 63 bd ec 51 40 bd
       0.1076301 0.0097194575 -0.05550446 -0.046953127
0002b0 29 c8 0b 3d dd 9b 87 bc 2e 8e 8c bd c7 ae 1e 3e
       0.034126434 -0.016553814 -0.06863056 0.1549636
0002c0 c8 d4 25 3d f3 ce 81 bd 0d 36 03 be 7f 5c 9d 3c
       0.040486127 -0.063383006 -0.12813587 0.019209145
0002d0 b1 59 3b 3d de 06 9d bd a7 54 6a 3d 5b 95 77 3c
       0.045739833 -0.076673254 0.057209637 0.015111293
0002e0 c9 f3 0f bd c3 29 44 bd 8f c0 55 3c 46 d8 95 3c
       -0.0351446 -0.04789139 0.013046398 0.018291604
0002f0 3c 06 48 3d d9 b8 3b 3d 6b ce fa 3c 96 22 3f 3d
       0.04883407 0.04583058 0.030616006 0.046663843
000300 79 03 7e bb a6 64 07 3b 54 f0 11 bd 43 46 3e 3d
       -0.0038759394 0.0020659356 -0.035629585 0.046453726
000310 54 e4 87 3b 08 d4 8f 3c f9 85 10 3d 2d 66 83 bd
       0.004147092 0.017557159 0.035284016 -0.06415973
000320 b0 d8 03 3c 2c 67 90 bd 54 f5 ba 3c 78 d0 96 3d
       0.008047268 -0.070509285 0.02282206 0.07363981
000330 6c 95 85 bd ef c0 01 bd 2e dc 8d bd ce cb 6c bd
       -0.065226406 -0.031678136 -0.069267616 -0.05781155
000340 8d aa 2d bd 1c 29 5a bd eb 9a 77 3c 8f 55 b1 bd
       -0.042398978 -0.05326186 0.015112619 -0.08658897
000350 4c aa 97 bd 81 9c c8 bd a1 c6 ab bd 5e c3 b5 3c
       -0.074055284 -0.09795476 -0.08387495 0.022187885
000360 80 e4 94 3c a9 2a 52 3d 8f 35 1d bd d0 15 09 be
       0.018175364 0.051310215 -0.038381156 -0.13387227
000370 26 90 63 3c 12 e0 05 be 8b f2 e6 bd b7 83 fd bd
       0.013889348 -0.13073757 -0.1127673 -0.12378638
000380 04 08 4a 3d 39 57 ff bd 7f 71 c2 bd a6 cc f4 bd
       0.04932405 -0.12467808 -0.09494304 -0.11953096
000390 ff f7 d1 bd 8f 4b be bd de 32 e5 3c 01 cb b2 bc
       -0.102523796 -0.092917554 0.027978357 -0.021825315
0003a0 eb 11 b9 bb cb 71 02 be f3 11 b9 3c 6c 49 71 bd
       -0.005647888 -0.12738721 0.022591567 -0.05890791
0003b0 4e 48 d1 bd 0b c1 48 3c f1 01 16 bd 01 41 ad 3c
       -0.10218869 0.012253056 -0.036622945 0.02114916
0003c0 df 3b f4 bd ca a9 11 be ae 8a d6 bd 42 a6 61 bb
       -0.11925482 -0.14224926 -0.1047567 -0.0034431373
0003d0 85 fb 66 bd c1 54 a2 bd 00 07 54 bb 8b 41 2c bd
       -0.05639221 -0.07926322 -0.0032352805 -0.042054694
0003e0 ec 9f b4 bb 73 32 98 bd a2 37 aa bd e2 bc 2a 3d
       -0.0055122282 -0.074314974 -0.08311392 0.04168404
0003f0 89 c9 b7 bc e1 58 60 3d 92 15 51 3d 61 9a ac bd
       -0.022434967 0.05477226 0.05104596 -0.08427883

model.conv_layers.1.weight f4 [64]
000000 27 c8 4f 3f e7 70 71 3f 57 cb 42 3f 57 57 d7 3e
       0.81164783 0.943129 0.7609152 0.42058823
000010 c9 05 01 3f f3 c8 22 3e 50 64 ac 3e ad de 82 3f
       0.5039945 0.15896969 0.33670282 1.0224205
000020 98 ba e4 3e 54 ad 4e 3f bf 81 5e 3f a1 ff 5c 3f
       0.4467361 0.8073323 0.86916727 0.8632756
000030 69 83 25 3f 29 d6 8e 3c e4 11 6f 3e 02 85 d8 3e
       0.6465364 0.017436104 0.23346668 0.42288977
000040 0e c3 82 3f ee 99 1c 3f 2d 07 2a 3f 0d 21 31 3f
       1.0215776 0.6117238 0.664172 0.69191056
000050 88 d8 4a 3e 52 75 c6 3c 61 00 01 3f 0b 02 8f 3e
       0.19809163 0.024225865 0.50391203 0.27931246
000060 33 71 4c 3f b8 e5 45 3f b6 98 66 3e f3 5b 48 3f
       0.7986023 0.7730365 0.22519192 0.78265303
000070 5c c8 34 3f 67 ec 20 3f c9 74 4f 3f 7c 5e 2c 3e
       0.70618224 0.6286072 0.81037575 0.16832918
000080 a5 0e 9a 3e 03 84 06 3e b9 a1 58 3f ac 80 10 3f
       0.30089298 0.13136296 0.8462177 0.5644634
000090 b7 db 15 3f 8a 26 36 3f e9 08 9e 3d 43 1b 77 3f
       0.58538383 0.71152556 0.07716543 0.96525973
0000a0 a2 e1 e5 3c 4e f9 da 3e ef 8d 75 3e b2 a5 08 3f
       0.028061692 0.4276833 0.23979925 0.5337783
0000b0 58 d1 2c 3e c3 db 8b 3e f5 66 c8 3e 76 57 71 3f
       0.16876733 0.27316102 0.3914105 0.9427408
0000c0 e9 27 82 3f 41 a6 a6 3e ff 1f 39 3f 84 fc 71 3f
       1.016843 0.32548717 0.7231445 0.94525933
0000d0 47 18 5d 3f 67 05 8d 3f 6b 74 71 3f d8 30 6e 3f
       0.8636517 1.1017274 0.94318265 0.9304328
0000e0 08 fa 1f 3f d6 63 6d 3e 26 3e 64 3f 2a a2 3b 3f
       0.6249089 0.23182616 0.8915733 0.7329432
0000f0 07 ca 7d 3f f7 68 95 3d 60 6e 36 3f f7 5b 6b 3f
       0.99136394 0.07295411 0.7126217 0.919372

model.conv_layers.1.bias f4 [64]
000000 8a 53 dc 3d ca 75 07 be 26 f1 29 bd a4 83 9b bd
       0.10758121 -0.13228527 -0.041489743 -0.07593468
000010 d5 3b c1 3c 95 21 d5 bd bf 67 41 bc 2c 3b 30 3e
       0.0235881 -0.10406796 -0.01180452 0.17210072
000020 e4 9d 37 bd fd e0 91 3d 9e f3 a0 bd 20 2a ee bc
       -0.04482831 0.07122991 -0.07858966 -0.029072821
000030 e0 d6 1e be 2b 90 3d bd 54 d5 47 3d 8e fe e4 bb
       -0.15511656 -0.046280067 0.04878743 -0.006988353
000040 0e 54 41 be d9 c8 84 3d 48 86 ad bd 38 fb 1c 3d
       -0.1887972 0.06483621 -0.08472878 0.03832552
000050 6b 4c 1d be 92 a1 2d bd e7 84 7c bd 7a 04 94 bc
       -0.15361182 -0.042390414 -0.061650183 -0.01806854
000060 bf 3a c8 3d e7 ad db 3c 48 2a c3 3d 18 99 b0 bd
       0.0977683 0.026816322 0.09529549 -0.0862295
000070 7a 5a 23 be 78 c4 03 bd ad cc f1 3c 6e 89 c6 bd
       -0.15952483 -0.03216979 0.029516542 -0.096941814
000080 22 de b4 3d d3 c7 0e 3c 26 f0 02 be 28 73 fd 3c
       0.08831431 0.008714634 -0.12786922 0.0309387
000090 b4 2d dc bd 47 0b 88 bd df 28 95 bd 1c 2b 26 3e
       -0.10750905 -0.06642776 -0.07283186 0.16227382
0000a0 c0 8b 05 3e b1 81 7c bc fc 67 33 be 84 3d d8 3d
       0.13041592 -0.01541178 -0.17520136 0.10558608
0000b0 38 76 0c bc 8c 3b 0a 3e e8 78 42 bd cd bb ca bc
       -0.008573107 0.13499278 -0.047478586 -0.024747754
0000c0 87 ba 03 be 5b 26 1c 3e 5a 16 9b bd 97 0c e3 bd
       -0.12864123 0.15249006 -0.075726226 -0.11086386
0000d0 a7 e1 62 be 6f 4f 1b 3d f2 cd 5a 3d 1a 48 73 bd
       -0.22156392 0.03791755 0.05341906 -0.059394933
0000e0 c9 fd a1 3d df 2a d4 3d 00 76 87 bd b6 4b 93 bd
       0.07909734 0.103597395 -0.066143036 -0.07192175
0000f0 7a f8 c4 bd 01 93 75 bc 6b a7 00 be 87 e4 d4 bc
       -0.09617706 -0.014988662 -0.12563865 -0.025987877

model.conv_layers.1.running_mean f4 [64]
000000 08 f8 0e 3f ae a7 aa 3e 58 72 41 3e 1c 52 d1 3d
       0.55847216 0.33331054 0.18891275 0.10220739
000010 6c b8 10 be 32 58 9f be ae c4 57 be 8b 54 cc be
       -0.14132851 -0.31121975 -0.21071121 -0.3990825
000020 57 95 df 3d eb 08 e3 bd 13 b2 68 3d a1 0b c3 bc
       0.10917156 -0.11085685 0.05681045 -0.023809256
000030 97 80 d7 bb 6f 89 da 3d 5d 5d af 3d 04 a2 18 bb
       -0.0065766084 0.10670745 0.085627295 -0.0023289928
000040 3a b6 cf 3e 93 4a 0f 3f d8 08 24 3e a5 1b d0 3e
       0.40568715 0.55973166 0.16018999 0.4064609
000050 80 0e 79 be 20 c1 7e 3e 32 ff f2 3e 77 7f 57 3e
       -0.24321938 0.24878359 0.47460324 0.21044718
000060 8f f6 42 3e 51 35 64 bd 82 20 82 3f c7 33 22 3f
       0.19039367 -0.05571491 1.0166171 0.63360256
000070 71 ae fe be 84 5f 8b bd 6f be ec 3d e1 67 61 be
       -0.49742463 -0.068053275 0.1155976 -0.22012283
000080 af 58 00 3e 47 b6 69 3d fd 3e 19 be 9c b1 41 bb
       0.1253383 0.0570586 -0.14965434 -0.0029555326
000090 88 a4 de be 3f e9 98 3e 8c df c6 be cb c3 60 3e
       -0.43484902 0.29865453 -0.38842428 0.21949689
0000a0 e3 80 45 bd 9c c2 95 bd 49 a6 77 3e f2 94 20 3f
       -0.04821862 -0.073125094 0.24184527 0.6272727
0000b0 9d 07 ff bd df 66 86 bb 41 51 3c 3d 8d 33 6e 3c
       -0.12452624 -0.0041016187 0.045975927 0.014538658
0000c0 41 59 14 3f 3d 12 19 bf 7b 11 99 bd d2 f8 ee 3e
       0.5794869 -0.59793454 -0.07474037 0.4667421
0000d0 a8 2c b7 be 9b 9d 1e 3f 1e 96 3b 3f a4 f6 f5 be
       -0.35776258 0.61959237 0.73275936 -0.48039734
0000e0 6e a5 81 be 68 59 40 3f 84 4b 0e 3d b8 b3 86 3e
       -0.25321525 0.75136423 0.034739986 0.2630899
0000f0 0f 5a d5 be 9c 3d fb bd ea 54 d1 be 38 24 7a 3e
       -0.41670272 -0.122676104 -0.40885097 0.24427879

model.conv_layers.1.running_var f4 [64]
000000 df 91 e1 40 61 0b d7 41 51 6e 6f 41 32 1a 4b 41
       7.0490565 26.880556 14.964433 12.693895
000010 73 a8 4b 41 f1 dd d5 41 c8 91 b9 41 f0 71 95 41
       12.728625 26.73337 23.196182 18.680634
000020 ee 17 a8 41 2e 90 ec 41 f4 4d 0d 42 3d 74 14 42
       21.011684 29.5704 35.326126 37.113514
000030 7a e5 3a 42 ea 93 8c 42 bd 6f ea 41 a3 ae 29 42
       46.7241 70.288895 29.30456 42.420544
000040 d7 92 55 41 81 37 6d 42 a4 96 0f 42 94 0c b5 41
       13.34835 59.304203 35.89711 22.631142
000050 f4 77 46 41 83 d8 87 41 34 e7 e6 41 24 78 d9 42
       12.404285 16.980719 28.862892 108.73465
000060 b3 0b f2 41 8d 32 e2 40 77 31 11 42 48 2d 68 41
       30.255713 7.0686707 36.298306 14.511055
000070 bc b1 5c 42 28 45 f7 41 51 ef 0d 42 35 bb 28 42
       55.17357 30.908768 35.483707 42.18282
000080 d4 4c ed 41 8a 35 41 42 1c 25 17 41 44 de 8d 41
       29.662514 48.302284 9.44656 17.733528
000090 54 3e cf 41 e9 a9 9a 42 88 03 18 42 55 f5 76 41
       25.905434 77.331856 38.00345 15.4348955
0000a0 f5 79 1e 42 59 6b 38 41 62 bb db 41 7d a3 4e 42
       39.6191 11.526208 27.466496 51.659657
0000b0 75 9f c6 40 e9 8f 7f 41 8f e1 1a 42 c6 37 f1 41
       6.206965 15.972634 38.720272 30.152233
0000c0 dd 57 8f 42 4c fa e7 41 b9 58 91 41 7f 7a 81 42
       71.67161 28.997215 18.168322 64.73925
0000d0 4e bc 30 41 4f 14 0f 42 fa 57 e1 41 4e 63 f0 41
       11.045973 35.769833 28.167957 30.048489
0000e0 a2 36 78 41 1e d5 23 42 bf f1 24 41 93 1e a9 41
       15.513338 40.958122 10.30902 21.139929
0000f0 eb c0 dd 41 2c 46 82 41 a4 57 a3 41 1a 0b 1f 41
       27.719198 16.284264 20.417793 9.94021

model.conv_layers.4.weight f4 [64, 64, 3, 3]
000000 98 7d aa bc a5 8f 3e 3d 10 bd 88 39 9b 36 21 3d
       -0.02081184 0.04652371 0.00026080804 0.039358716
000010 50 75 40 bd 94 16 ff bc 23 4b 95 bd 8e 17 cc bb
       -0.046986878 -0.031138696 -0.07289722 -0.006228394
000020 aa 58 d1 bd 10 20 06 3c 33 33 e7 3c 88 cb 08 bd
       -0.102219895 0.008186355 0.028222656 -0.033397228
000030 e2 79 ec 3d a5 3e f1 3d c6 cd a2 3c 03 f0 69 3d
       0.11546685 0.117795266 0.019873511 0.05711366
000040 13 6b e7 3d 43 bb 96 3c 00 e1 47 bc ab 50 5e bd
       0.1129972 0.01839984 -0.01219964 -0.05427615
000050 57 18 b4 bc 0e 3a 29 3d 72 54 ec 3c 51 f7 19 3c
       -0.021984262 0.04131513 0.02884886 0.009397344
000060 89 9b 8d bc 3d 77 80 3c cf 5a df 3c 5c 4c d4 bb
       -0.017286079 0.015681857 0.02726498 -0.0064788293
000070 91 7d a5 3c 4d 47 44 bd 53 10 da 3c 37 7b c3 3d
       0.020201476 -0.04791956 0.026619112 0.09544986
000080 78 54 87 3d 1a 78 18 bd 6b bf 66 3c 81 8c ab 3c
       0.06607908 -0.037223913 0.014083724 0.02094102
000090 29 45 84 bd 7a 74 c9 bd 11 34 f1 3c 08 0c 81 3b
       -0.06458504 -0.09836669 0.029443773 0.003938202
0000a0 6f ed a0 3d 99 13 1f 3c 30 c3 28 3d 50 7e eb 3c
       0.07857787 0.009709262 0.04120177 0.028746754
0000b0 5c da 89 bd ca 07 65 bd 4b f5 15 bd b0 1e c4 3c
       -0.06731102 -0.05591563 -0.036610883 0.023940414
0000c0 56 32 d1 3c dc f1 3a bb 5a 56 ed bc 6c 5e 85 bd
       0.025536697 -0.0028525507 -0.02897184 -0.0651215
0000d0 5a 9b 75 bd ac d0 a2 bd 97 19 db bc 65 4e 29 3c
       -0.059962608 -0.07949957 -0.0267456 0.010333632
0000e0 ad 7a 5a 3c 05 f5 4c bc 9b 98 66 bd 5b d3 26 3c
       0.013334912 -0.012509589 -0.05629788 0.010182227
0000f0 dc 37 99 39 56 c8 6a bd 5a 30 d6 bd f6 56 4d 3d
       0.00029224053 -0.05731996 -0.10458441 0.05013176
000100 a0 94 20 3d 31 3a 53 3c 7d b4 f4 3c c1 c0 96 3d
       0.03920424 0.012892292 0.02987122 0.07360984
000110 84 be 58 3d 76 7b 06 bd 06 72 b4 3d da 02 c0 3d
       0.052916065 -0.032832585 0.08810811 0.09375544
000120 48 55 09 bc cb 1e 57 3d 51 6c 99 bc ae a5 43 3d
       -0.008382149 0.0525196 -0.018728407 0.047765426
000130 5a 68 3f 3d cf c9 8e 3c f5 7d ce 3c 8b 6e e2 3c
       0.046730377 0.017430214 0.025206545 0.027640602
000140 5c a6 3b 3c 42 de a5 bd 38 1e 7b bb b5 bd ba bc
       0.011453237 -0.08099033 -0.0038317572 -0.022795537
000150 c7 9b f7 bc 9f 08 b5 3b 99 9f c1 3d 2f fe 00 bd
       -0.030225648 0.0055247094 0.09454269 -0.03149241
000160 81 3a b3 bc 5a ac 3f 3d 97 ca 39 3d 36 9b a9 3d
       -0.021878483 0.046795227 0.04535922 0.08281557
000170 b5 e2 2c bd ac c9 01 3e ea de 02 3e 87 ee 8e 3d
       -0.042208392 0.12674588 0.12780347 0.06979089
000180 5f a2 81 3d 60 23 17 3e 93 5d bb 3d 9d dc 09 bd
       0.06329798 0.14759588 0.09148707 -0.03365766
000190 ee 1a 84 3b 73 d7 5f bc da d3 b2 3c 64 98 21 3c
       0.0040315306 -0.013662207 0.021829534 0.009862993
0001a0 bc 55 4b 3d 9c ff 21 bc a0 20 0e 3d 6d 32 ad bb
       0.04964231 -0.009887602 0.034699082 -0.0052855522
0001b0 36 14 a8 3c d6 5a d3 3c bc 94 90 3d 34 ce 15 3d
       0.02051745 0.02580015 0.07059619 0.036573604
0001c0 52 31 99 3d 06 ac 45 bc ae 8e 10 bc cd ad 6a 3c
       0.0748011 -0.012064939 -0.00882308 0.014323664
0001d0 3c 6b 93 3c 99 99 02 3d 0b 7a 05 bd 62 59 b8 3d
       0.01799547 0.031884763 -0.032587092 0.090014234
0001e0 3c 9e 28 bd 42 31 7b 3d 83 04 ad 3c 47 1a 55 bc
       -0.04116653 0.061326273 0.021120315 -0.013006753
0001f0 3e 0e 13 bd 29 07 c2 bc 8b 2f 4c 3d 0f 5b 95 3d
       -0.035902254 -0.023685055 0.049850028 0.07292759
000200 5f 3c 88 bc fc 83 0d 3d 3f 21 d4 3d f8 a1 a5 3d
       -0.01663035 0.0345497 0.10357904 0.08087534
000210 3b 94 c1 3c 77 df 92 3d 2f 02 48 3d 54 bd 54 3c
       0.023630252 0.07171529 0.048830207 0.0129845925
000220 50 32 88 3d b7 34 be 3c 29 19 e9 3d 0f a4 cc 3d
       0.06650221 0.023218496 0.11381752 0.09992229
000230 f6 d7 53 3d 7d db 6b 3d 1a 12 eb 3d 9f cd f9 3c
       0.05171963 0.057582367 0.11478062 0.030493556
000240 42 90 db bc 6d 9c f0 3c 37 05 f2 bc 33 40 ad 3c
       -0.026802186 0.029371465 -0.029543502 0.021148777
000250 1c 8f d4 3d 4c 7b ef 3b 8e fd 36 bb e2 e1 06 bd
       0.103788584 0.0073083993 -0.0027922126 -0.032930262
000260 68 a2 22 3b d2 9a 15 3d 69 7b 09 3d 8d 50 2b bd
       0.002481604 0.0365246 0.03356496 -0.041824866
000270 5b bf 88 bc a6 2a 51 3d bc 04 c7 3c 99 4a d2 bc
       -0.016692808 0.051066063 0.02429425 -0.025670337
000280 98 d6 23 3d c6 f3 84 3c 2d 7e c7 3c fd 60 19 3d
       0.039999574 0.016229521 0.024352157 0.03744601
000290 7d b1 73 3d a7 21 1c 3d 5b 0e 2d 3d fb 7f a3 3d
       0.059495438 0.03811803 0.04225002 0.07983395
0002a0 0a 51 79 3d 03 05 d8 3d 04 84 b5 3d 84 01 2a bd
       0.0608683 0.10547831 0.088630706 -0.04150535
0002b0 fc 4c e0 bc 80 4c 77 bd 1d 6d ed 3b 91 eb b9 3b
       -0.027380459 -0.06037569 0.0072456733 0.0056738337
0002c0 d8 5f c7 bc 71 41 37 bc c1 3c ab bc 72 9c 9b 3d
       -0.024337694 -0.011185036 -0.020902993 0.07598199
0002d0 5e 31 a7 3c 09 eb aa 3c 56 f9 76 3c 29 a9 c2 3b
       0.020409282 0.020864027 0.015074095 0.0059405756
0002e0 f0 3e e1 bb 08 b1 7b 3b b8 4f f1 bc 9c 10 0f bd
       -0.006873958 0.003840508 -0.029456958 -0.03492795
0002f0 4f 19 ed bb 24 37 49 3d b5 b0 7f 3d b7 53 5a 3d
       -0.007235683 0.04912485 0.06242438 0.053302493
000300 f9 ae 14 3d ae cf e7 3c 21 7b 17 3c 2a 5d 08 3d
       0.03629968 0.028297272 0.009245665 0.033291973
000310 31 69 02 bd 9a c7 c1 bc ca 5d 90 bb 17 db 2d 3d
       -0.0318386 -0.023654748 -0.004405712 0.04244527
000320 19 66 c6 3c 48 8b 36 bc f9 a2 8c 3d f4 e6 1a 3d
       0.024218606 -0.011141606 0.06867022 0.03781791
000330 1b 50 27 3b 5a 3f db ba e9 2c 76 bc 47 ad 37 3d
       0.0025529924 -0.0016727254 -0.015025356 0.044842985
000340 3c 81 8b 3d 91 33 06 39 87 21 31 3d 0c f0 34 3e
       0.06811759 0.00012798446 0.043244865 0.17669696
000350 17 de fb 3c 36 d6 40 bc d8 84 95 3d 5c d8 04 3e
       0.03074555 -0.011769822 0.073007286 0.1297316
000360 94 fe f4 3c 0b 84 03 bb 3c 4c 07 bc 4f 3d a4 3d
       0.029906549 -0.0020067717 -0.008257922 0.08019506
000370 d9 1a a8 3d 7e 7e 08 3d 83 87 3b 3d fe 28 b5 3d
       0.08208246 0.033323757 0.04578353 0.08845709
000380 13 60 ad 3d ac 84 d8 ba 08 88 ac 3d d6 17 90 3d
       0.0846559 -0.0016519031 0.084243834 0.07035796
000390 49 69 6a 3c 3d 00 39 b9 6c 81 dd bc 3f 5d 38 3c
       0.0143073285 -0.00017643064 -0.027039252 0.0112527
0003a0 5d 49 f7 bc 11 c4 0c bd 6c df d0 bb d3 c5 8a bd
       -0.03018635 -0.03436667 -0.00637429 -0.06776013
0003b0 be 84 81 bd ae 2f da bc 3f fe e0 3b aa 6c d5 3c
       -0.06324147 -0.026634064 0.006866246 0.026052792
0003c0 1a ab 9a bd 87 cb 62 bd 43 0b 65 bd 2e 71 08 bd
       -0.07552166 -0.05536988 -0.055918943 -0.03331106
0003d0 9a e0 de bd 3a 56 d1 bd 31 95 ee bb ca 76 a9 bc
       -0.10882683 -0.102215245 -0.0072809686 -0.020686526
0003e0 ac eb c9 bd c7 19 b0 bd 8a 1a a1 bd 66 68 cc bb
       -0.09859404 -0.08598667 -0.0786639 -0.006238031
0003f0 7e 9c e2 bb e5 e5 dd bd 42 0f 2d b9 fe 83 84 bd
       -0.006915628 -0.108348645 -0.0001650425 -0.06470488

model.conv_layers.5.weight f4 [64]
000000 cc a2 db 3e b4 ce 4e 3f cb 2f 23 3f e1 97 0d 3f
       0.42897642 0.80784154 0.637448 0.55309874
000010 08 48 58 3f dc 4b 9f 3e d9 7f 57 3f e8 12 16 bc
       0.8448491 0.31112564 0.84179455 -0.009159781
000020 57 29 0f 3f 2a 0b e0 3e 8a 6e 79 3f ed 02 ff 3e
       0.55922455 0.43758518 0.97434294 0.4980692
000030 13 9f 13 3f f4 7e 96 3c 6b 14 5c 3f 84 32 da 3e
       0.57664603 0.018371083 0.85968655 0.42616665
000040 a8 00 d8 3e 5d 55 7c 3e 4a af ff 3e 36 65 cf 3e
       0.42188 0.24641939 0.49938422 0.40506905
000050 3b da 44 3f 2b 6c f4 3e 15 68 72 3f 35 df d1 3e
       0.76895493 0.47738776 0.94690067 0.40990606
000060 a1 c2 f4 3e 33 c6 34 3f 8e 19 cd 3e 3c 33 13 3f
       0.4780474 0.7061493 0.4005856 0.5750005
000070 73 d6 1d 3e c4 14 a4 3e a7 3f 15 3e 37 84 1f 3a
       0.15413837 0.32047093 0.14575063 0.000608507
000080 d8 6f 2e 3f 10 50 ed 3e 27 97 d3 3e 23 51 4a 3c
       0.6813941 0.46350145 0.41326258 0.012348446
000090 c0 e1 4f 3b 0c c9 ec 3e 51 11 88 3f 25 20 22 3f
       0.003172025 0.46247137 1.0630285 0.633303
0000a0 7e 3d 85 3f 5c 85 27 3f aa 6c 9f 3e c7 9b 1e 3f
       1.0409391 0.65437865 0.31137592 0.6195645
0000b0 a7 20 c8 3e bb 32 49 3e 18 11 ac 3b 6b c8 fa 3e
       0.39087412 0.19648258 0.005251061 0.48981032
0000c0 1f 6e 2b 3f 41 ad 6d 3f ff c8 22 3f 15 d4 7f 3f
       0.66964906 0.9284249 0.63587946 0.99932986
0000d0 f5 68 1b 3f 71 6d 02 3f 6c ac 2f 3f 44 c3 35 3f
       0.60707027 0.50948244 0.6862247 0.71001077
0000e0 f4 e3 57 3f 08 68 21 3f 15 47 cc 3e 2f 73 82 3f
       0.84332204 0.63049364 0.3989798 1.0191401
0000f0 de 12 30 3f 59 b8 71 3f 47 cf 09 3f 8f 54 2e 3f
       0.6877879 0.9442192 0.53831905 0.68097776

model.conv_layers.5.bias f4 [64]
000000 12 4f 16 bb 88 00 ca 3c e5 06 fa 3b 7b 03 b0 3e
       -0.0022935313 0.024658456 0.0076302164 0.34377655
000010 03 52 09 3e ee 5d d9 3d 10 a1 fd 3d a4 0a 1f bd
       0.13410191 0.10613619 0.12384236 -0.038828507
000020 94 a0 bc 3d a9 64 e2 bd 8a 88 34 3c 15 71 87 bd
       0.09210315 -0.11054356 0.011018882 -0.066133656
000030 14 31 db 3c aa d9 ca 3d 5e 67 88 3c b6 cb 1d 3e
       0.0267568 0.099047974 0.016650852 0.15409741
000040 9f e7 83 3d b9 36 46 bd 0b 24 96 3e 8a 9f d4 3c
       0.064406626 -0.04839203 0.29324374 0.02595498
000050 28 ad 70 3d f3 18 f7 bd 32 3e ca bd 49 27 9f 3d
       0.058758885 -0.120653056 -0.09875144 0.07771165
000060 ca 56 ef 3d a5 f2 c3 bb 95 55 09 3d bc 3d 32 bd
       0.116864756 -0.005979853 0.033528883 -0.043515906
000070 93 a6 7f bc 93 25 3a 3e 4b 6c 9b 3d ee a6 56 bd
       -0.015603679 0.18178396 0.075890146 -0.05240529
000080 bd e6 11 3e 07 08 94 3d ad 42 af bd e9 a2 f3 bc
       0.14248176 0.072280936 -0.08557639 -0.029740768
000090 83 a0 b9 3d c6 bb 4b 3d 6b c5 17 bd 5e 3f 86 b9
       0.09063818 0.04973962 -0.037053507 -0.00025605684
0000a0 2b 48 2f 3d c2 4a 76 3d 81 32 4f 3e 94 64 ca 3d
       0.042793434 0.06012989 0.2023411 0.09882465
0000b0 b6 b8 81 3d 7f 4c bb bc 02 f9 de 3d 3d ad a9 3b
       0.06334059 -0.022863625 0.10887338 0.0051781223
0000c0 83 f7 27 3e 02 ac 4a bc a1 22 da 3d dd 1f 6f 3d
       0.16403012 -0.012370111 0.10651136 0.058379997
0000d0 05 17 be 3d 43 fd 8c bd 43 f0 2e 3e eb 2d f7 3c
       0.092817344 -0.06884243 0.1708384 0.030173263
0000e0 a1 02 85 bb b7 50 cf 3d 7e b4 49 3e 93 02 a2 3e
       -0.0040591513 0.10122817 0.19697759 0.3164259
0000f0 6b ff 77 3d a4 6c f0 3d d9 0f 94 3d 78 ae 65 3e
       0.06054632 0.117394716 0.07229585 0.22429836

model.conv_layers.5.running_mean f4 [64]
000000 94 40 14 40 6b 0a de 3f f4 81 09 3f 36 ce e6 c0
       2.3164415 1.7346929 0.5371392 -7.212672
000010 4d b0 5c 40 83 20 90 c0 ee d6 49 c0 82 e0 12 40
       3.4482605 -4.5039687 -3.1537433 2.2949529
000020 2f 9a 9c c0 63 59 c4 40 ce b9 2a c0 be ea 94 bf
       -4.8938212 6.1359115 -2.6675906 -1.1634138
000030 e2 59 49 bf fd 1e 81 40 cb ea aa 3f 2f 0e 2d c0
       -0.78652775 4.0350327 1.3352903 -2.7039907
000040 8e 0a 74 bb 94 3a 79 c0 89 6c bf bf 68 34 7b 3f
       -0.0037237736 -3.8942003 -1.4954997 0.9812684
000050 f7 9b e4 bf 97 8c 06 40 56 aa f7 3f 43 df 1c 3f
       -1.7860097 2.102331 1.9348857 0.6127817
000060 d1 99 10 3e 6c d4 80 40 1e 0d 15 c0 dd 44 52 bf
       0.14121176 4.0259304 -2.3289256 -0.8213633
000070 c2 3e 1f 40 d8 1c 5e 40 3e de 05 40 9b 39 c9 3c
       2.4882054 3.4705105 2.0916896 0.024563601
000080 b6 79 45 c0 bb 10 ce 3f 6d af 92 40 80 9d 78 3f
       -3.0855536 1.6098856 4.5839143 0.97115326
000090 d6 32 cd bf 98 d6 81 40 16 70 ad 40 41 74 aa be
       -1.6031139 4.0574455 5.4199324 -0.3329182
0000a0 12 45 0c 40 12 5e ae 40 50 41 d3 40 52 a2 2e c0
       2.1917157 5.448983 6.6017227 -2.7286572
0000b0 88 10 97 40 95 57 33 c0 59 06 15 c1 37 06 1d 3f
       4.720768 -2.8022206 -9.31405 0.6133761
0000c0 6f 52 d8 40 d3 8b ce be 0b 11 db c0 f6 0b 03 40
       6.7600627 -0.40341052 -6.8458304 2.047605
0000d0 4c f9 96 c0 41 6e a2 40 48 72 2f 40 b9 c1 7d c0
       -4.7179317 5.0759587 2.7413502 -3.964949
0000e0 a3 b8 b6 40 a3 48 89 3e 94 86 a1 c0 b2 35 79 c0
       5.7100387 0.2681323 -5.047678 -3.8939023
0000f0 b3 14 1d 40 d1 cb 62 40 c0 0c d1 c0 7f e4 45 c0
       2.4543884 3.54369 -6.5328064 -3.0920713

model.conv_layers.5.running_var f4 [64]
000000 00 ad 26 41 b5 5d b3 41 a6 78 62 40 d1 36 6e 41
       10.417236 22.420755 3.5386138 14.888383
000010 9b f1 47 41 b3 7c 5d 41 19 b0 e1 40 a8 9a 03 41
       12.496486 13.842944 7.0527463 8.225258
000020 e6 49 02 41 ec 7a c6 41 8a 88 35 41 40 6c 34 41
       8.143042 24.81002 11.345835 11.276428
000030 e8 bb b1 40 dc 9f d9 41 1e 36 01 41 4c 4d 3d 41
       5.554188 27.203056 8.075712 11.831371
000040 de 1c d8 40 58 bb 04 41 8c 68 aa 40 32 29 2e 41
       6.753524 8.295738 5.325262 10.885057
000050 e5 bc 3c 41 e9 e0 8c 40 6a 1a 37 41 8c 2d d1 40
       11.796117 4.402455 11.443949 6.53681
000060 8a 95 65 41 91 96 73 40 df cb cc 40 81 48 b2 41
       14.349009 3.8060648 6.3998866 22.285402
000070 70 59 7f 40 ea f4 e2 40 25 a5 88 40 17 16 47 40
       3.9898338 7.0923967 4.2701592 3.1107233
000080 c9 21 9f 41 be c6 d0 41 74 e5 a6 41 be a4 52 40
       19.891497 26.097042 20.862038 3.291305
000090 51 2f 96 41 75 2e df 40 d6 77 0c 41 18 8a 77 40
       18.773104 6.974421 8.779257 3.8678036
0000a0 c2 19 0d 41 1b 53 fd 40 f9 96 79 41 63 fe 7f 40
       8.818789 7.9163947 15.599359 3.9999015
0000b0 72 9c 0b 41 12 ce 22 41 35 99 ef 41 7b 1e 40 41
       8.725695 10.17531 29.949808 12.0074415
0000c0 7e 2d ea 40 c8 95 90 40 ec 1c 0f 41 a4 20 f3 40
       7.3180532 4.518284 8.944561 7.5977345
0000d0 99 d4 1f 41 95 a8 e3 40 46 d3 80 40 73 44 03 41
       9.989404 7.114329 4.02579 8.204211
0000e0 c1 59 0b 41 e9 9a 62 41 3e f7 21 41 23 76 a8 40
       8.709413 14.16282 10.122862 5.264421
0000f0 86 42 37 41 1f a1 1a 41 2b ee f2 40 6b 8b e3 40
       11.453741 9.664336 7.591573 7.110769

model.conv_layers.8.weight f4 [64, 64, 3, 3]
000000 1f ac 76 3b f7 cd 50 3d 3b 66 38 3d 9a 7c 19 3e
       0.0037639213 0.050977673 0.04501937 0.14988938
000010 b5 9e c4 3d 42 47 16 3d ab 0b cc 3b 7d 88 b3 bc
       0.096005835 0.03668905 0.006226977 -0.021915669
000020 13 16 6e bd 5a 9e 66 3d 28 1a 67 3d 09 a8 69 bc
       -0.05812652 0.05630336 0.05642143 -0.014261254
000030 40 c8 0b 3d 0f b9 73 bd c8 ad 60 3d 98 d1 12 bd
       0.03412652 -0.059502658 0.05485323 -0.035844415
000040 ff af 82 bd f8 05 29 bd 41 5e 91 3d 2c c0 17 bd
       -0.06381225 -0.041265458 0.07098056 -0.037048504
000050 e7 b7 44 bd fb b1 c2 3c a9 bd e4 3c 3a 12 8f 3b
       -0.048026945 0.023766508 0.027922468 0.0043661864
000060 87 d0 48 bd 3d 01 97 bd c4 a0 10 be 7a 69 9d bc
       -0.049026992 -0.07373283 -0.14123827 -0.019215334
000070 db 10 f4 bc 52 ad 25 3d f9 cf 56 3d 43 e0 41 bd
       -0.029793194 0.040448494 0.052444432 -0.047333013
000080 2c 68 47 3d f8 2d b4 3d ee 80 b0 3b 22 41 ef 3b
       0.04868333 0.0879783 0.0053864634 0.0073014656
000090 3b 8a 1c 3c 51 01 32 3c b3 1d 07 3d ab 88 04 3d
       0.009554441 0.010864572 0.032987308 0.0323569
0000a0 75 3f f7 3b 90 96 87 bc fe ae ba 3c 49 d9 73 bd
       0.0075454065 -0.016551286 0.02278852 -0.05953339
0000b0 cb 4e c1 38 91 25 3e 3d 36 bb b6 ba 23 db 42 3d
       9.2176335e-05 0.046422545 -0.0013941291 0.047572266
0000c0 77 30 58 bc d5 fa b5 3c 13 ed 09 3e 27 06 f3 3c
       -0.013195149 0.022214333 0.13469343 0.02966602
0000d0 7b ff c7 b9 36 65 21 3e ba 00 e4 3d f7 10 95 3d
       -0.00038146586 0.15761265 0.11132951 0.072786264
0000e0 07 90 b3 3c c1 16 82 3c a4 62 2e bc 97 3e a8 3d
       0.021919264 0.01587999 -0.010643635 0.08215063
0000f0 34 75 7c bc b2 77 11 3d 25 fc a5 bd ac 27 62 3c
       -0.015408803 0.03551454 -0.081047334 0.013803404
000100 63 69 a8 3c 0c e0 c2 3c d1 ca aa bc 83 d9 3b 3d
       0.020558065 0.023788475 -0.020848664 0.045861732
000110 53 08 96 bc e6 20 5b bd fb 7b bb 3c a1 66 bc bc
       -0.018314516 -0.05349817 0.022886267 -0.022998156
000120 7a 88 0f bc 82 50 43 3b 5f 58 fa 3d 60 c2 80 3b
       -0.008760566 0.0029802625 0.12223887 0.0039294213
000130 65 2f a1 3d 37 3e 5e 3d eb 55 45 3d ca b8 db 3d
       0.07870368 0.05425855 0.04817764 0.10728605
000140 f0 fa 51 3e 44 88 95 3d 1a be fe 3c 79 11 bb bb
       0.20505881 0.07301381 0.031096507 -0.00570887
000150 67 da 3e 3d d8 37 48 bc af fa c9 ba e5 ac 76 3d
       0.046595003 -0.012220345 -0.0015409793 0.06022348
000160 8b b0 4e ba f0 6a 49 bd 88 36 1d 3c aa 77 51 3c
       -0.00078845833 -0.04917425 0.009595521 0.012784878
000170 d9 86 d9 bc 84 cf 4b bd ff 4e 09 bd f9 6b 66 bd
       -0.026553558 -0.04975845 -0.033522602 -0.056255314
000180 1e f7 1a bd 2b 5a 64 bd 9b 6b 06 be 2c dd 1b bd
       -0.037833326 -0.055750053 -0.13126986 -0.038052723
000190 8e ad 71 bd 5c 85 e5 bc 8c 9e 23 3c 9b 0e d1 bd
       -0.059003405 -0.028017692 0.009986531 -0.10207864
0001a0 a3 66 8f bb 4c a3 8c bd ed d3 27 bd a0 77 39 3c
       -0.004376249 -0.06867084 -0.040973593 0.011320025
0001b0 6e 4a 8e 3d 86 8b 28 3b 87 89 36 bd d1 f0 ae bc
       0.0694779 0.0025717928 -0.04456475 -0.021355065
0001c0 de 4e 09 bd 9f ae 80 bd 84 91 c0 bc 95 0b 3e bd
       -0.03352248 -0.06283306 -0.023506887 -0.046397764
0001d0 c6 7f 61 bd 51 4a 04 ba 30 ff 94 bc 7b 07 34 3d
       -0.055053495 -0.00050464744 -0.01818809 0.043952446
0001e0 0e 25 86 bd 99 13 a2 bd 3c 5c 0a bc dc c6 06 3c
       -0.06550036 -0.07913894 -0.008444842 0.008226123
0001f0 ef 3b e5 bc 46 27 01 bd c5 d2 0b 3e fa da 28 bd
       -0.02798268 -0.031531595 0.13654621 -0.041224457
000200 f6 1c 7a bc 2d e8 99 bd aa 9a de bd 22 67 2f be
       -0.015265694 -0.07514987 -0.108693436 -0.17129186
000210 9b 16 d9 bd 22 65 b2 bd 59 39 76 be 2c 05 10 3c
       -0.10600015 -0.08710696 -0.24045314 0.008790296
000220 68 b7 40 3d 8b 74 44 3e 6e 12 29 bd 4a 24 99 3d
       0.04704991 0.19185083 -0.04127734 0.07477625
000230 ee 26 05 3e bf e4 89 3b cb a8 0a 3d b6 70 7a 3d
       0.13003132 0.004208177 0.03385238 0.061142646
000240 e6 36 43 3d 27 45 25 3e 6a 6d 9f 3d 6c 44 c1 3d
       0.047659777 0.16139661 0.07784541 0.094368786
000250 6a 46 88 3d a7 e0 93 3d 2e b4 2a bc 00 a7 9e 3d
       0.066540554 0.072205834 -0.010418935 0.077466965
000260 c5 e9 1d 3e fb 8e c1 3d 9f 64 9d 3d d2 7d 6e 3d
       0.15421207 0.094510995 0.076852076 0.05822546
000270 15 cc 02 3c 71 51 b7 3c ae 5e ba 3d e3 5a ed 3c
       0.007983227 0.022377701 0.0910009 0.028974002
000280 7e 11 88 bd 4b 0e c8 3b 82 cd c9 3c 18 63 01 bc
       -0.06643961 0.0061052195 0.024634127 -0.007897161
000290 66 90 08 3d aa ae 2a bd f3 ee ea 39 7b d1 83 3c
       0.033340834 -0.04167048 0.0004480999 0.016091099
0002a0 4d d6 9a 35 b0 f2 21 3d 56 1a 3e 3c 56 de 20 bd
       1.1536264e-06 0.039538085 0.011602959 -0.039274536
0002b0 98 7c 1f 3b 11 82 76 3d 5c 4b 6b 3c 76 d8 d9 3c
       0.0024335738 0.060182635 0.014361229 0.026592474
0002c0 37 0f 82 3d b6 d9 29 bd 68 de 1e 3b 86 2c 13 3d
       0.06350558 -0.04146739 0.0024241451 0.035931133
0002d0 93 e0 90 3d d9 af 1b bd 7e b6 b6 bc 02 13 92 bd
       0.07074084 -0.0380095 -0.022303816 -0.07132532
0002e0 c5 8d 7e bd c2 89 78 bd 5b 38 cb bd d2 80 ba bd
       -0.06214692 -0.06067825 -0.09922858 -0.09106602
0002f0 aa 0d 07 be ec 48 f9 bb eb 7b 4a bd e0 33 50 be
       -0.13188806 -0.00760757 -0.049434584 -0.20332289
000300 a7 f8 a1 bd e6 6f d8 bd ef b3 03 be a5 82 32 bd
       -0.07908755 -0.10568218 -0.12861608 -0.043581624
000310 42 bf 9a bd f0 f4 2f be 38 96 b7 3a dd ab 11 bd
       -0.07556011 -0.1718328 0.0014006561 -0.035564292
000320 1f 37 ff bc 07 db cf bc 72 3e e6 bd e0 4f ef bc
       -0.031154213 -0.025372995 -0.11242379 -0.029212892
000330 81 70 50 bd 31 f7 f0 bd 1e 1b 69 bc 59 be c8 3d
       -0.050888542 -0.11765898 -0.014227657 0.09801931
000340 12 6c d3 bb 83 56 b7 3c 26 21 b1 3c f2 1f 60 bd
       -0.006452092 0.02238012 0.021622252 -0.054717965
000350 a9 52 a3 bd 01 bc 9a bd 14 e1 2b bd cf 80 fe bd
       -0.079747505 -0.0755539 -0.041962698 -0.12426912
000360 46 9a 68 3b 89 1a 47 3d 32 3d 82 bc 75 fe 9c 3a
       0.0035492345 0.04860929 -0.01589832 0.001197769
000370 00 5f f5 bd 2c 43 da bc ac 5a b1 bd 04 27 49 be
       -0.119810104 -0.026643358 -0.086598724 -0.1964379
000380 96 dd 98 bc 7f ea 13 3d 51 1a a6 3c 83 22 17 bd
       -0.018660348 0.036112305 0.02027622 -0.036898147
000390 24 de fe bb ab de 2c bc aa e3 d9 bd 96 40 a8 bc
       -0.007777946 -0.010551135 -0.106391266 -0.02053861
0003a0 0a 3d 9b bd 74 67 d0 bd 1c d6 3c 3c 26 62 b8 3d
       -0.07580002 -0.10175982 0.011525657 0.09003095
0003b0 32 08 30 3d e5 71 87 bd 25 0f a2 bb b6 fb ab 3c
       0.042976566 -0.066135205 -0.004945653 0.020994049
0003c0 f3 6d c2 bd 19 9b 86 bd 66 51 73 3b c4 37 ba 3b
       -0.094936274 -0.06572551 0.0037127375 0.0056829173
0003d0 20 4c 31 bd dd 17 66 bd 01 62 3b bc 9a 84 e4 bd
       -0.04328549 -0.0561751 -0.01143694 -0.11158104
0003e0 9f 71 fd bb b2 d1 9d bd 6f d3 1a be e8 ff c5 3d
       -0.007734492 -0.07706012 -0.15119718 0.09667951
0003f0 7d 0f 2b 3e bd 09 87 3c 6e 41 a4 3c 81 21 7d bc
       0.16705127 0.016484136 0.02005073 -0.0154498825

model.conv_layers.9.weight f4 [64]
000000 3c 85 02 3f 07 5b 13 3e 6b 7f 9d 3e 19 92 eb 3d
       0.5098455 0.14390193 0.30761275 0.11502475
000010 7e f1 29 3f 29 99 f5 3e 88 0a e7 3e 12 58 91 3e
       0.6638411 0.47968414 0.45125222 0.28387505
000020 be 68 5d 3c 65 b3 86 3d 1b ff d1 3e b1 59 14 3e
       0.013513742 0.065771855 0.41014943 0.1448734
000030 4a 37 ca 3e 35 b0 36 3e cb b1 18 3e 27 6b a0 3e
       0.39495307 0.17840655 0.14911573 0.3133175
000040 a8 f8 60 3e e3 2f 9e 3e 29 5f 00 3f 0d 92 61 3e
       0.21969855 0.3089591 0.501452 0.2202837
000050 0e b0 1b 3f 38 2c 04 3f 16 b3 ad 3d 1e 69 57 3e
       0.60815513 0.5162997 0.084814236 0.21036193
000060 6f 6e 59 3e ea 67 02 3f 6d e0 37 3f f6 3b 30 3f
       0.21233533 0.5093981 0.7182682 0.68841493
000070 3f 05 cb 3e e2 71 26 3f f8 c5 a3 3e 23 9d 83 3e
       0.3965244 0.6501752 0.31986976 0.25705823
000080 56 c6 5d 3d 89 73 23 3f 61 22 9a bb 25 0a 15 3f
       0.054144226 0.6384817 -0.0047038053 0.58218604
000090 23 da 0c 3f 96 91 bd 3e 5c 74 31 3f 97 54 bd 3d
       0.5502035 0.37025136 0.69318175 0.0924465
0000a0 d1 14 fc 3e 81 c7 16 3f 06 59 31 3f d3 24 6c 3e
       0.49234632 0.5889817 0.69276464 0.23060922
0000b0 41 41 4c 3f 98 0c 04 3f 25 5d 03 3f 67 d6 f4 3d
       0.7978707 0.51581717 0.51314 0.119549565
0000c0 e2 95 43 3d 3a 44 32 3f 68 5f c5 3e 07 51 bc 3e
       0.04775036 0.69635355 0.38549352 0.3678057
0000d0 eb 26 c1 3e 97 15 9f 3e c9 41 00 3f 7f d4 12 3f
       0.37725005 0.3107116 0.5010038 0.57355493
0000e0 fa 2d 90 3b 90 b9 17 3f 03 29 a2 3e 8a 12 99 3e
       0.004400012 0.5926752 0.31671914 0.29896957
0000f0 e7 ea f7 3d c7 92 1a 3e 3b 8f be 3e fe 3c 2c 3f
       0.12105351 0.15095054 0.3721865 0.67280567

model.conv_layers.9.bias f4 [64]
000000 df 6f c3 bc 41 5a e5 bc 53 73 0c be 2a 46 86 be
       -0.023857055 -0.027997138 -0.13715868 -0.26225406
000010 0f 86 22 3e b7 1a 85 3d 0d 7b 8f bd 2b 6b 05 3e
       0.15871452 0.06499236 -0.07005892 0.13029163
000020 73 8d 16 3e 73 7f da 3d fe 26 e5 bd 28 7f fc bd
       0.14702396 0.1066884 -0.11189078 -0.12328941
000030 79 4e 2d 3d ba 9d af 3d 69 67 68 bd 96 35 65 bd
       0.042311165 0.08575006 -0.056739245 -0.055959307
000040 8b 2d cc 3c 17 b2 55 be 63 86 8f be 88 fd 59 3e
       0.02492406 -0.20868717 -0.28032216 0.21288121
000050 69 5b d9 bd 0b 46 a7 3c 9c c0 20 3e ca 98 4c be
       -0.10613138 0.020419141 0.15698475 -0.1998016
000060 a8 90 47 be b2 91 39 bd eb 3b 1f be 1d a8 1f be
       -0.19488776 -0.04530496 -0.155502 -0.15591474
000070 18 59 b1 bd ae aa fc bd a3 ba 2b 3e de 61 ad 3e
       -0.086595714 -0.12337242 0.16770415 0.3386373
000080 40 18 fa bd 16 ad f2 bd 2d 80 86 bd 8e f2 a0 bc
       -0.122116566 -0.1184942 -0.06567416 -0.01964691
000090 16 ad 20 bd 78 d9 2a bd 22 c4 60 bd 2d 57 fd 3d
       -0.039227568 -0.0417113 -0.054874547 0.12370143
0000a0 43 28 3f 3d c1 04 30 bd 78 0b 5e be 1e 1d 64 3e
       0.046669256 -0.042973284 -0.21684062 0.22276732
0000b0 81 b6 55 be 81 c6 3a bd e8 63 99 be 29 ec 56 bd
       -0.20870401 -0.045599464 -0.29959035 -0.052471314
0000c0 bc 5f c3 3d 96 53 2f 3e 5a 27 b2 3c ca 33 4d be
       0.09539744 0.17121729 0.02174728 -0.20039287
0000d0 ae 47 9f 3d f0 c0 ab 3c ec 8d 85 bd ae 2f 2d 3e
       0.07777344 0.020966023 -0.0652121 0.1691272
0000e0 4c d2 0b 3d 01 d4 1b bc b0 65 c4 3d 15 c0 52 3e
       0.0341361 -0.009510995 0.09589708 0.20581086
0000f0 8f f1 48 3e 02 72 9c bd 92 7e 8c be 40 07 be bd
       0.19623397 -0.07638933 -0.27440315 -0.092787266
