robotics-rl-srl-backup/logs/baxter_real/19-01-31_02h24_21_custom_cnn_ST_DIM2_reward/srl_model.pth (torch_old, 360575 bytes, 27 tensors)

forward_net.weight f4 [2, 7]
00000000: da6c 473e 40d4 2abe 0610 96bd 99a9 353e
00000010: 4f2f b6be a81c 683e fd3e 9fbd eae6 443e
00000020: d537 573d 9d8f 3dbd 75b2 d63d c9be 983c
00000030: 375b 0d3e 03d4 16be
0.19475117 -0.1668253 -0.07327275 0.17740478 -0.3558297 0.22667181 -0.07775686 0.19228712
0.05254348 -0.04627954 0.10483257 0.018645661 0.13804327 -0.14729314

forward_net.bias f4 [2]
00000000: 0dbf e1bc 0960 0bbd
-0.02755692 -0.034027133

inverse_net.weight f4 [5, 4]
00000000: 306c 943d 00e7 02bb 64c9 df3e 5054 1f3e
00000010: 08ac 3ebe 369d 9abe 70a3 abbd b0d8 5cbe
00000020: d411 24be 801f c43c d49b 983e 3825 8b3e
00000030: c640 fabe 1cb3 9e3e c808 0f3e 88d4 f23e
00000040: aef9 a83e 5240 e9be 2e68 f3be 3cf4 76be
0.07247198 -0.0019974113 0.43708336 0.15559506 -0.18620312 -0.30198067 -0.083807826 -0.21567035
-0.16022426 0.023940802 0.29806387 0.27176833 -0.48877543 0.30996025 0.13968194 0.47427773
0.3300299 -0.45556885 -0.4754042 -0.24116606

inverse_net.bias f4 [5]
00000000: eecb e03e 1091 aabd 801d 5b3e a8ee 6dbe
00000010: 1a31 fb3e
0.43905586 -0.0832845 0.21397972 -0.23235571 0.490609

reward_net.0.weight f4 [16, 4]
00000000: de03 32be 3aa2 ac3e ceab 323d 9138 9abe
00000010: 526e 683e 4408 71be 8fac ef3d 3431 eabd
00000020: 3193 41bc fbc4 06bf b975 52be 491a 673e
00000030: 1329 1ebe 7a44 003f ce40 bc3e e3d1 a9bc
00000040: 1520 94be f89b 833e b3f0 4c3e 35f4 bcbe
00000050: 62e9 963e b9ca aa3e 63ac d33e 2321 80be
00000060: ae5b 56bd dd9d a63c dcfa d23d 14e9 b2be
00000070: e07a c6be 2c68 983e f3a5 19be 1d47 8a3e
00000080: 0468 6d3d ddea 093e 88be 0e3e dbf7 1b3e
00000090: 7b11 5f3e 17b6 ddbe 2dfa 623e 4ba0 a4be
000000a0: 886f d1be 5399 7b3d 9497 efbd b841 a63e
000000b0: a8a1 a3be 9c34 d4be a4ef aa3e a7b0 34bd
000000c0: 6bdd 7e3e cf93 433e 6f85 d0be 20ef 053e
000000d0: 18f6 f53d 3268 abbe 08ee 72be 5c94 2e3e
000000e0: c4e2 533d fcee 32be 6fb9 41be bee6 fd3e
000000f0: 3876 bdbd a654 903e 98b2 5d3e f07a a5be
-0.17384288 0.3371752 0.043620877 -0.30121282 0.22698334 -0.2353831 0.11702835 -0.11435166
-0.011814878 -0.5264432 -0.2055272 0.2256862 -0.15445356 0.50104487 0.36768192 -0.020729965
-0.28930727 0.25704932 0.20013694 -0.36905065 0.29474932 0.3335779 0.41342458 -0.2502528
-0.052333526 0.020338947 0.10301754 -0.3494345 -0.3876562 0.29766977 -0.15004711 0.2700738
0.057960525 0.134685 0.1393987 0.15231268 0.21784012 -0.43302986 0.22165747 -0.32153544
-0.40905404 0.06142552 -0.11698833 0.32472014 -0.3195927 -0.41446388 0.33385956 -0.04411378
0.24889152 0.19099353 -0.40726802 0.130795 0.12009829 -0.33477932 -0.23723614 0.17048782
0.051729932 -0.17473978 -0.18918394 0.49590105 -0.09251064 0.28189582 0.2165016 -0.32320356

reward_net.0.bias f4 [16]
00000000: cd15 ebbe 8b5b e63e 59d7 2d3d 6552 bf3e
00000010: 3fac f53d 45ec 053e 11d9 af3e 9c45 023f
00000020: e49b b8be ab11 053d 50e0 d63e d914 aa3e
00000030: f261 b43e a445 b9be 29f7 a6be 50d2 9abe
-0.4591507 0.44991717 0.0424417 0.3736755 0.11995744 0.13078411 0.34345296 0.50887465
-0.36056435 0.032487553 0.41968012 0.3321903 0.35230976 -0.36185944 -0.32610443 -0.3023858

reward_net.2.weight f4 [16, 16]
00000000: 7254 77bb 0c66 603e 702e 51be 4e31 b33d
00000010: 224f 3bbe 8ab8 87be b650 aabd f03b d03d
00000020: 1396 493e b5bb 3dbe 50e7 3c3c 0a25 3e3e
00000030: 967e f73d 8c8b 1f3e 321e 113e 98ec 213e
00000040: f9c3 cf3d 5d4f 10be c8ea 26be 7241 8bbd
00000050: bd91 833c 1156 fcbd 1dd0 f83d 5bdb f73d
00000060: 3711 a1bc 9b23 013e 7280 ff3d c10b 3b3e
00000070: f647 5b3e e463 adbd 6d68 903e c0c3 ecbc
00000080: e0b8 0cbc 20a2 71be 08c4 24be 5c8e 15be
00000090: 80fe dabd 1a02 363e d84f a7bd d24d 3fbe
000000a0: f0fd c43d 44ed a33d 0ecf 253e 0e79 04be
000000b0: c004 5e3d d864 babd 2011 66bd d802 4cbe
000000c0: dd17 9dbd fa9d 3ebd 9327 1d3e 9504 bd3d
000000d0: 71f6 da3d 8221 8f3e 4b20 8c3e a684 5b3e
000000e0: af70 393d e259 12be 2040 753e 0913 05bd
000000f0: 8d53 d13c 328b 5cbe d489 37bc ec1d 25be
00000100: 6c3d 6b3e 4051 5dbe 2e8c 47be c015 0bbc
00000110: 546c 0abe 1833 b73d f814 c5bd e47a f0bd
00000120: e0fc 673c 6051 393e 9413 34be 3c70 f03d
00000130: 0a77 243e 226b 7a3e ac2e 33be a000 783d
00000140: 883d 17be d34e 793e a9af 4cbd fb02 4a3e
00000150: 03e9 573d c6f2 2c3c 8ea2 b43c 0fe1 b03d
00000160: 28cf 1e3e 229c 8f3d d2a4 f63d d287 47be
00000170: 438b 693e 7a32 5f3e 12a0 7a3e b23d 3d3e
00000180: f6f9 11be ca4e 80bd c35d 873e 9946 16be
00000190: e112 8a3e e49d 2abe 7595 15be 8a93 293e
000001a0: 7e15 11be 4540 dfbc 38d3 663e 1485 693e
000001b0: d899 8f3e 98c9 4fbd ff33 1fbe 760f 7c3e
000001c0: 8823 5abd a0a7 d2bd d89f 793d ee06 33be
000001d0: 8443 283e 8e71 203e 9621 4bbe 7645 52be
000001e0: c065 b3bc 940d d73d 0042 edbb d6cf 01be
000001f0: 004a bb3b 669f 70be 4aee 34be 9e6a 2abe
00000200: 0c03 303e 0ceb 423e cfe2 05be c3a0 0abd
00000210: 4b24 8a3d 7dd6 93b8 96f0 1ebe 316a d23d
00000220: 340c f53d 8855 36bd 90b1 94bd 3de4 493e
00000230: 29a4 323e 7c25 11be e101 573e 7069 7d3d
00000240: 7d4b fdbd abe2 2a3e a86c 09be f6e4 913e
00000250: e3fa dcbd 714d ce3d 4e66 d93d 5539 e13d
00000260: 42b4 7f3e e129 97bd 9a0f 60bd 3318 3fbe
00000270: eb6d 2f3d 808b f2bd 676a 593d 20eb 51bd
00000280: dce0 a93d 37b6 3e3e d52c 333d f06d e2bd
00000290: 465d 1cbe a504 7ebe a7a9 383e e17c 9ebd
000002a0: 18b3 4e3d 0e39 aabc 36e3 41be 79da e23d
000002b0: b670 e13d 4046 4e3c 627b 11be 5c8d d9bd
000002c0: c3c4 253d 2843 12be a6f2 d6bd be2a 0cba
000002d0: d8fe 14bd 505f 7b3d b093 86bd 3302 7a3b
000002e0: a9dd 6ebd c4f2 69be 1c93 823e 705c 433d
000002f0: 9170 853e 6807 25bd 31bd cbbc ccaa 70be
00000300: 545c c2bd 3121 093e 2cbe 8cbe 5193 f0bd
00000310: 0f72 fa3d dd97 e93d 811d 7f3d f6d7 a2bd
00000320: d010 9bbc 6eba 9ebd 553d fabd 982c 983d
00000330: 64e2 ebbd dad0 0fbe 184e 683d d009 39be
00000340: 6889 5abd b724 c83d a0db 813d 1332 3b3e
00000350: 8959 4dbe e72b e4bc bdb0 d4bd a3ee 2dbe
00000360: 8203 10be fafd 063d 2ba3 7dbb 2b6c 21be
00000370: e730 53be 6c1a 54be 84e5 7a3e 4089 2ebd
00000380: f0c8 6cbd 80c4 f9bd 3eca 1ebe 716e 84be
00000390: df08 35be 1674 fb3d 72e3 ca3c ad1b f2bd
000003a0: bc7d c1bd d5c9 043e d4c9 193e 28e4 573e
000003b0: 22b7 2f3d 585a f73d a08d a4bc aeaa 15be
000003c0: 1ee6 54be dbac 3a3e f70b b83b 94d8 153e
000003d0: c263 5e3d b52f 50be d4b0 bdbd a053 e73d
000003e0: fe67 5dbc b476 58be c384 053e 9b42 223d
000003f0: 74e7 17bd 58d5 ce3d 03cb b93d c0d3 bcbd
-0.0037739542 0.21913928 -0.20427871 0.087496385 -0.18291906 -0.2650798 -0.08316176 0.10167682
0.19686155 -0.18528636 0.011529759 0.18568817 0.12084691 0.15580577 0.14171675 0.1581291
0.10144801 -0.14092775 -0.163005 -0.06799592 0.016060704 -0.12321103 0.121490695 0.121023856
-0.019661529 0.12611239 0.12475671 0.18266203 0.2141417 -0.08466318 0.2820467 -0.028901935
-0.0085889995 -0.23597002 -0.16090405 -0.14605087 -0.10693073 0.17774239 -0.08169526 -0.1868203
0.09618747 0.08004239 0.16192266 -0.12936804 0.05420375 -0.09101266 -0.056168675 -0.1992296
-0.07670567 -0.046537377 0.15347128 0.092293896 0.10691536 0.27955252 0.27368388 0.2143732
0.04527348 -0.142921 0.23950243 -0.032488856 0.025552535 -0.21537474 -0.011202294 -0.16124696
0.2297265 -0.21613026 -0.19487068 -0.008489072 -0.13517886 0.08945292 -0.0962314 -0.117421895
0.014159411 0.18097448 -0.17585593 0.11740157 0.16061035 0.2445493 -0.17498273 0.06054747
-0.14769566 0.24346475 -0.04997221 0.197277 0.05271245 0.010555929 0.022050168 0.086366765
0.15508711 0.07012202 0.12043156 -0.19485405 0.2280703 0.21796599 0.24475124 0.18480566
-0.14255509 -0.06265028 0.26438722 -0.14675368 0.26967528 -0.16661793 -0.14607795 0.16560188
-0.14168355 -0.027252326 0.22541511 0.22804672 0.2804706 -0.050729364 -0.15547179 0.24615273
-0.05325654 -0.10285878 0.060943455 -0.17483112 0.16432005 0.15668318 -0.19837031 -0.2053431
-0.021899104 0.10500637 -0.007240534 -0.1267694 0.0057156086 -0.23498306 -0.17669025 -0.16642234
0.17188662 0.19034976 -0.13074802 -0.03384472 0.067452036 -7.049458e-05 -0.15521464 0.10274161
0.11965218 -0.044515163 -0.0726043 0.19715972 0.17445435 -0.14174455 0.2099681 0.06186813
-0.12367914 0.1668803 -0.13420355 0.28494996 -0.1079004 0.100733645 0.10615216 0.10997263
0.24971107 -0.07381035 -0.05470238 -0.18661575 0.042829435 -0.11843014 0.05307999 -0.051249623
0.08294842 0.18624197 0.043743927 -0.11056125 -0.15269956 -0.24806459 0.18033467 -0.077386625
0.050463766 -0.020779159 -0.1893433 0.110768266 0.11007826 0.012589991 -0.14207223 -0.10622665
0.04047085 -0.1428343 -0.104955 -0.0005346945 -0.03637585 0.061370194 -0.06571138 0.0038148283
-0.05831686 -0.22846514 0.2550286 0.047695577 0.26062444 -0.040290266 -0.024870487 -0.23502654
-0.094902664 0.13391568 -0.2748884 -0.117468484 0.12228786 0.11405919 0.062283996 -0.079513475
-0.018928915 -0.077504024 -0.122187294 0.074303806 -0.1151779 -0.14044514 0.0567151 -0.1807015
-0.053353697 0.09772628 0.06340718 0.1828082 -0.20053686 -0.027852966 -0.10385273 -0.16985564
-0.14063838 0.032957055 -0.0038701992 -0.15763919 -0.20624124 -0.20713204 0.24501616 -0.04261136
-0.057808816 -0.121956825 -0.15506837 -0.2586551 -0.17679165 0.12278001 0.024766658 -0.11821685
-0.0944781 0.12967618 0.15018398 0.21083128 0.04289926 0.120777786 -0.020087063 -0.1461589
-0.20790908 0.18230002 0.0056166607 0.14633399 0.054294355 -0.20330699 -0.09262243 0.11295247
-0.013513563 -0.21139032 0.13038926 0.0396143 -0.037085965 0.10099286 0.090719245 -0.092200756

reward_net.2.bias f4 [16]
00000000: f5f6 3f3e bf16 283e 8093 003d 533f 07bc
00000010: 9ad7 58be dba8 6d3e b5a1 8ebc 0a6f 25be
00000020: f6e2 fd3d 4283 ff3d a26a 023d 97ea 84bc
00000030: a946 ddbd 881e 4b3c 7b5b 273e 8def a83d
0.1874655 0.16414927 0.031390667 -0.008254844 -0.21175995 0.23208944 -0.017411092 -0.1615564
0.12396805 0.12476207 0.031839974 -0.016225142 -0.10804493 0.012397416 0.16343491 0.08248816

reward_net.4.weight f4 [2, 16]
00000000: 2007 8fbd 0a4e 973e 0034 af3b 0b1e 773e
00000010: b091 793d e39d 8b3e 4fb6 3e3e 0884 02be
00000020: fa35 653e ac12 303d 67bf 2ebe 01cd 73bc
00000030: 2852 48be 79c6 cbbd 939c 16be 067c 5b3e
00000040: c6a2 cebd 3211 b9bd b85b f53d d9c1 6d3d
00000050: a8f3 28be 4650 323d a27e 833d 4a8c 4bbe
00000060: 8131 2d3e c924 46be 64db 02be 2a45 79be
00000070: 083b 4b3e c100 903c 1dd0 383e 0669 ddbc
-0.06983781 0.29551727 0.005346775 0.24132554 0.060929954 0.27268896 0.18624233 -0.12745678
0.22383872 0.042986557 -0.17065202 -0.01488042 -0.1956259 -0.09949965 -0.14708166 0.2143403
-0.1008964 -0.09036483 0.119803846 0.058046196 -0.16499197 0.043533586 0.06420638 -0.19877735
0.16913415 -0.1934997 -0.12779003 -0.2434279 0.19846737 0.017578484 0.18048139 -0.027027618

reward_net.4.bias f4 [2]
00000000: 8284 323e 0b37 f2bd
0.1743336 -0.11826905

model.conv_layers.0.weight f4 [64, 3, 7, 7]
00000000: c7d8 c1bd 2b6c 7ebc 0b52 13bd a81b 18bd
00000010: 1136 8ebd 57b2 e1bc f5d2 afbb aa14 703a
00000020: a5ea c2bd ab06 373c 8f59 a7bc 3e91 e43c
00000030: 5142 ef3c 82ca bfbd 1131 4e3d 8bb7 e0bd
00000040: 616d 9c3c 2716 b7bc eb9c 3d3c c3c2 8fbd
00000050: 4a28 e23c 0a78 84bd fe9d c9bd af65 383b
00000060: 3ecf c43c 6da7 9c3d 53fc 303d 8463 013e
00000070: 3b49 c13d 7c32 bdba a4d4 e7bc a46a a43d
00000080: dde8 20bc 66fb 993d cb53 0ebd f649 c33d
00000090: a947 713d 955d c63c c1f8 923d 9dec c0bc
000000a0: fc50 963c 8c5e 193d 344e 50bc 0307 493c
000000b0: 33d0 1fbb e6b5 e53d c939 d63d 5c51 da3d
000000c0: 5620 d53d 4b6a e0bd a595 3ebb 5566 8938
000000d0: 1dc8 b9bd c973 513b 4f1c 9abd 1388 8ebc
000000e0: 888d 51bb 0ca4 263d 02ca 96bd cbf8 c2bd
000000f0: 1071 3c3d 665a 873b 5c8a 1d3c 229e 73ba
00000100: c14c 74bd 400e 9e3c 2760 d1bd c6a3 98bc
00000110: fdce ee3b c4c0 da3c a4ce 91bd bbc7 afbd
00000120: e3dc 203a 7816 c4bd 00d4 c9bd 2829 d4bd
00000130: 0e67 8dbd 0584 2bbd 6912 9abd 619a adbb
00000140: 862c 30bd 9858 ab3d 3235 efbc d02a 93bc
00000150: ce7b 5c3d ec8f fcbc d764 b43d 8477 9f3d
00000160: 9e9b 4abd 2f88 05bd bfb7 babc af95 4dbc
00000170: ac00 293d 1d6e 50bd 0430 fbbc a878 8c3d
00000180: b828 833b 18a5 0cbb 6991 c9bd c272 583b
00000190: 72bf c5bc ab08 7dbd a0cc a4bd bdb8 4fbc
000001a0: 58cc febb 88db d33b ed67 b7bb 1c65 2ebd
000001b0: f430 c0bd 541d b83c f12c fdbc 0cf8 adbd
000001c0: 0296 273d 93ac 823c b1f5 c1bd 6966 91bd
000001d0: a187 6cbd 1aca 9dbd 8ff7 1c3c 8e6f b3bd
000001e0: ec9e 423d 36c9 81bd 1b16 a13c 5d1b d3bc
000001f0: c422 83bd 13dd e43c 1158 b7bc e1f8 203b
00000200: 2041 323d bd78 c83d cecf b63a 36a2 10bd
00000210: 1e5c 12bc 4179 1fbb e57e 843b 8449 523c
00000220: c712 6cbc 7596 783d 7dc9 183d 148c 8fbc
00000230: db09 53bc a466 4d3d 0529 003d 1c72 ba3d
00000240: ed6a ab3c 8110 07bd b768 d8bc 9f19 67bd
00000250: d8eb 4dbd a99e b4bc 858f 4bbd 7131 88b9
00000260: ed1b 6dbd 0703 f93c d0eb 4ebc 848d 69bd
00000270: 0451 2b3d 0616 22bc af09 b1bd dd9a 99bd
00000280: 5845 e43c 1ce2 da3b ebb3 073d 979f 19bd
00000290: 385b db3c 9b03 2b3c 797d 91bb 0574 45bd
000002a0: 0e74 463d 8f68 73bc 2345 58bd b808 05bd
000002b0: d086 4e3d 38af ce3c 6c5e 14bd 0b92 493d
000002c0: 828e 863b 03d4 9ebd ee08 ecbd 56b4 853c
000002d0: bd47 413d 1b8b a0bd c4c1 053b ba88 e8bc
000002e0: ea4c 83bd d501 c539 c443 64bc a43b 49bc
000002f0: bb72 ca3c d0a1 c4ba 696b bb3b e4af 283d
00000300: 1a65 bbbb 9d7a 99bc 5185 76bd 3c7f f73c
00000310: 072e 9bbc ab4f b53c ea4b 483d 4647 49bd
00000320: 209d e23c 8038 40bd 03f4 353d 6ca1 0b3d
00000330: 4357 77bd 5845 e3bc a348 88bd 0a33 82bd
00000340: 6867 3dbd 5794 f0bc 5fd1 71bd 42de ddbd
00000350: cc7c a4bd ae84 19bd b4f4 67bd 5182 003d
00000360: efc5 193d 42b6 b63c f5d5 c23b bb7f c4bd
00000370: 5dec 413d c6e9 d2bd 98dc 69bd 2c09 b4bd
00000380: cce1 41ba a677 cbbd e65f 92bd 0c78 aabd
00000390: b2a1 a5bd 02f7 8bbd 23b1 513d 5700 18bd
000003a0: 310e afbb 1154 e6bd 8a63 2f3d eb23 45bd
000003b0: 2c55 d8bd b484 db3c 426f 57bd 37ad 363d
000003c0: 9c7d b0bd c989 dabd e58f bcbd 7c19 be3b
000003d0: 177f 20bd cefe dbbd 4259 7fbc d3df 12bd
000003e0: 4271 4dba 9309 94bd 5918 b6bd 8a6d d83c
000003f0: 3231 90bd e205 e03c f209 153d 665a b4bd
-0.09465175 -0.015528719 -0.035966914 -0.03713575 -0.06943906 -0.02755086 -0.005365724 0.00091583526
-0.09517411 0.011171023 -0.020428447 0.027901288 0.029206427 -0.09364797 0.050339762 -0.10972508
0.019095125 -0.02234943 0.011573057 -0.0701957 0.027607102 -0.06468208 -0.09844588 0.002813678
0.024024602 0.076491214 0.043209385 0.12635618 0.09437796 -0.0014434601 -0.028299637 0.080281526
-0.009821144 0.075186536 -0.03474788 0.09535591 0.05890623 0.024214545 0.07176352 -0.023550326
0.018349163 0.037443683 -0.012713958 0.012269738 -0.002438557 0.11216335 0.104602404 0.10660049
0.10406558 -0.10957774 -0.0029080894 6.55173e-05 -0.09071372 0.0031959882 -0.07524931 -0.01739887
-0.0031975228 0.04068379 -0.07362749 -0.0952011 0.046006262 0.0041306494 0.009615507 -0.0009293278
-0.05964351 0.019293904 -0.10223418 -0.01863278 0.0072878585 0.026703246 -0.07119492 -0.085830174
0.00061364303 -0.09574598 -0.09854889 -0.103594124 -0.06904422 -0.04187395 -0.07523043 -0.0052979444
-0.04301121 0.08366507 -0.02920017 -0.01796475 0.053829007 -0.030830346 0.08808296 0.07786468
-0.049464814 -0.032600578 -0.022792695 -0.012547894 0.041260406 -0.050886262 -0.030662544 0.06858951
0.004002657 -0.0021460708 -0.09842188 0.0033027385 -0.02413914 -0.061775845 -0.080468416 -0.012678322
-0.0077758245 0.006465379 -0.0055971057 -0.042576894 -0.09384337 0.022474922 -0.030905219 -0.08494577
0.040914543 0.01595143 -0.0947069 -0.07099611 -0.057746533 -0.077045634 0.009580507 -0.08761512
0.04751484 -0.06337206 0.019663861 -0.025769884 -0.064031154 0.027937448 -0.02238086 0.0024562406
0.04351914 0.09788654 0.0013947429 -0.035310946 -0.008933095 -0.0024333748 0.0040434473 0.01283491
-0.014408774 0.060690362 0.03730153 -0.01752285 -0.012880768 0.050146714 0.03128912 0.09103796
0.02092501 -0.032974724 -0.02641712 -0.05642092 -0.050273746 -0.022048311 -0.049697418 -0.00025976778
-0.05788796 0.030396951 -0.012629464 -0.057019725 0.04182531 -0.009892946 -0.08644425 -0.07500241
0.027865097 0.0066797864 0.033130568 -0.037505712 0.026776895 0.010437871 -0.0044400063 -0.048206348
0.048450522 -0.014856472 -0.05280031 -0.032479018 0.050421536 0.025230035 -0.03622286 0.049211543
0.0041063437 -0.07755282 -0.11525141 0.016321342 0.047187556 -0.07839032 0.0020409683 -0.028385509
-0.064111546 0.00037576133 -0.013932172 -0.012282286 0.02471291 -0.0015001837 0.0057195914 0.041183367
-0.0057188394 -0.018735224 -0.060185734 0.030212037 -0.018942846 0.022132715 0.048900522 -0.049140237
0.027662814 -0.046928883 0.04442216 0.03408949 -0.060385954 -0.027743027 -0.06654479 -0.06357391
-0.046241194 -0.029367609 -0.059037562 -0.10833408 -0.080316156 -0.03748005 -0.05662985 0.03137428
0.03754228 0.022303704 0.005945916 -0.09594675 0.047344554 -0.10298495 -0.05709514 -0.08790812
-0.0007396012 -0.099349305 -0.071471974 -0.083236784 -0.080874816 -0.068342224 0.05119432 -0.0371097
-0.005342268 -0.11246503 0.042819537 -0.048129957 -0.1056312 0.026796676 -0.052596338 0.044598784
-0.08617708 -0.10670812 -0.09207133 0.005801378 -0.039183702 -0.107419595 -0.015585246 -0.035857987
-0.0007837006 -0.07228389 -0.08891363 0.02641942 -0.07040633 0.027346555 0.036386438 -0.08806305

model.conv_layers.1.weight f4 [64]
00000000: 3ec6 6a3f 03f9 523f 4840 383f 8c47 ab3e
00000010: 4552 143f 3b28 013e 37b5 ca3e f73d 773f
00000020: d750 113f 7f12 5c3f d9b1 5d3f c3d1 833f
00000030: f6d9 473f e5bb 3c3d 21c4 803e 8e37 083f
00000040: 2efe 783f 0290 193f 25fd 273f 20cc 093f
00000050: df39 8f3e 2b16 193d 6180 013f 91a4 9c3e
00000060: ebf9 333f 3167 3f3f 9076 483d 4391 323f
00000070: 1e8f 363f 030d 2d3f 1645 393f abe8 783e
00000080: 2da2 813e 5e36 3a3e ed3a 773f 8e69 433f
00000090: 1052 0f3f b776 263f 739f ba3d 2255 7a3f
000000a0: 79d4 113e 17b5 d63e f89a 523e 59dc dd3e
000000b0: e2ea 163e 5658 9b3e 9d15 f83e 36c3 543f
000000c0: c88f 683f c741 9e3e c512 303f 4fac 633f
000000d0: 7e0f 6e3f c35f 443f c978 483f b112 743f
000000e0: 26cf 203f 179c 5b3d 4dac 543f 1f35 763f
000000f0: 8807 743f 2473 ad3d 59a7 233f e49f 5e3f
0.91708744 0.8241121 0.71973085 0.33453023 0.57938033 0.12613003 0.3959138 0.96578926
0.56763977 0.8596572 0.865995 1.0298389 0.78066957 0.046077628 0.25149634 0.5320977
0.9726285 0.59985363 0.6562064 0.53827095 0.2797384 0.037374657 0.50586516 0.30594304
0.7030322 0.7476683 0.048941195 0.697529 0.7131213 0.6759798 0.7237104 0.24307506
0.25319043 0.18184802 0.9657429 0.7633294 0.5598459 0.65024894 0.09112444 0.9778615
0.14241208 0.41935036 0.20566928 0.43332174 0.14738038 0.30340832 0.4845399 0.8311037
0.9084439 0.3090956 0.6877864 0.889348 0.9299239 0.7670862 0.78309304 0.9534102
0.62816083 0.053615656 0.8307541 0.96174806 0.9532399 0.08469227 0.6392723 0.86962724

model.conv_layers.1.bias f4 [64]
00000000: 9c01 01bd 2b1c 08bd 81ed 003d d3ff f2bc
00000010: 9c72 ecbc 70ec f93c 9848 ea3c 561a 7b3c
00000020: a885 093d 8454 debc 39d0 eb3c e9f2 eabc
00000030: 572a f63c d531 fd3c 974c 12bd 4782 20bd
00000040: e097 0a3d 895e e83c c25f 04bd f940 b9bc
00000050: 71d3 ea3c 385f 003d 5ae7 133d fc35 edbc
00000060: fda8 0d3d 76e6 f6bc d7a7 04bd 94fc f13c
00000070: b495 e83c 6779 0dbd 531e 0abd c97c d2bc
00000080: 1ee0 cbbc d693 b83c 0d65 3bbd ee34 053d
00000090: 64a6 c93c 44aa dbbc 65c5 da3c e52d 91bc
000000a0: 7ae0 f93c d4fc fd3c 60b1 00bd a7b1 10bd
000000b0: 6e87 00bd e66a f13c b255 16bd 21f2 1abd
000000c0: 50d3 f4bc e708 083d bf97 d0bc 0ff3 06bd
000000d0: 9e42 363c c97c e1bc d4cf 05bd bc69 a23c
000000e0: 65d5 0dbd 7679 ee3c 8af0 eebc 8c3d acbc
000000f0: 07a4 1c3d d4cb e3bc e00e 583d 8f8c debc
-0.031495675 -0.033229988 0.0314765 -0.029663002 -0.028863244 0.03050825 0.028599069 0.015326103
0.03357473 -0.02713991 0.028785812 -0.028680282 0.030049486 0.03090755 -0.035717573 -0.039186742
0.033836246 0.02836539 -0.032317884 -0.02261399 0.028665276 0.031340808 0.036109306 -0.028956406
0.034584988 -0.03013919 -0.032386627 0.029539384 0.028391697 -0.034539606 -0.033720326 -0.025694268
-0.02488714 0.022531431 -0.045750666 0.03252118 0.024615474 -0.026814587 0.026705453 -0.01772208
0.030502547 0.031004347 -0.031419158 -0.035325672 -0.031379156 0.029469918 -0.03670282 -0.03782857
-0.029885918 0.033211615 -0.025462983 -0.032946642 0.011124281 -0.027525323 -0.032668903 0.019825809
-0.034627337 0.029110651 -0.029167432 -0.021025442 0.038242366 -0.027807154 0.05274856 -0.027166633

model.conv_layers.1.running_mean f4 [64]
00000000: a359 363e 2976 463e 9875 9abd 3dc6 a8bd
00000010: b584 553d 23cb ed3d dae2 a53c 0a9c 89bc
00000020: abd4 363e 6acb 4bbc 12c0 ddbb 8b89 c4bc
00000030: 71dd 1abe 588c f3bd 6dea 833d e319 913d
00000040: f909 f5bc 738e 1abe 5508 a6bd bb65 0fbe
00000050: ef8a 1dbe f020 d93d 09c3 173e 4d09 543d
00000060: 6b8b a33d e1d1 0f3e 35e0 ae3e 3f2d 23bd
00000070: dfb3 743c 0a0f b1bc 33d2 1bbe e605 42bd
00000080: 7447 9f3c a82f 673e 7d22 99bd fe5f 22be
00000090: 1dfa 9dbd 137d 633e d084 2bbd c3f8 01bd
000000a0: 64b1 f03d 30e1 973d 270a 35bd d7fb b6bd
000000b0: 53fb d73d 86fc 503e 19d3 ebbd 513e 9d3c
000000c0: 65a9 e3bd 4d3e 913d 0245 053d 0a4d 173e
000000d0: 20d9 c3bd 0252 fc3d f668 273e e9a8 a5bc
000000e0: 1167 ddbd bdb6 2a3e a04d 353e f880 0abe
000000f0: cbaa 493d a3e8 01be 0561 ca3d 63d7 d13d
0.17807631 0.19381012 -0.075419605 -0.08240936 0.052128512 0.11611011 0.020249773 -0.016798038
0.17854564 -0.012438634 -0.0067672813 -0.023991367 -0.15123536 -0.11892003 0.064411975 0.070850156
-0.029911982 -0.15093403 -0.08107058 -0.14003651 -0.1538503 0.106019855 0.14820494 0.051766682
0.07985576 0.14044906 0.3415543 -0.039838072 0.014935463 -0.021613616 -0.15216903 -0.047368906
0.019443251 0.22576773 -0.07477281 -0.1585693 -0.07713721 0.22215681 -0.041874707 -0.03173138
0.117525846 0.07415998 -0.044199135 -0.089347534 0.10545983 0.2040883 -0.11514873 0.019194754
-0.11116294 0.07091961 0.032536514 0.14775482 -0.09562898 0.12320329 0.16348633 -0.020222144
-0.10810674 0.16671272 0.17705393 -0.1352576 0.049235146 -0.126864 0.09881786 0.1024616

model.conv_layers.1.running_var f4 [64]
00000000: 722f 6640 8e2f fd41 2715 9b41 d9c0 0542
00000010: b5bc 0a41 503e 1542 d6c6 ef41 d660 1d3e
00000020: 19ed f641 a481 8b40 9809 773f e951 4a3f
00000030: 117a ad41 d83c 4640 e1f7 fc41 0e67 e441
00000040: d2bd 0642 2a75 9e40 17e0 f941 6f61 2240
00000050: 18b1 7f41 b2ca 8440 e840 0742 920f 1c42
00000060: 688d 6541 89ab c941 9c74 db40 a4a1 6140
00000070: ca78 e53f 102c 1a41 6938 9b41 3b8c 903e
00000080: 421d d441 b2e9 2141 b0df ed41 d2ef b13e
00000090: 3580 1840 33af 9041 da15 1a41 4454 a141
000000a0: a4de e341 993b 0a40 1a26 d941 1040 f140
000000b0: b50c ce41 eb70 f941 9593 5340 83bf 0742
000000c0: 626d 5e40 b7b5 ce41 65e8 1742 20c5 9e41
000000d0: d293 f541 552d cd41 62a4 4641 458c 1a40
000000e0: 9be3 fa41 392b 523f 2143 d541 3017 1940
000000f0: d14f 8440 c57e 1b42 a896 cc41 c0fe 3a3f
3.5966458 31.64822 19.385328 33.438328 8.671071 37.310852 29.972088 0.15368971
30.86577 4.3595753 0.96499014 0.79031235 21.684603 3.0974636 31.621035 28.55032
33.68537 4.9518023 31.234419 2.5371969 15.980736 4.149743 33.813385 39.015205
14.347023 25.208757 6.8579845 3.5254908 1.7927487 9.635757 19.402544 0.28231987
26.514286 10.1195545 29.734222 0.3475328 2.3828251 18.085546 9.630335 20.166145
28.483711 2.1598876 27.143604 7.53907 25.756205 31.180136 3.3058827 33.937023
3.4754262 25.838728 37.976948 19.846252 30.697178 25.647135 12.4151325 2.4148114
31.361135 0.820972 26.657778 2.3920403 4.134743 38.8738 25.573563 0.7304497

model.conv_layers.4.weight f4 [64, 64, 3, 3]
00000000: ef4d 00bd 2abe 5abc 43d3 48bd e435 a53b
00000010: b8af 94bd 46be fcbc 5afa 8fbd c1e3 76bc
00000020: afde 2bbd e7ad d6bc a6a0 66bb e3c9 3cbd
00000030: 2b73 d3ba 5663 dbbb 9b9a 60bd 8085 2dbd
00000040: 7bdc b7b9 7c1e 8dbd 6970 94bc 8e9d 80bd
00000050: 5195 efbc e137 ce3b ba42 0dbd 1170 60bd
00000060: e20f 88bd 8031 15bd 56cb f4bc 2f06 a1bc
00000070: e5d2 babc a5d2 3d3c 8964 cbbc 4ab5 ecbc
00000080: 8001 c93b fe81 993c 33b6 37bb b3b6 393b
00000090: 1ea3 49bd 4740 61bd 1c23 90bb 0e5a 6cbb
000000a0: e5fc 1d3c 62be 8cbd 9a16 1a3c bff6 febc
000000b0: 330a 73bd 0104 38bd fe5a 9abc a5d1 ecba
000000c0: eb0f fb3a aa16 e8bc c114 6cbd 4a12 4ebd
000000d0: 30c5 3bbd 5e2c 8bbc b0a8 40bd 7b92 923d
000000e0: 8a8e 0c3d 6a63 1dbd fcc4 8abd 3c67 d3bb
000000f0: 9bf6 44bc 64d9 1cbd 1927 25bd a48f 3b3d
00000100: ddeb a83c b0fa 2b3d 2c40 e6bc 2aaf 6d3d
00000110: bbd3 3b3c 68a9 783c 23f8 3d3d a292 f43b
00000120: 937d c1ba 42f6 773d a784 283d 17f9 97bc
00000130: 6c7f 3ebd aa7c 31bd 7580 0dbc 7a82 52bd
00000140: fe8d b7bc 0ba0 92bd ddff d438 7f50 1cbc
00000150: 6f92 8fbd e0e1 45bd 18e6 853b df74 73bd
00000160: b593 0bbd 11dc 123c 5bbf 1b3c b7da 41bd
00000170: 3e15 2fbd b9ef 98bc 4cb1 8cbd 15d4 c5bb
00000180: de9b 52ba 2201 7a3b 00d7 14bd 1309 afbc
00000190: 04e8 633d 9500 543d fe2e 28bc 4187 99bc
000001a0: 3788 53bc 6ced 4ebd 724f 263c fb59 09bd
000001b0: efdc dcbc 9629 1abd 79f0 21bc e0e1 5cbd
000001c0: 2678 09bb fdde 40bd 60b5 ebbb 89ce 16bd
000001d0: 746d 70bb 2b99 e43b 568b 89bd 47dd 353c
000001e0: a129 86bd 0d95 883a b2c2 19bd 031c 77bd
000001f0: a282 80bd 22f8 3fbc 8ca3 a1bc b9df fdbb
00000200: 18b9 84bd 6a40 763c c495 823d d549 453d
00000210: f073 203d de28 94bd 2916 8bbc 3287 c5bc
00000220: 1889 453d 3984 623c 7f58 8abc 6700 bfbc
00000230: ca09 9bbb 0041 133b f990 803d ae44 7f3a
00000240: 5d78 6fbd 93bb 43bd eb27 0ebd 2abd 4bbc
00000250: 8c65 093c f09b 92bd 1f29 b0bc adaa 8abd
00000260: 8e40 ccbc 8458 4a3c c796 39bc 32b8 48bd
00000270: 28b0 503c 3041 fcbb 5acd 37bc e049 d239
00000280: ca9a 813d 0c17 a13c 7183 07bd 6ef9 1bbc
00000290: 2749 bb3b 4e3d 81bd 0096 80bd b59c 5fbb
000002a0: 7d60 00bd 9fa3 c7bb 6329 c53c e892 1c3d
000002b0: 0583 083b b1aa 333b f881 523d 2f69 e0bc
000002c0: ab5d 2bbc a5a3 edbc c4f9 7dbd b63e 93bc
000002d0: ee59 aebc 6c1a 5ebc 9920 053d 26aa dd3a
000002e0: 6068 89bd 53b5 4dbd beed c03c 3f32 8ebd
000002f0: 871e 07bd 5204 17bc 31d7 9b39 3231 38bc
00000300: 52c7 bebc 727c 36bd 3537 37bc 80ae e8bc
00000310: ad02 8fbd d5db 11bd badd b03b a07b 0fbc
00000320: 40c4 9cbc 846b 2cbd 2ec1 67bb 0c84 0b3c
00000330: 1d24 96bc 3a45 9b3b 2189 d5bc df70 e3bb
00000340: 7dcc bb3c 6896 6c3c 4948 433d be38 5a3d
00000350: ff93 90bb 4911 a73c 93d4 95bc da34 003d
00000360: 2143 333c eb81 e2bc 7196 79bd 2c63 a53a
00000370: 6314 323c 7708 0ebd c50e c2bc 7c9e 2b3c
00000380: bf53 03bd e9b9 13bd dc41 b53b d6a4 7e3b
00000390: 8d1c e7bc f067 69bd b5e4 82bd fe18 50bd
000003a0: 73d3 88bd 499d 88bd ea4e 07bd 4baf fdbc
000003b0: c96a 29bc 7925 52ba 0483 11bd 3693 453a
000003c0: fb13 07bd db1f 0cbd 6a5b a2bc 1afd 4c3b
000003d0: 0bde 88bd 64f6 b53b 44e5 ab3a 0c68 edba
000003e0: b0c8 78bc 141a 37bd 2fa4 8ebd 96fb 1fbd
000003f0: 4e6c e23b a6d1 64bd 6acd 71bc fe74 35bd
-0.031324323 -0.013351003 -0.0490296 0.0050418247 -0.07260078 -0.030852448 -0.07030173 -0.015068949
-0.041960414 -0.02620597 -0.0035190969 -0.04609097 -0.0016132345 -0.0066951914 -0.054834943 -0.042363644
-0.0003506875 -0.0689058 -0.018120008 -0.06280051 -0.029246004 0.0062932824 -0.034487464 -0.054794375
-0.066436544 -0.03642416 -0.029882114 -0.019656269 -0.02280564 0.011585866 -0.024828212 -0.02889504
0.006134212 0.018738743 -0.0028032183 0.0028337657 -0.049227826 -0.05499294 -0.0043987166 -0.003606442
0.009642814 -0.0687225 0.009404803 -0.031123517 -0.0593359 -0.044925693 -0.018842217 -0.001806785
0.0019154524 -0.02833112 -0.05763698 -0.05031041 -0.04584235 -0.01698893 -0.047035873 0.07156845
0.034315623 -0.038424887 -0.06775853 -0.0064515155 -0.012021686 -0.038293257 -0.04032049 0.045791283
0.02062028 0.04198712 -0.028106771 0.058028378 0.011464055 0.015177108 0.04637922 0.007463769
-0.0014762155 0.060537584 0.041142132 -0.018551392 -0.046508238 -0.04333178 -0.008636584 -0.051393963
-0.022406574 -0.07159432 0.00010156606 -0.009540676 -0.07010352 -0.048311114 0.004086267 -0.05943763
-0.03407641 0.008963601 0.009506072 -0.047327723 -0.042744868 -0.018668996 -0.06869754 -0.006037245
-0.000803409 0.0038147648 -0.036337852 -0.021366632 0.05564119 0.051758368 -0.01026511 -0.018741252
-0.012910894 -0.050519392 0.010150777 -0.033533078 -0.026960818 -0.037637316 -0.009883993 -0.05392635
-0.0020976155 -0.04708766 -0.0071932524 -0.03681806 -0.0036686333 0.006976267 -0.06716029 0.01110012
-0.06550909 0.0010420397 -0.03753919 -0.06032945 -0.06274916 -0.011716874 -0.019731306 -0.007747617
-0.06480616 0.015030006 0.06376222 0.048166115 0.039173067 -0.07234357 -0.01697834 -0.024112318
0.048226446 0.01382547 -0.016887901 -0.023315622 -0.0047313916 0.0022469163 0.06277651 0.0009737712
-0.058464397 -0.047786307 -0.034706037 -0.012435237 0.008386027 -0.07158649 -0.021503983 -0.06770835
-0.024933126 0.012350205 -0.011327452 -0.049003787 0.012737311 -0.0076982006 -0.011218393 0.00040109362
0.06328352 0.01966431 -0.033084337 -0.009519918 0.0057155075 -0.06310521 -0.0627861 -0.0034120504
-0.03134202 -0.006092503 0.024067586 0.03822604 0.0020830047 0.0027414972 0.05139348 -0.027393905
-0.010459344 -0.029008696 -0.062005773 -0.017974239 -0.021283116 -0.013556104 0.03250179 0.001691167
-0.06709361 -0.050221752 0.023550864 -0.069431774 -0.032988098 -0.009217339 0.00029724234 -0.011242198
-0.023288403 -0.044552274 -0.011182596 -0.02840352 -0.06982932 -0.03561004 0.0053975256 -0.008757502
-0.019136548 -0.042094722 -0.0035362947 0.008515369 -0.018327767 0.004738477 -0.026066365 -0.0069409455
0.022924656 0.0144401565 0.04767636 0.05327677 -0.0044121738 0.020393984 -0.01828984 0.031300403
0.010941298 -0.02764984 -0.060934488 0.0012618056 0.010869118 -0.03467604 -0.023688683 0.010474797
-0.03206229 -0.03606597 0.0055315327 0.0038855574 -0.028211856 -0.05698389 -0.06391279 -0.050805084
-0.06680956 -0.06670625 -0.033034243 -0.030967375 -0.010340401 -0.0008016448 -0.035525337 0.000753689
-0.03297804 -0.034210067 -0.01981898 0.003127879 -0.06682976 0.0055530537 0.0013114591 -0.0018112673
-0.015184566 -0.044702604 -0.06964909 -0.03905829 0.0069098836 -0.055864 -0.014758447 -0.044301026

model.conv_layers.5.weight f4 [64]
00000000: b253 bc3e 8ac7 393f ddbb 323f 8bb5 073f
00000010: 1ef5 483f 9f8f ae3e 2721 743f 4d1d c9bc
00000020: 0a29 393f 3822 833e 3df5 6e3f 0008 ce3e
00000030: 7e00 213f dc0c c0bc c687 453f 9d5f df3e
00000040: 0ec1 cd3e 6b60 a23e 7995 f73e e847 d93e
00000050: 4113 493f 1109 073f 52b8 813f 65a4 f23e
00000060: f1db bc3e 17d0 5d3f 0bef a93e c4d5 eb3e
00000070: 96f8 203e 16e1 3a3e a85e f73d fd40 833d
00000080: a3f7 443f 6fc1 d53e 593d a63e a401 203c
00000090: de41 dcbb 8cd2 e73e 0641 643f 7c7e 153f
000000a0: e82f 763f eaf9 293f 74d2 3c3e 970f 033f
000000b0: 36fe d23e 7389 693e 66b8 ccbb 4da7 b93e
000000c0: 92df 453f 4907 5c3f d6ac 233f 41e4 613f
000000d0: 614a 293f 90fb f63e 8198 2b3f 96a1 443f
000000e0: e1ec 5c3f 9052 1f3f 00ae eb3e d7a3 6e3f
000000f0: e9f0 3a3f 743e 653f af8a 1d3f 7af7 243f
0.36782604 0.725701 0.69817907 0.5301139 0.7849902 0.3409395 0.95363086 -0.024550105
0.72328246 0.25612044 0.93342954 0.4024048 0.62891376 -0.023443632 0.771603 0.43627635
0.40186352 0.31714186 0.48356226 0.42437673 0.78545004 0.5274821 1.0134375 0.47391048
0.36886552 0.86645645 0.33190188 0.46061528 0.15719828 0.18249926 0.12078601 0.0640888
0.76940364 0.4174914 0.3246868 0.009766016 -0.006721719 0.45277822 0.8916172 0.58396125
0.9616685 0.66396964 0.18439656 0.51195663 0.41209573 0.22806339 -0.006247568 0.36260453
0.77294266 0.85948616 0.639356 0.8823891 0.6612912 0.48238802 0.6702958 0.7680906
0.8629895 0.62235355 0.4603119 0.9321875 0.7302385 0.8954842 0.6153974 0.6444012

model.conv_layers.5.bias f4 [64]
00000000: bf87 d9bc 3ff9 08bd fce1 90bc dd3a fdbc
00000010: ebcb e43c 5a00 01bd 4df6 883c 33c5 e13c
00000020: da6e d8bc dff8 943b 9582 0abd dbdc 283b
00000030: d834 d33c 98fc f7bc 5d85 f5bc a000 fabc
00000040: 36e5 fabc 53b3 083d 9767 043d 61a0 8a3c
00000050: c4d0 fabb 73fd c93c 0ea0 c23c 67d6 ac3c
00000060: 736c 0fbd 54dd e83c 6104 d73a 98dd 0c3d
00000070: 66d0 cfbc fc5a 12bd 80de 483d 03aa d83c
00000080: c618 27bd 38b6 f2bc c6f8 e4bc 609e 6c3c
00000090: 2252 d93c 3b8f dfbc ea20 c83c e6d0 28bd
000000a0: adcf 9d3c a337 33bd f56a babc a701 f6bc
000000b0: 39ae ea3c 87d0 e7bc 86ed ecbc 9886 16bd
000000c0: d0dc 24bd 504c 1abd 1ba0 043d 7ce5 eabc
000000d0: 449c ef3c 8be6 e53c 3333 093d 8e9f e1bc
000000e0: 07ff cb3c 2602 dabc 1356 3bbd 53b0 da3c
000000f0: 6ebf f4bc b480 d5bc fa2b 0dbd 2ada f9bc
-0.026553987 -0.033440825 -0.017685883 -0.030911857 0.027929267 -0.031494476 0.016719008 0.027559852
-0.026420046 0.0045462693 -0.03381594 0.0025766406 0.025782034 -0.030271813 -0.02997082 -0.030517876
-0.030626874 0.033374142 0.032325353 0.016922178 -0.0076542813 0.024656987 0.02375796 0.021098329
-0.035015535 0.02842585 0.0016404503 0.034391016 -0.025367927 -0.0357313 0.049040318 0.026448255
-0.04079511 -0.029627904 -0.027950656 0.014442056 0.026528422 -0.027289977 0.024429757 -0.041214846
0.019264067 -0.04375423 -0.02275608 -0.030030085 0.028647529 -0.028297676 -0.028921854 -0.036749452
-0.040249646 -0.037670434 0.03237925 -0.02867388 0.029249318 0.028064033 0.033496093 -0.027541902
0.02490188 -0.026612353 -0.045736384 0.026695406 -0.029876437 -0.026062347 -0.034465767 -0.030499537

model.conv_layers.5.running_mean f4 [64]
00000000: 0191 51c0 a07c 323f b746 19bf 5931 61be
00000010: e0be f7bf dedc b83e 0777 bc3e 8e42 f1be
00000020: e182 3e3f ea61 57bf f6a1 633f a2eb 1bbf
00000030: d7b7 c0be 1c7b 1cbf bc8d f3bf dc1d 1abf
00000040: fcca 12bf 7bd2 b63f 9bd0 3c3f 11e7 6abe
00000050: a14b 933f 73e4 873f 1c8a ce3f cb28 f4be
00000060: 2456 113d 7cfd 333f 7647 7bbf e462 9fbe
00000070: 7fed 853f 3c43 153f 3972 21c0 0e5a 643e
00000080: c26b f73e 5088 9dbe 073a cd3e aab7 50bf
00000090: a081 1c3f 02dc 0cc0 87a9 0c3e 02b3 063f
000000a0: 62c9 7fbf 5766 60bf b03b 28c0 671a bcbd
000000b0: 7766 083f 5088 173f d433 9fbf 1d52 56bf
000000c0: 0993 ee3f dd12 bdbf 7efd 643f 73cb 5e3e
000000d0: 6f80 ec3f 566b a93f 4185 99be 72db 74bf
000000e0: fbf9 d63f e907 8abf 6491 2abf 909a 0440
000000f0: 0d0d dcbf 1e9a 45bf 9c5b 5f40 ff59 56bf
-3.2744753 0.6972141 -0.5987353 -0.21991481 -1.9355125 0.36106008 0.3680956 -0.4712109
0.74418455 -0.8413378 0.8891901 -0.6090642 -0.3764026 -0.6112535 -1.9027629 -0.6020181
-0.5734098 1.4282984 0.73755807 -0.22939707 1.1507455 1.0616592 1.6135898 -0.47687373
0.03548254 0.7030866 -0.98155916 -0.31130135 1.0463103 0.58305717 -2.5225966 0.22299978
0.483244 -0.3076806 0.40083334 -0.8153025 0.6113529 -2.2009282 0.13736545 0.52616894
-0.9991666 -0.8765616 -2.628643 -0.09184723 0.5328135 0.5919237 -1.2437692 -0.83719045
1.8638622 -1.4771382 0.894493 0.21757297 1.8476695 1.3235881 -0.29984477 -0.95647347
1.6795038 -1.0783664 -0.666281 2.0719337 -1.7191483 -0.7718829 3.4899664 -0.83731073

model.conv_layers.5.running_var f4 [64]
00000000: 1688 fa3f 7245 7d3e df96 853e 2c99 943e
00000010: 2f2d 463f 96ef 123e aa3f 933e 5147 4d40
00000020: 5bc7 a43e 93ca 7d3e cdf2 d83e bfdd a93e
00000030: e52e 913e d2bc 723e 6af3 883f 3144 8f3e
00000040: d9ea 743e 8d50 283f ba36 9a3e bf3f f13e
00000050: cac8 213f 6388 be3f 411c a33f 2270 703e
00000060: 5365 113e 8946 673f c2fa 9b3e 0a76 823e
00000070: d773 873f 097b 343f 1b11 ba3f 00cf 563e
00000080: c68d 203e b895 3b3f 32ce 963e d8f8 8c3e
00000090: 85d6 993e d2e1 9e3f 105d 123f 3ed0 1b3f
000000a0: d982 b23e 5543 773e 9d70 d03f f3a6 813e
000000b0: 9cce 673e 9a69 823f f91f ef3e 8b75 063f
000000c0: 68f5 eb3f 084c ae3f a568 903e 1d04 693e
000000d0: 1b60 893f d2a5 d63e ab88 b23e 032d 983e
000000e0: 1c25 c23f 1359 0b3f cf07 923e f8c7 813f
000000f0: fe83 353f f18e a53e 18e7 0c40 f70b 8a3e
1.957278 0.24733523 0.26091668 0.2902311 0.77412695 0.14349207 0.2875951 3.2074778
0.32183346 0.24784307 0.42372742 0.3317699 0.2835609 0.23704842 1.0699284 0.27981713
0.23917712 0.6574791 0.30119878 0.47118947 0.63197005 1.4885372 1.2742997 0.23480275
0.14198808 0.90342003 0.3046475 0.25480682 1.0582227 0.70500237 1.453647 0.20977402
0.15679082 0.7327533 0.2945419 0.27533603 0.30046478 1.2412665 0.5717325 0.6086463
0.34865454 0.24146779 1.6284367 0.25322685 0.22637409 1.0188477 0.4670408 0.52523106
1.8434267 1.3616953 0.28204837 0.22755475 1.0732454 0.41923386 0.34869894 0.2972184
1.5167575 0.5443279 0.28521582 1.0139151 0.7090453 0.32335618 2.2016048 0.26962253

model.conv_layers.8.weight f4 [64, 64, 3, 3]
00000000: 0c42 4b3c e498 d83c 3281 623d 0e89 983d
00000010: 3f0a b93b 7712 1a3d 94dc 0d3d e12b b83c
00000020: 0831 99bb 0257 cc3c 5eaa d43c dcf0 0abc
00000030: 485a 273d 768b 4d3b a8fe fc3c 328f 013d
00000040: f3ac 4b3d 1e17 20bc 0ece febc 7f3b 85bc
00000050: 32a7 75bc 84ee a6bc a1f8 8c3b 54cf 01bd
00000060: ba0e c93c 6841 5f3d b20a 893c 8e63 883c
00000070: 6620 7d3d 1a55 653d 2d6e d83c 9a5c 773c
00000080: ca66 5c3d 70af 063d 74db 1bbb 0f97 a93b
00000090: 0ec8 a53c a758 48bc c8af ae3c 9112 853c
000000a0: 99ee 703d 9cf2 193d 7982 633d 78ad c93c
000000b0: 11c6 713d bc5e 4f3c d685 8dbc f03c 923a
000000c0: 27e2 383b 00ac 163d c865 883d 699b 7d3c
000000d0: c035 393c 0265 323d 7ab5 723d 0746 623d
000000e0: 4bd6 8d3c 2a9f 783d 1095 903d 7073 973d
000000f0: b041 8aba 1340 6b3d f5e1 c3bb 34e0 823d
00000100: ef2f d23c db8a 013d 1b30 ce3c fc45 6d3d
00000110: fcf9 283d e7c0 abbb bdd0 933d 3ca4 fb3c
00000120: 6ef9 3c3d 6dd4 6e3d 6121 9a3d 5ed4 06bc
00000130: 5d24 893d 0d72 be3c 0f9b bf3c d850 5c3d
00000140: 4f9c b03c e500 df3b c73b 933c 6d59 9b3c
00000150: 29ac b53b d431 c33c 1394 633d 148a 323d
00000160: aa3c c93c 67e2 de3a 20cd 18bc 7506 7a3d
00000170: 96a7 a83c 70fc f73b 349f 38bb e804 243c
00000180: f3cf 923a e076 8f3a 56b4 5e3d 89a3 2b3c
00000190: fde6 cfbc 5cbd e7b9 d487 4e3d 169d 38bd
000001a0: 99ac f3bb 5cab 0ebb ec73 6a3d 19fc 013d
000001b0: 6cc1 883d ccda a538 d79d 1bbc 0c74 3a3c
000001c0: cf16 6b3c 26c2 a83c e0c7 3d3d 348a 893c
000001d0: 2df3 8c3d 5a97 0a3b 30d1 973c 6d16 833c
000001e0: 009b a93b e372 423c 73b6 2d3d ac16 e73b
000001f0: 0ed3 28bb c452 7eba f6a3 843d 45ca ddbc
00000200: 8ef8 2c3c 6f21 6bbd 8c52 a13d 0521 673d
00000210: 08fb 083d ccc3 283d 0958 f93c 1887 bd3c
00000220: 9044 6c3d 0b01 783d ae70 2cbd aa08 923c
00000230: a341 7c3d 02ad 203c 7de3 ff3b e2a1 3f3d
00000240: 3ee5 44bc 0950 debb e8db 53bc 2a7b 4f3d
00000250: f901 393b f643 863d 6cbf bc3c 50a8 4d3d
00000260: fc01 863d f378 123d 1451 48bc 34fe 5fbd
00000270: 4197 a6bd 49fc 53bd 6284 12bc 0b89 3bbd
00000280: eae9 a8bd 9bcc 0f3c a4fe 403d 1339 52bd
00000290: 6207 e0bb 8921 0f3d 98ca 683d cd0b ed3b
000002a0: 40f2 c03c 08ef 133d 1426 213c b07c 0fbb
000002b0: c2d7 2abd 9852 173d 2c67 0d3d abc1 7abc
000002c0: a88d 4a3d 9ff1 693c c651 8f3d 86bc 5d3d
000002d0: d3a8 833d 8d59 20bc 23dc 7a3d 553f 94bd
000002e0: df4a 6e3d 6a2d 8b3d b7b1 d13a 6f4a 243c
000002f0: dba5 353d 7b67 83bd 6a7d 79bd 5d09 17bd
00000300: 9ec7 92bd 8aac f0ba f55d c53c 5e06 ca3c
00000310: 2b49 363d b6cb fc3c e750 ee3c e4b8 98bd
00000320: ea01 4d3a 54ff 2dbd e3a9 673b b511 8c3c
00000330: 7bf9 133b fb4b 823d 07c6 2c3d d34d b7bb
00000340: 62e7 91bc 5ffd 663d 5266 473d be1a 99bb
00000350: 96cb a13c b09c 47bc 8d6d 673d 0558 273d
00000360: 8b7e 90bc f898 d1bc 245e 50bc 5c85 3b3d
00000370: cc73 193a 7936 80bc 029d 04bb 6ca2 bdbb
00000380: b1cd 16bc c89b d83a 67d0 fe3b 8c44 a0bb
00000390: 1e6b a43c 35ef 7d3d 7418 333d 1208 ca3c
000003a0: fa52 f83b 2da9 a03c c5f5 753d 3bf7 0d3c
000003b0: eaaf 533c 917d aabc 44d6 523c a1fa d3bc
000003c0: e6de 8cbc 5d55 b63b 1de6 863c 9bbd 5b3c
000003d0: 5e5d 2fbd d033 9bbc ebdb c6bc 9f68 763c
000003e0: b2a5 4c3c 5c24 7a3c ee0e ecbb 21b0 853d
000003f0: a3c3 823d 0334 c53c e2b3 3e3d e68d d03c
0.0124058835 0.026440091 0.05529899 0.07448016 0.0056469734 0.037615266 0.034634188 0.02248186
-0.0046750344 0.024943832 0.025960144 -0.008480277 0.040857583 0.0031363643 0.030883148 0.031630702
0.049725484 -0.009771137 -0.031104114 -0.016263722 -0.014993476 -0.020377405 0.0043021 -0.031691864
0.024543155 0.054505736 0.016728733 0.016649034 0.061798476 0.055989362 0.026419723 0.0150977615
0.053808965 0.032882154 -0.0023781927 0.0051754783 0.020236995 -0.012228168 0.021324053 0.016244205
0.058821294 0.037584886 0.05554435 0.02461885 0.05902678 0.012656864 -0.017275732 0.0011157077
0.002821097 0.036785126 0.06660038 0.015478947 0.011304319 0.04355336 0.0592551 0.055242565
0.017314097 0.060698666 0.070596814 0.07395065 -0.0010548141 0.057434153 -0.005977864 0.063904196
0.025657622 0.031626564 0.025169423 0.05792807 0.04125403 -0.0052415016 0.07217548 0.030717961
0.046136312 0.058308054 0.07525898 -0.008229343 0.06696389 0.023247743 0.023389367 0.053788036
0.021558909 0.0068055266 0.01797284 0.01896354 0.0055442047 0.02382747 0.055561136 0.043588713
0.02456506 0.0017004729 -0.009326249 0.061041314 0.020587724 0.0075679347 -0.0028171064 0.010010935
0.001120089 0.0010945462 0.0543712 0.010476002 -0.025378698 -0.00044200837 0.050422505 -0.045071684
-0.0074363467 -0.0021769619 0.057239458 0.03173456 0.06677517 7.908567e-05 -0.009498081 0.011380207
0.0143487 0.02060039 0.046333194 0.016789533 0.068823196 0.0021147341 0.018532366 0.016001904
0.005175948 0.011868211 0.042410325 0.0070522632 -0.0025760564 -0.0009701664 0.064765856 -0.027073989
0.010557307 -0.05740493 0.07877073 0.056427974 0.033442527 0.04120235 0.030437486 0.023135707
0.057682574 0.06054787 -0.042099647 0.017826397 0.061586034 0.009806873 0.007809101 0.046785243
-0.012017546 -0.0067844433 -0.012930848 0.050654568 0.0028229936 0.06555931 0.023040496 0.050209343
0.06543347 0.035759877 -0.012226362 -0.054685786 -0.08134318 -0.05175427 -0.008942695 -0.04578499
-0.082477406 0.008776809 0.047117844 -0.05132396 -0.0068368176 0.03494409 0.056833833 0.007234073
0.023553014 0.03611663 0.009835739 -0.0021894388 -0.04170967 0.036944002 0.03452222 -0.015304963
0.0494515 0.014278798 0.06998019 0.054134868 0.06428685 -0.009786976 0.061245095 -0.07238642
0.05817687 0.067957714 0.0015998398 0.010027512 0.044347625 -0.06416222 -0.06091062 -0.036874164
-0.0716698 -0.0018361968 0.024092654 0.02466124 0.044503372 0.030858856 0.029091312 -0.0745714
0.00078204146 -0.042479828 0.0035349063 0.017098287 0.0022579122 0.063621484 0.04218104 -0.005593994
-0.017810527 0.056393977 0.048681565 -0.0046723774 0.019750398 -0.012183353 0.05650096 0.040855426
-0.017638465 -0.025585636 -0.012717757 0.04578148 0.0005853742 -0.015650975 -0.0020235186 -0.0057871845
-0.009204314 0.0016525919 0.0077763083 -0.004890984 0.020070609 0.061995704 0.043724492 0.024662051
0.007578251 0.01961192 0.060048837 0.008664901 0.012920359 -0.020811828 0.012868468 -0.025876345
-0.01719613 0.0055643753 0.016467148 0.013411905 -0.04281365 -0.018945605 -0.024274787 0.015039592
0.012490677 0.015267458 -0.007203928 0.065277345 0.06384971 0.024072653 0.04655827 0.025458287

model.conv_layers.9.weight f4 [64]
00000000: 1a67 453f 911a e33d dcf5 1f3f bda6 f13e
00000010: 1495 853f 1141 3b3f 7132 373f 5c2c cc3e
00000020: 1f63 9a3d 8735 3c3e 3fda 053f d26d 693e
00000030: dfc3 1e3f 5b0f 5b3e b60f 9f3e d185 c33e
00000040: 8fa4 ba3e 53f6 b43e c541 3a3f 0ec3 863e
00000050: e3f3 573f 5b61 423f 2892 353e c0a4 9b3e
00000060: 9b97 013f ef8d 2e3f 95e8 6f3f de3c 763f
00000070: 2a78 253f 2ae9 713f e695 033f deec 203f
00000080: a640 e93d 964b 733f 8cda c03d 8f88 573f
00000090: fab7 7f3f cb05 593f 6bb3 713f a53e 8b3d
000000a0: 2305 143f b184 3f3f 213f 783f b31e 8f3e
000000b0: dbc0 7c3f 447b 203f 579e 333f 4ea4 713e
000000c0: 3bde 893d 3e05 643f 3d90 1c3f 1c74 033f
000000d0: decf 3f3f 13fb 023f 6812 303f 3e18 3f3f
000000e0: 84a7 953c b941 4c3f 9c4a 193f e807 003f
000000f0: 7e97 a03e 1b25 a43e e0e3 273f a570 5e3f
0.77110445 0.110890515 0.62484527 0.47197524 1.043612 0.7314616 0.7156134 0.39877594
0.07538437 0.18379794 0.5228614 0.227958 0.62017626 0.21392576 0.31066674 0.3818803
0.36453673 0.3534418 0.72756606 0.2632069 0.84356517 0.759298 0.17731535 0.30399132
0.50621957 0.68185323 0.93714267 0.96186626 0.6463648 0.94496405 0.514006 0.6286143
0.11389284 0.9503721 0.094166845 0.84192747 0.998901 0.84774464 0.94414395 0.06799058
0.5782034 0.74811846 0.9697133 0.2795311 0.98731774 0.6268809 0.7016348 0.23597834
0.0673184 0.890705 0.6115759 0.51349044 0.74926555 0.5116436 0.68778086 0.74646366
0.018268354 0.79787785 0.5987947 0.50012064 0.3136558 0.3205956 0.65582085 0.8689063

model.conv_layers.9.bias f4 [64]
00000000: 3b28 1f3d e599 4f3d dba5 163d 6c5b ab3b
00000010: c528 b33c f69b 6bbc 06ce 4e3d 0a75 303d
00000020: 0724 473d 3ed0 24bc 8a3a 7d3c a072 383d
00000030: 6e39 f13c d6af af3c 5380 1abc c0e5 cabc
00000040: ae0d 383d becc 323d e4b0 a7bc 38ac 343d
00000050: 8884 4a3d 899b 423c 2b5d 9cbc ad34 3ebc
00000060: e311 fc3c 4dd3 d93c a540 463d 35ee a4bc
00000070: 0160 2c3d 6e3c 0c3c 5b64 8a3c 0f77 2f3d
00000080: 48ca 8fbc 98b6 c0bb a8f5 183d 0466 4e3d
00000090: a51f 383d d750 243d 6445 cd3c 8487 8dbc
000000a0: f1d6 cebc c54d d7bc 2c47 a6bb 0204 313d
000000b0: 9a93 3d3d ca10 493d 2419 373d e257 e83c
000000c0: e963 2d3c 6d81 d8bc e12a dfbc b7fb b0bc
000000d0: b24b 1f3d 7151 c5bc 8e99 1a3d 6c6e 1a3d
000000e0: 0b11 b4bc b235 a13c 410b 203d 549f 3e3d
000000f0: a689 233d 09c5 8a3c 4287 1f3d 5b1f 4e3d
0.038856726 0.050683875 0.036779266 0.005229404 0.021870026 -0.014380446 0.050489448 0.043080367
0.048618343 -0.010059414 0.015455851 0.04503119 0.02944633 0.02144615 -0.009430009 -0.024767756
0.04493492 0.04365229 -0.02047009 0.044109553 0.049442798 0.011877903 -0.019087395 -0.011609239
0.030770248 0.026590014 0.048401494 -0.020133117 0.042083744 0.008559329 0.016893556 0.042838152
-0.01755251 -0.005881142 0.03734365 0.05039026 0.044952054 0.040116157 0.025057502 -0.017276533
-0.025248976 -0.0262822 -0.0050744023 0.043216713 0.046283342 0.049088277 0.04470171 0.028362218
0.0105829025 -0.026428903 -0.027242126 -0.021604402 0.038890548 -0.024086686 0.037744097 0.037702963
-0.021980783 0.019678924 0.039073233 0.046538666 0.039926194 0.016939657 0.03894735 0.05032287

model.conv_layers.9.running_mean f4 [64]
00000000: 5524 5340 30f5 89c0 c383 503f b060 f5be
00000010: a9be a33f d005 26c0 7b40 9a3f 394b c43e
00000020: 2851 e73f 395b 043f e4bc 543f ae29 0640
00000030: 0115 00c0 75c9 f73f 92c2 bc3f 5080 09bf
00000040: 4292 a6bd 084c cc3e 8af7 41c0 5097 2a40
00000050: 7fd8 dd3f a7af 3ec0 1372 37c0 f968 b83e
00000060: 56a1 fb3f a2ba 7bbf 6faf 4140 a423 33c0
00000070: bb09 823f d341 363f 3b1f 0040 3956 6040
00000080: 39fc e83f fe66 c23f f34a b03f 1ef4 6640
00000090: ce5b 1f40 3896 5340 042a 9b3f 4833 f83e
000000a0: 2811 4dc0 32d4 bebe 72a1 3340 79e4 1cbf
000000b0: b31e 80bf 9db3 d93e 04a2 cf3f 743c dfbf
000000c0: de25 243f 905e 5ac0 0eb1 8cc0 2086 423f
000000d0: 6b34 2340 4cff 60bf d4e5 823f 8d27 0340
000000e0: 4288 163f a378 3440 192d 1d40 d13d bfbf
000000f0: 6835 7c40 4e6c d23f 6929 6940 cf07 f23f
3.2990925 -4.31118 0.8145105 -0.4792533 1.279256 -2.5941048 1.2050928 0.3833864
1.8071642 0.51701695 0.83100724 2.096294 -2.001282 1.9358355 1.4746878 -0.53711414
-0.08133365 0.39901757 -3.0307336 2.6654854 1.7331694 -2.979471 -2.8663375 0.36017588
1.9658611 -0.98331654 3.0263326 -2.7990503 1.015922 0.7119419 2.0019062 3.5052626
1.8201972 1.5187681 1.3772873 3.6086497 2.4899783 3.3060436 1.2122197 0.48476624
-3.2041721 -0.37271267 2.8067288 -0.6128612 -1.0009369 0.42519847 1.6221318 -1.7440324
0.6412028 -3.4120216 -4.396613 0.7598591 2.5500743 -0.8788955 1.0226388 2.049289
0.5880166 2.819863 2.4558775 -1.494074 3.9407597 1.6439302 3.6431525 1.8908633

model.conv_layers.9.running_var f4 [64]
00000000: c715 0740 dad6 5740 cca9 1a3f 66e6 943e
00000010: 3740 413f 2467 a33f f62b 253f c28d 9c3e
00000020: 4d32 3e3f 62f9 633f 56f4 473f 2a05 8a3f
00000030: 96e3 5c3f 9327 1b3f 2710 993f c89f fd3e
00000040: 163e 933f b6db 393f 0f89 ef3f 9af1 7c3f
00000050: a242 1b3f d752 2a40 4a94 fb3f d19c 173f
00000060: 4da4 983f 2dd2 833f 4ca6 e73f d69a af3f
00000070: e18a 5c3f 8e1b 293f 0f40 333f d32e f73f
00000080: 2a20 5e3f 0451 033f 4ef5 0a3f 906e 0040
00000090: e710 c33f cb25 0140 e421 463f 3b6c e03e
000000a0: 2af1 0440 c500 843f df58 fe3f fdd7 ad3e
000000b0: b9a8 a53e 77bc bb3e e871 563f 4df4 5d3f
000000c0: 20ce f13e f281 1540 b0e1 4240 e805 ab3e
000000d0: 3c2b e63f 33ca 7b3e 345a ac3e 481b 8e3f
000000e0: c64c 7a3f 1c36 963f 9783 4d3f c749 173f
000000f0: e2d6 2840 286d 5b3f 6c90 1240 d78d 5d3f
2.1107042 3.3724885 0.6041534 0.2908203 0.7548861 1.2765851 0.64520204 0.30576903
0.742955 0.890524 0.781072 1.0782826 0.8628477 0.6060726 1.1958054 0.49535966
1.1503322 0.7260088 1.8713702 0.98806155 0.6064855 2.6613061 1.9654629 0.5922366
1.1925141 1.0298516 1.8097625 1.3719127 0.8614941 0.6605767 0.7001962 1.9311165
0.8676783 0.51295495 0.54280555 2.0067482 1.5239533 2.0179317 0.77395463 0.43832573
2.0772195 1.0312735 1.9870871 0.33953848 0.32355288 0.36667225 0.8376756 0.867009
0.47227573 2.3360562 3.0450249 0.33402944 1.7981944 0.24588852 0.3366257 1.1102076
0.97773397 1.1735263 0.80278915 0.5909695 2.6381154 0.85713434 2.2900648 0.86544555
