robotics-rl-srl-backup/logs/baxter_real/19-01-31_01h52_23_custom_cnn_ST_DIM2_forward/srl_model.pth (torch_old, 360553 bytes, 27 tensors)

forward_net.weight f4 [2, 7]
0.14219303 -0.08945118 -0.011700627 -0.010175108 -0.011378463 -0.010727826 -0.011139838 0.15707324
0.058165904 0.0185491 0.018315453 0.01788323 0.01825483 0.017102577
00000000: 0d9b 113e 2e32 b7bd fdb3 3fbc 7fb5 26bc
00000010: bc6c 3abc c3c3 2fbc de83 36bc cfd7 203e
00000020: 5f3f 6e3d 48f4 973c 4a0a 963c da7f 923c
00000030: 278b 953c b41a 8c3c

forward_net.bias f4 [2]
-0.024076344 -0.039673984
00000000: c13b c5bc 3081 22bd

inverse_net.weight f4 [5, 4]
0.07247198 -0.0019974113 0.43708336 0.15559506 -0.18620312 -0.30198067 -0.083807826 -0.21567035
-0.16022426 0.023940802 0.29806387 0.27176833 -0.48877543 0.30996025 0.13968194 0.47427773
0.3300299 -0.45556885 -0.4754042 -0.24116606
00000000: 306c 943d 00e7 02bb 64c9 df3e 5054 1f3e
00000010: 08ac 3ebe 369d 9abe 70a3 abbd b0d8 5cbe
00000020: d411 24be 801f c43c d49b 983e 3825 8b3e
00000030: c640 fabe 1cb3 9e3e c808 0f3e 88d4 f23e
00000040: aef9 a83e 5240 e9be 2e68 f3be 3cf4 76be

inverse_net.bias f4 [5]
0.43905586 -0.0832845 0.21397972 -0.23235571 0.490609
00000000: eecb e03e 1091 aabd 801d 5b3e a8ee 6dbe
00000010: 1a31 fb3e

reward_net.0.weight f4 [16, 4]
-0.21154922 0.3749624 0.0059208274 -0.26340872 0.25700742 -0.26541007 0.14705235 -0.1443786
-0.0548172 -0.48069406 -0.23839086 0.271317 -0.12153864 0.49802476 0.4007942 -0.02341181
-0.33374155 0.3044811 0.15517855 -0.32320988 0.3247723 0.3035509 0.44344747 -0.28027982
-0.08230299 -0.009685934 0.07302874 -0.37945914 -0.3548112 0.27200228 -0.11724597 0.24423671
0.028504968 0.16417241 0.10994434 0.18179971 0.24785537 -0.46305603 0.25167572 -0.3515616
-0.3772545 0.03040719 -0.08520359 0.293662 -0.28956783 -0.44449097 0.3638844 -0.07414091
0.2812286 0.16074228 -0.37493765 0.100449145 0.12009829 -0.33477932 -0.23723614 0.17048782
0.08956128 -0.2126863 -0.15135795 0.45794135 -0.09251064 0.28189582 0.2165016 -0.32320356
00000000: 5ca0 58be 12fb bf3e 8003 c23b 82dd 86be
00000010: 7a96 833e d4e3 87be e494 163e fcd7 13be
00000020: 0088 60bd 881d f6be bc1c 74be 10ea 8a3e
00000030: 40e9 f8bd 1afd fe3e e634 cd3e 20ca bfbc
00000040: 2ce0 aabe f2e4 9b3e 20e7 1e3e c47b a5be
00000050: 8e48 a63e 066b 9b3e 8c0b e33e d680 8fbe
00000060: 788e a8bd c0b1 1ebc 1890 953d 7848 c2be
00000070: d0a9 b5be e243 8b3e a81e f0bd 3019 7a3e
00000080: 4083 e93c d01c 283e 802a e13d b429 3a3e
00000090: cccd 7d3e ae15 edbe a4db 803e e2ff b3be
000000a0: 8027 c1be 8018 f93c 387f aebd de5a 963e
000000b0: 3c42 94be 5294 e3be 0e4f ba3e 30d7 97bd
000000c0: 32fd 8f3e a099 243e d4f7 bfbe 48b8 cd3d
000000d0: 18f6 f53d 3268 abbe 08ee 72be 5c94 2e3e
000000e0: e86b b73d 70ca 59be 94fd 1abe 4a77 ea3e
000000f0: 3876 bdbd a654 903e 98b2 5d3e f07a a5be

reward_net.0.bias f4 [16]
-0.42521477 0.47994435 0.026108384 0.34272903 0.1036157 0.16081136 0.3734793 0.47410733
-0.3317905 0.062514484 0.37312865 0.36221755 0.31061924 -0.36185944 -0.3600521 -0.3023858
00000000: c0b5 d9be 44bb f53e 40e1 d53c 2e7a af3e
00000010: 7834 d43d bcab 243e ae38 bf3e 32be f23e
00000020: 72e0 a9be 9807 803d b80a bf3e 9474 b93e
00000030: 7c09 9f3e a445 b9be c058 b8be 50d2 9abe

reward_net.2.weight f4 [16, 16]
0.031407088 0.24916622 -0.1579189 0.13322023 -0.13837203 -0.23505393 -0.05313492 0.14404273
0.23209372 -0.1552597 0.054252803 0.21571505 0.16566339 0.15580577 0.17765814 0.1581291
0.06457409 -0.17095503 -0.20993963 -0.11455515 -0.029111475 -0.15323806 0.09146342 0.077371955
-0.056608826 0.09608519 0.08079618 0.15263474 0.16836092 -0.08466318 0.2442564 -0.028901935
-0.0085889995 -0.23597002 -0.16090405 -0.14605087 -0.10693073 0.17774239 -0.08169526 -0.1868203
0.09618747 0.08004239 0.16192266 -0.12936804 0.05420375 -0.09101266 -0.056168675 -0.1992296
-0.11394024 -0.07656443 0.10690883 0.045672357 0.061754107 0.24952629 0.24365687 0.17051178
0.007960886 -0.17294785 0.19537741 -0.062515855 -0.020211339 -0.21537474 -0.04938215 -0.16124696
0.2297265 -0.21613026 -0.19487068 -0.008489072 -0.13517886 0.08945292 -0.0962314 -0.117421895
0.014159411 0.18097448 -0.17585593 0.11740157 0.16061035 0.2445493 -0.17498273 0.06054747
-0.18485671 0.21343756 -0.09697658 0.15058818 0.007442862 -0.019470662 -0.007976949 0.04249862
0.11784902 0.04009497 0.076263726 -0.22488117 0.18213436 0.21796599 0.20665145 0.18480566
-0.18040785 -0.092675 0.22043133 -0.19041464 0.2268053 -0.19662401 -0.17610213 0.1222195
-0.17962226 -0.057275176 0.18187296 0.19802222 0.23643893 -0.050729364 -0.1943152 0.24615273
-0.05325654 -0.10285878 0.060943455 -0.17483112 0.16432005 0.15668318 -0.19837031 -0.2053431
-0.021899104 0.10500637 -0.007240534 -0.1267694 0.0057156086 -0.23498306 -0.17669025 -0.16642234
0.20588258 0.22037646 -0.08491668 0.011212587 0.11149448 0.029954344 -0.12518814 0.14418459
0.15368354 -0.014488876 -0.030775636 0.22718629 0.2185322 -0.14174455 0.2445969 0.06186813
-0.16606522 0.13685313 -0.18664363 0.23098215 -0.16071978 0.07070699 0.076125056 0.059464484
0.20735556 -0.10383737 -0.10554257 -0.21664286 -0.010259926 -0.11843014 0.010017306 -0.051249623
0.08294842 0.21626908 0.07376954 -0.080535054 -0.12267405 -0.21803826 0.21036172 -0.047360033
0.050463766 0.00924778 -0.15931678 0.14079535 0.14010468 0.012589991 -0.14207223 -0.10622665
0.0034427643 -0.1428343 -0.13948956 -0.037291765 -0.0719876 0.061370194 -0.06571138 -0.03314078
-0.09542039 -0.22846514 0.21803173 0.047695577 0.22355613 -0.040290266 -0.06282821 -0.23502654
-0.094902664 0.163943 -0.2448614 -0.087441355 0.15231481 0.14408633 0.09231132 -0.04948628
-0.018928915 -0.04747671 -0.092160106 0.104331136 -0.08515072 -0.14044514 0.0567151 -0.1807015
-0.053353697 0.1277534 0.09343237 0.21283454 -0.17051175 0.0021736324 -0.07382569 -0.13982919
-0.14063838 0.06298402 0.026156157 -0.12761211 -0.17621487 -0.20713204 0.24501616 -0.04261136
-0.057808816 -0.091929495 -0.12504146 -0.22862804 -0.14676476 0.15280712 0.054793954 -0.08818966
-0.0944781 0.15970346 0.18021116 0.24085858 0.0729264 0.120777786 -0.020087063 -0.1461589
-0.24492043 0.15227357 -0.03633672 0.10271147 0.0123054385 -0.23333025 -0.122648716 0.07033306
-0.05060011 -0.24141562 0.08766487 0.009587944 -0.080345154 0.10099286 0.052779883 -0.092200756
00000000: b8a4 003d 6e25 7f3e 7eb5 21be e26a 083e
00000010: 66b1 0dbe fab1 70be 00a4 59bd f07f 133e
00000020: faa9 6d3e 66fc 1ebe 3038 5e3d 68e4 5c3e
00000030: aaa3 293e 8c8b 1f3e 04ec 353e 98ec 213e
00000040: 6c3f 843d d60e 2fbe 6afa 56be e49b eabd
00000050: 307b eebc 70ea 1cbe 2c51 bb3d 3075 9e3d
00000060: a8de 67bd 50c8 c43d 7878 a53d 484c 1c3e
00000070: ce66 2c3e e463 adbd 5a1e 7a3e c0c3 ecbc
00000080: e0b8 0cbc 20a2 71be 08c4 24be 5c8e 15be
00000090: 80fe dabd 1a02 363e d84f a7bd d24d 3fbe
000000a0: f0fd c43d 44ed a33d 0ecf 253e 0e79 04be
000000b0: c004 5e3d d864 babd 2011 66bd d802 4cbe
000000c0: 8059 e9bd d0cd 9cbd 04f3 da3d f012 3b3d
000000d0: e0f1 7c3d d283 7f3e 3081 793e a49a 2e3e
000000e0: 606e 023c 3e19 31be 0411 483e 5008 80bd
000000f0: 4092 a5bc 328b 5cbe f044 4abd ec1d 25be
00000100: 6c3d 6b3e 4051 5dbe 2e8c 47be c015 0bbc
00000110: 546c 0abe 1833 b73d f814 c5bd e47a f0bd
00000120: e0fc 673c 6051 393e 9413 34be 3c70 f03d
00000130: 0a77 243e 226b 7a3e ac2e 33be a000 783d
00000140: 144b 3dbe 608f 5a3e a89b c6bd ca33 1a3e
00000150: 40e3 f33b f080 9fbc c0b1 02bc 0813 2e3d
00000160: d45a f13d a03a 243d 2830 9c3d 4047 66be
00000170: 6e81 3a3e 7a32 5f3e 709c 533e b23d 3d3e
00000180: d6bc 38be 64cc bdbd c0b8 613e 0efc 42be
00000190: a63f 683e ce57 49be 1e54 34be 384e fa3d
000001a0: e6ee 37be 6099 6abd e83c 3a3e 56c6 4a3e
000001b0: 0c1d 723e 98c9 4fbd 90fa 46be 760f 7c3e
000001c0: 8823 5abd a0a7 d2bd d89f 793d ee06 33be
000001d0: 8443 283e 8e71 203e 9621 4bbe 7645 52be
000001e0: c065 b3bc 940d d73d 0042 edbb d6cf 01be
000001f0: 004a bb3b 669f 70be 4aee 34be 9e6a 2abe
00000200: e2d2 523e 5eaa 613e cce8 adbd 00b5 373c
00000210: 3857 e43d d062 f53c 5231 00be 20a5 133e
00000220: 385f 1d3e c062 6dbc 301d fcbc 86a3 683e
00000230: e8c6 5f3e 7c25 11be 9c77 7a3e 7069 7d3d
00000240: 000d 2abe 3a23 0c3e 821f 3fbe 9686 6c3e
00000250: ba93 24be d4ce 903d 74e7 9b3d 0891 733d
00000260: 0455 543e b0a8 d4bd b426 d8bd a0d7 5dbe
00000270: 4019 28bc 808b f2bd a01f 243c 20eb 51bd
00000280: dce0 a93d a475 5d3e 7c14 973d 90ef a4bd
00000290: 883c fbbd 6c45 5fbe 1069 573e 98fc 41bd
000002a0: 18b3 4e3d 0084 173c f023 23be a82c 103e
000002b0: 9a77 0f3e 4046 4e3c 627b 11be 5c8d d9bd
000002c0: 00a0 613b 2843 12be 5ad6 0ebe 40bf 18bd
000002d0: 3c6e 93bd 505f 7b3d b093 86bd a0be 07bd
000002e0: c46b c3bd c4f2 69be b643 5f3e 705c 433d
000002f0: e6eb 643e 6807 25bd 14ac 80bd ccaa 70be
00000300: 545c c2bd ace0 273e f2bc 7abe 7414 b3bd
00000310: 6af8 1b3e 5e8b 133e b80d bd3d 20b2 4abd
00000320: d010 9bbc f076 42bd 70be bcbd 90ab d53d
00000330: 8063 aebd dad0 0fbe 184e 683d d009 39be
00000340: 6889 5abd cad1 023e 7859 bf3d 4cf1 593e
00000350: a29a 2ebe 8073 0e3b ec31 97bd 622f 0fbe
00000360: 8203 10be c4fd 803d 7045 d63c c0ac 02be
00000370: ac71 34be 6c1a 54be 84e5 7a3e 4089 2ebd
00000380: f0c8 6cbd 8845 bcbd de0a 00be 781d 6abe
00000390: 8049 16be 7879 1c3e a06f 603d c89c b4bd
000003a0: bc7d c1bd 4e89 233e 4689 383e a2a3 763e
000003b0: 705a 953d 585a f73d a08d a4bc aeaa 15be
000003c0: 6ccc 7abe 9aed 1b3e d0d5 14bd 645a d23d
000003d0: c09c 493c 20ee 6ebe 402f fbbd c80a 903d
000003e0: 1042 4fbd a835 77be a489 b33d c016 1d3c
000003f0: 008c a4bd 58d5 ce3d b82f 583d c0d3 bcbd

reward_net.2.bias f4 [16]
0.22458705 0.12541988 0.031390667 -0.048012853 -0.21175995 0.19301936 -0.06451005 -0.1615564
0.16028798 0.088787764 0.061867177 -0.049570113 -0.07801756 0.04242462 0.19346225 0.035801023
00000000: 26fa 653e 126e 003e 8093 003d 20a9 44bd
00000010: 9ad7 58be dea6 453e d81d 84bd 0a6f 25be
00000020: 8822 243e 5cd6 b53d 7068 7d3d 080a 4bbd
00000030: acc7 9fbd 70c5 2d3d f81a 463e 18a4 123d

reward_net.4.weight f4 [2, 16]
-0.118211985 0.24834704 0.005346775 0.19762939 0.060929954 0.22408912 0.14424345 -0.12745678
0.17561382 0.0016082823 -0.20067933 -0.052386492 -0.22565302 -0.12952554 -0.17710897 0.1709879
-0.052522033 -0.043194234 0.119803846 0.101742655 -0.16499197 0.09213367 0.10620564 -0.19877735
0.21735924 -0.15212023 -0.097762704 -0.20592141 0.2284945 0.047604382 0.2105087 0.016325206
00000000: 2019 f2bd b04e 7e3e 0034 af3b 5c5f 4a3e
00000010: b091 793d 9e77 653e 8eb4 133e 0884 02be
00000020: 1cd4 333e 00cd d23a e27e 4dbe 3893 56bd
00000030: 9611 67be 58a2 04be 0e5c 35be 7417 2f3e
00000040: 5821 57bd 70ec 30bd b85b f53d 745e d03d
00000050: a8f3 28be 94b0 bc3d 5882 d93d 4a8c 4bbe
00000060: 6c93 5e3e 68c5 1bbe d037 c8bd 10dd 52be
00000070: 76fa 693e d0fc 423d 988f 573e 70bc 853c

reward_net.4.bias f4 [2]
0.13588592 -0.07982138
00000000: ae25 0b3e 6479 a3bd

model.conv_layers.0.weight f4 [64, 3, 7, 7]
-0.06552705 0.016366828 -0.002904638 -0.001993849 -0.027356852 0.018548517 0.035888538 0.01791338
-0.06845226 0.050094847 0.01842598 0.068086416 0.06688154 -0.06942546 0.07998771 -0.07080676
0.056821827 0.013625145 0.051512063 -0.031648394 0.050164152 -0.05380064 -0.08018681 0.03683261
0.058584604 0.09904694 0.014121153 0.09720554 0.04788338 -0.043878797 -0.053529903 0.060829233
-0.030667024 0.05024788 -0.06092736 0.0635467 0.02938535 0.00067684095 0.047016207 -0.053969312
-0.017787486 -0.00210002 -0.048724655 -0.020458937 -0.026731873 0.08526021 0.074770086 0.07119948
0.062477652 -0.092992395 0.01665544 0.018287629 -0.061027225 0.04386484 -0.028396774 0.02644985
0.009938767 0.06518106 -0.047856167 -0.060672164 0.08335311 0.04109544 0.036302093 0.026842412
-0.021955835 0.056218352 -0.06860306 0.01733549 0.044812243 0.05376034 -0.059147675 -0.0681461
0.0264903 -0.055152085 -0.05519481 -0.055147395 -0.028056653 -0.025299203 -0.05788376 -0.032451943
-0.06285349 0.0625827 -0.009623188 -0.048121013 0.020571567 -0.06271184 0.060511395 0.049554195
-0.08179253 -0.06933447 -0.074517705 -0.05885645 -0.0020251684 -0.078280374 -0.06106471 0.035845246
-0.032968193 -0.042791475 -0.07442789 0.041680656 0.004272628 -0.021212546 -0.029900804 0.044769585
0.04727933 0.028909475 0.028174447 0.0028406882 -0.048154723 0.07202344 0.020667093 -0.045201994
0.07861661 0.064958036 -0.046297453 -0.024017597 -0.005355631 -0.022220707 0.053802233 -0.061172664
0.08095828 -0.024219489 0.07512521 0.034825724 -0.000103898645 0.085545205 -0.06122546 -0.040706612
0.026691813 0.0883722 -0.01123963 -0.02871142 -0.034805607 -0.026402617 -0.016929934 -0.0018490215
-0.030106824 0.038689673 0.009698673 -0.060370985 -0.052358836 0.014432934 0.014936192 0.07112088
-0.0006432398 -0.058772486 -0.059576802 -0.011893621 -0.0037116522 0.020911427 -0.009311347 0.03728453
-0.023086274 0.057194237 0.036555625 -0.009685796 0.084298074 0.029240046 -0.052762493 -0.049081825
0.044610627 0.055206303 0.081156954 0.0025616093 0.06160956 0.043012302 0.0226054 -0.022867087
0.09434997 0.036202703 -0.0068547367 0.006069048 0.084791064 0.05692415 -0.0029408915 0.086848386
0.050416674 -0.037682597 -0.07672447 0.050910614 0.082617335 -0.046987128 0.036800455 0.014184592
-0.014726057 -0.027126562 0.023692204 0.022961054 0.06440504 0.028695969 0.040733017 0.073016204
0.022854678 0.016053712 -0.026305368 0.061860006 0.025876489 0.068804346 0.0915806 -0.009576564
0.060626213 -0.017907962 0.06618797 0.082642816 -0.013929176 0.0113031715 -0.033836666 -0.04009707
-0.028839545 -0.015425662 -0.01511164 -0.065293856 -0.05325206 -0.022558805 -0.041939363 0.045427825
0.053849462 0.054468073 0.050572474 -0.062432855 0.054537646 -0.08840347 -0.039672878 -0.06524266
0.011194149 -0.06379874 -0.056554798 -0.085820705 -0.068826325 -0.044078838 0.07040926 -0.03445298
0.024326267 -0.10560141 0.034678638 -0.048036058 -0.08712811 0.054364234 -0.05065519 0.052195515
-0.09065429 -0.1128382 -0.092956394 0.002514805 -0.041645814 -0.059735615 0.03320529 0.009925165
0.042870246 -0.034627844 -0.054890156 0.053985815 -0.018246382 0.07680001 0.07999398 -0.049012024
00000000: 0c33 86bd ba13 863c bd5b 3ebb 3cab 02bb
00000010: 7a1b e0bc 0ff3 973c dcff 123d 15bf 923c
00000020: b330 8cbd 4130 4d3d 15f2 963c e470 8b3d
00000030: 30f9 883d f02e 8ebd 99d0 a33d 2203 91bd
00000040: 01be 683d 003c 5f3c 50fe 523d bfa1 01bd
00000050: ed78 4d3d 0f5e 5cbd fb38 a4bd cadd 163d
00000060: 69f6 6f3d 1fd9 ca3d 695c 673c b313 c73d
00000070: 5d21 443d 41ba 33bd 2c42 5bbd 1328 793d
00000080: 6939 fbbc b9d0 4d3d f88e 79bd c624 823d
00000090: 8cb9 f03c 076e 313a 1194 403d ed0e 5dbd
000000a0: 10b7 91bc 7da0 09bb 8193 47bd 8099 a7bc
000000b0: cdfc dabc e89c ae3d 0f21 993d 08d1 913d
000000c0: 91e8 7f3d cc72 bebd fd70 883c f0cf 953c
000000d0: aff7 79bd 9eab 333d 5aa0 e8bc 5bad d83c
000000e0: 36d6 223c a67d 853d d404 44bd 6083 78bd
000000f0: 09b5 aa3d b153 283d 81b1 143d 9ee4 db3c
00000100: b9dc b3bc 3745 663d c37f 8cbd 2803 8e3c
00000110: 0b8d 373d cd33 5c3d d544 72bd 2f90 8bbd
00000120: 3002 d93c 27e7 61bd f413 62bd 3ce2 61bd
00000130: 11d7 e5bc 4640 cfbc 8617 6dbd 54ec 04bd
00000140: 55b9 80bd 5c2b 803d 93aa 1dbc 8a1a 45bd
00000150: b485 a83c 116f 80bd ccda 773d 57f9 4a3d
00000160: d882 a7bd 3bff 8dbd bd9c 98bd 7613 71bd
00000170: b0b8 04bb 7651 a0bd fd1e 7abd 77d2 123d
00000180: a809 07bd 1d46 2fbd a66d 98bd 56b9 2a3d
00000190: 6701 8c3b efc5 adbc 88f2 f4bc 5060 373d
000001a0: f9a7 413d 90d3 ec3c 19ce e63c d72a 3a3b
000001b0: e33d 45bd 0681 933d 094e a93c ba25 39bd
000001c0: bf01 a13d b808 853d 66a2 3dbd 8dc0 c4bc
000001d0: 4a7e afbb 3308 b6bc bb5f 5c3d 3090 7abd
000001e0: 74cd a53d f367 c6bc 3fdb 993d 6ba5 0e3d
000001f0: 29e4 d9b8 5332 af3d 8cc7 7abd fabb 26bd
00000200: caa8 da3c 7cfc b43d 6d26 38bc 3634 ebbc
00000210: 5390 0ebd 4d4a d8bc a5b0 8abc de5a f2ba
00000220: 96a2 f6bc 1079 1e3d 2fe7 1e3c 9147 77bd
00000230: 3876 56bd 1d78 6c3c eeb6 743c d3a7 913d
00000240: 189f 28ba 6bbb 70bd ce06 74bd 76dd 42bc
00000250: 313f 73bb 714e ab3c 9f8e 18bc aab7 183d
00000260: 6d1f bdbc 8144 6a3d 5abb 153d 2cb1 1ebc
00000270: 78a4 ac3d d288 ef3c 7c1d 58bd 060a 49bd
00000280: a2b9 363d 0120 623d 9e35 a63d ace0 273b
00000290: 4e5a 7c3d ab2d 303d f62e b93c c253 bbbc
000002a0: 8f3a c13d 4949 143d b39d e0bb ddde c63b
000002b0: f0a6 ad3d 4c29 693d f9bb 40bb 91dd b13d
000002c0: b781 4e3d 1159 1abd b821 9dbd a687 503d
000002d0: 4733 a93d 9375 40bd 13bc 163d 7e66 683c
000002e0: 8f45 71bc 8638 debc 2716 c23c d218 bc3c
000002f0: cae6 833d cf13 eb3c aad7 263d 8589 953d
00000300: bc39 bb3c 1383 833c 5b7e d7bc eb60 7d3d
00000310: eefa d33c 4be9 8c3d 9c8e bb3d 05e7 1cbc
00000320: 3153 783d b8b3 92bc 8f8d 873d a340 a93d
00000330: 3337 64bc f030 393c 5198 0abd d33c 24bd
00000340: e940 ecbc eabb 7cbc d096 77bc c9b8 85bd
00000350: d51e 5abd 3ecd b8bc 9cc8 2bbd 8712 3a3d
00000360: 4191 5c3d ea19 5f3d 1525 4f3d 98b9 7fbd
00000370: de62 5f3d e10c b5bd 0780 22bd f29d 85bd
00000380: aa67 373c eaa8 82bd 01a6 67bd c4c2 afbd
00000390: d1f4 8cbd 038c 34bd bb32 903d 911e 0dbd
000003a0: e147 c73c 8d45 d8bd 300b 0e3d 75c1 44bd
000003b0: 3970 b2bd 08ad 5e3d d17b 4fbd f7ca 553d
000003c0: f5a8 b9bd b717 e7bd ec5f bebd 6dcf 243b
000003d0: cd94 2abd 55ad 74bd 4502 083d 299d 223c
000003e0: b698 2f3d edd5 0dbd 80d4 60bd 3b20 5d3d
000003f0: 7079 95bc 5349 9d3d e2d3 a33d d5c0 48bd

model.conv_layers.1.weight f4 [64]
0.99549204 0.8805732 0.6079246 0.4224893 0.6288542 0.1056546 0.4792464 1.0554447
0.5102888 0.8620521 0.8226168 0.96872294 0.6964452 0.07008498 0.31898028 0.5225181
0.9953056 0.581757 0.64015883 0.56886035 0.25019103 0.017499454 0.577567 0.36743817
0.7216736 0.7206276 0.034297254 0.6794169 0.7397394 0.66723377 0.7799043 0.2525152
0.25439942 0.19620879 0.93215686 0.75911504 0.6031289 0.6965223 0.088889495 0.91828716
0.111087196 0.36917058 0.15910296 0.4359034 0.14923686 0.3053256 0.4360602 0.8344253
0.93118954 0.24042608 0.69006425 0.8760652 0.92485285 0.7751729 0.78976107 0.9079288
0.59347165 0.12487379 0.85915935 0.95028067 1.0197275 0.089754574 0.66266704 0.80456525
00000000: 91d8 7e3f 3f6d 613f f2a0 1b3f 8450 d83e
00000010: 97fc 203f 7061 d83d c95f f53e d018 873f
00000020: 49a2 023f 72af 5c3f 0497 523f 3afe 773f
00000030: 3c4a 323f b788 8f3d 6251 a33e bfc3 053f
00000040: 59cc 7e3f 07ee 143f 73e1 233f d5a0 113f
00000050: 0a19 803e 045b 8f3c 6edb 133f db20 bc3e
00000060: 9abf 383f 0d7b 383f 477b 0c3d 44ee 2d3f
00000070: 905f 3d3f d5cf 2a3f cfa7 473f ac49 813e
00000080: a440 823e f5ea 483e d5a1 6e3f 5d55 423f
00000090: a866 1a3f 494f 323f b20b b63d de14 6b3f
000000a0: af81 e33d ed03 bd3e e3eb 223e bb2e df3e
000000b0: 8cd1 183e a353 9c3e 4843 df3e e59c 553f
000000c0: 7062 6e3f 4132 763e 0da8 303f cf45 603f
000000d0: 28c3 6c3f bb71 463f c82d 4a3f 066e 683f
000000e0: c2ed 173f d4bd ff3d def1 5b3f 9845 733f
000000f0: 6e86 823f 3fd1 b73d 8ca4 293f fdf7 4d3f

model.conv_layers.1.bias f4 [64]
0.036340754 0.021801729 -0.015407265 0.03113336 0.042927008 -0.030434217 0.012192257 0.021172855
-0.031037014 0.03841064 0.015307665 -0.036900286 -0.026917376 0.057841487 0.011983323 0.037291948
-0.011103261 0.027658893 0.032839675 0.02312783 0.0169585 -0.040151194 0.042302214 0.032842
0.018741867 0.02084425 0.03944533 0.027263165 0.021491745 -0.030858586 0.019833842 -0.031274885
0.043847803 -0.026350029 0.012981315 0.016557917 -0.0049958928 0.0404082 -0.004831181 -0.018461313
-0.036664423 -0.0068642884 0.038423963 -0.037343223 -0.028872062 0.010620136 -0.00708265 -0.031110134
0.018956399 -0.061291363 0.023500351 0.027723886 -0.027315289 0.054449245 -0.026557315 -0.060733374
-0.057306636 0.025218498 -0.0027341233 0.03315832 -0.05479996 -0.052064072 -0.020665888 0.019878944
00000000: 0bda 143d 8a99 b23c c16e 7cbc 630b ff3c
00000010: 3bd4 2f3d 2e51 f9bc 08c2 473c b272 ad3c
00000020: 5641 febc 7a54 1d3d 00cd 7a3c c124 17bd
00000030: d481 dcbc 32eb 6c3d b355 443c 71bf 183d
00000040: 74ea 35bc e794 e23c e582 063d 9376 bd3c
00000050: 8dec 8a3c 9475 24bd 1645 2d3d 5585 063d
00000060: 8b88 993c 90c1 aa3c 6d91 213d 0057 df3c
00000070: 750f b03c 25cb fcbc 957a a23c 181a 00bd
00000080: c199 333d 04dc d7bc 95af 543c 78a4 873c
00000090: 96b4 a3bb 1283 253d e24e 9ebb 2e3c 97bc
000000a0: 6f2d 16bd d3ed e0bb 7262 1d3d 35f5 18bd
000000b0: 1a85 ecbc 1400 2e3c 9315 e8bb aeda febc
000000c0: 734a 9b3c a70c 7bbd cf83 c03c 341d e33c
000000d0: 50c4 dfbc 2c06 5f3d ba8e d9bc 8fc3 78bd
000000e0: 5dba 6abd 0697 ce3c fa2e 33bb 05d1 073d
000000f0: ec75 60bd 2341 55bd 824b a9bc 2bd9 a23c

model.conv_layers.1.running_mean f4 [64]
0.12972218 0.17776084 0.18174407 -0.07340063 0.117570385 -0.07328893 -0.16680251 -0.108178824
0.15800402 -0.030972514 -0.14672497 -0.05297506 -0.001747351 -0.11268591 -0.07374093 0.009688515
0.09661063 0.10065155 0.12765767 -0.30015638 -0.05380506 0.13469042 -0.019698346 -0.01684594
-0.03804625 0.06796296 0.12628053 0.06317413 -0.20213608 -0.002936733 -0.088600166 -0.034113087
-0.18912643 -0.019127436 0.22226913 -0.08118286 -0.12313993 0.06715517 -0.047261335 0.20489919
-0.12707385 -0.09947154 0.1653791 -0.04058071 -0.116587 0.009694868 -0.12664215 -0.036675535
0.0047041248 -0.14991927 -0.23082963 0.033799887 0.05565245 0.09588217 0.1862267 -0.19242643
-0.0949294 0.16631241 0.24252921 0.120421246 0.0010677328 -0.13465086 -0.038593445 -0.0037074743
00000000: e4d5 043e f006 363e 1e1b 3a3e 1253 96bd
00000010: bec8 f03d 8218 96bd 47ce 2abe dc8c ddbd
00000020: cecb 213e 12ba fdbc 123f 16be 60fc 58bd
00000030: 5f07 e5ba dfc7 e6bd 7c05 97bd 94bc 1e3c
00000040: cbdb c53d 6622 ce3d b1b8 023e 19ae 99be
00000050: b262 5cbd 49ec 093e 6d5e a1bc 7f00 8abc
00000060: 62d6 1bbd 2a30 8b3d af4f 013e 7061 813d
00000070: c3fc 4ebe 3476 40bb 0174 b5bd 2aba 0bbd
00000080: 5caa 41be 24b1 9cbc 859a 633e 3343 a6bd
00000090: ca30 fcbd a688 893d 1a95 41bd 18d1 513e
000000a0: a61f 02be bcb7 cbbd 2459 293e f537 26bd
000000b0: 2ac5 eebd 39d7 1e3c 7bae 01be 1639 16bd
000000c0: 0f25 9a3b 7084 19be 9a5e 6cbe c071 0a3d
000000d0: d3f3 633d df5d c43d 36b2 3e3e 6f0b 45be
000000e0: 586a c2bd cd4d 2a3e 9459 783e 6a9f f63d
000000f0: 2bf3 8b3a eae1 09be 2914 1ebd 19f9 72bb

model.conv_layers.1.running_var f4 [64]
0.21949975 0.3800082 44.233047 22.387918 10.444849 21.201614 36.659786 29.04576
6.9759007 8.266928 37.286606 37.359367 24.454424 1.835383 10.818474 10.363586
0.26600093 40.46028 21.101768 1.132147 15.23125 33.993713 25.397694 17.79054
7.5587745 27.286806 0.48174408 11.906301 16.813372 7.4371524 6.026117 7.5093703
13.228039 38.110363 25.322586 28.675316 10.842702 25.571089 7.1424 52.619785
31.77006 24.569233 29.755726 0.62331766 26.56334 8.191325 44.50881 14.051482
10.610182 45.56972 28.047422 9.245677 0.60282737 8.237802 17.648554 31.738802
13.802664 0.553039 21.338644 16.55805 12.466147 52.46176 8.473717 8.28713
00000000: 8bc4 603e 6f90 c23e a4ee 3042 751a b341
00000010: 1a1e 2741 e89c a941 9fa3 1242 b75d e841
00000020: 943a df40 5645 0441 7c25 1542 fe6f 1542
00000030: a9a2 c341 d5ed ea3f 7818 2d41 40d1 2541
00000040: 4631 883e 54d7 2142 6cd0 a841 31ea 903f
00000050: 33b3 7341 90f9 0742 7a2e cb41 0753 8e41
00000060: 7be1 f140 614b da41 29a7 f63e 3580 3e41
00000070: c981 8641 27fd ed40 f3d5 c040 c34c f040
00000080: 0ca6 5341 0371 1842 a894 ca41 0c67 e541
00000090: b57b 2d41 9791 cc41 8a8e e440 a97a 5242
000000a0: 1529 fe41 ca8d c441 ba0b ee41 bf91 1f3f
000000b0: b881 d441 ab0f 0341 0509 3242 dfd2 6041
000000c0: 4ec3 2941 6547 3642 1f61 e041 4bee 1341
000000d0: e552 1a3f 09ce 0341 3d30 8d41 11e9 fd41
000000e0: b6d7 5c41 f793 0d3f 8bb5 aa41 e376 8441
000000f0: 5775 4741 d8d8 5142 5894 0741 1698 0441

model.conv_layers.4.weight f4 [64, 64, 3, 3]
-0.02719462 -0.0040001026 -0.012075512 0.015949383 -0.069536276 -0.020990858 -0.050443433 -0.000713115
-0.02933009 0.016575562 0.0049734083 -0.045916464 0.003953971 0.0074347365 -0.057616897 -0.040623613
-0.00194412 -0.07288271 0.010711222 0.0032329578 -0.02158487 0.0004799501 -0.049619567 -0.066149406
-0.054569665 -0.039848674 -0.036454257 -0.0033475135 0.013129879 0.05427426 0.034229126 0.039054476
0.088516414 0.013531594 0.04904275 0.06515176 -0.012327059 -0.04118915 -0.020550437 0.059293423
0.053672507 -0.06302749 0.06520692 -0.003203765 -0.070453726 -0.04012167 -0.011889974 0.011915692
0.029000238 0.01846322 -0.018611845 0.010902521 0.014401112 0.052695766 -0.03472824 0.012646343
-0.012281103 -0.012862434 -0.04858786 0.032675657 0.046935093 0.042748358 0.046680056 0.065541126
0.015861074 0.06679935 0.047608808 0.08129356 0.029636377 0.014751824 0.056179453 0.0118558165
-0.049168386 0.00095943274 -0.023781966 -0.006260307 -0.03646344 -0.045382194 0.007816992 -0.03791097
-0.013083964 -0.07391839 -0.0010438974 -0.04869575 -0.069433585 -0.035101816 0.023848522 -0.034427162
0.0028871575 0.032306124 0.0568651 -0.03133767 -0.021009268 0.046352424 -0.028487835 -0.0415778
0.07054621 0.085624 0.05442216 -0.06427342 -0.0058706063 -0.006605424 0.009593821 -0.0036092547
-0.010389323 0.006470868 0.060317807 0.0019907993 -0.016404474 -0.020037033 -0.028571349 -0.06514278
0.039534952 -0.049341936 -0.074362256 -0.025793117 -0.0027286874 0.03588313 -0.077589914 0.007258026
-0.060961645 0.0020154954 -0.045275748 -0.04405558 -0.07182104 -0.026422491 -0.004168634 0.036303483
-0.026634865 0.02980444 0.08715564 0.07098703 0.06032719 0.02090043 0.024910307 -0.05302379
-0.025585966 0.0073525645 0.011001434 -0.05792077 -0.018717106 -0.012814083 0.029306175 -0.070975915
-0.02100078 0.04139038 0.009012462 0.013461529 0.030535514 -0.06855846 -0.010058891 -0.06876836
-0.024825418 0.045046434 0.046555582 -0.0065480843 -0.0016126662 0.048100267 -0.013102664 -0.042638917
0.009038891 -0.057570178 0.016522959 0.057310905 0.061525848 -0.0112789385 0.0057318863 0.0026811121
0.045968954 0.023808494 -0.026934797 0.029085651 0.039277688 -0.0006831118 0.029254336 -0.024199508
-0.012855813 -0.020219669 -0.056972627 -0.026729144 0.019492052 0.023168353 -0.03815977 0.03201897
-0.007897875 -0.05861538 -0.03826641 -0.06209203 -0.053795505 -0.007932065 0.03587437 0.048207227
0.0339741 0.015622608 0.031795155 0.024657805 -0.014088952 -0.023178684 0.0077856844 -0.0045371302
0.0075568417 -0.0074410494 0.031278774 0.07788376 0.068819456 0.092420064 0.052484527 -0.011651123
-0.03473784 -0.051908676 -0.004134546 -0.0010203624 -0.08585639 -0.027562028 0.028453592 -0.024791759
0.013397616 -0.014456092 0.0036702885 0.057310045 0.08584512 0.030848078 0.05222309 0.08998657
0.03574156 0.013582984 0.07003533 0.006109467 0.0040213093 0.009788709 -0.055743933 -0.029491428
-0.06963054 -0.0593691 -0.015641643 -0.018911086 -0.0065194285 -0.042385958 -0.029401483 -0.010271959
-0.020397864 -0.035061534 -0.025562527 0.014072914 -0.0141539145 0.005419156 0.029499425 0.0018475556
-0.029258661 -0.033172008 -0.07337094 -0.045694057 0.011677485 -0.0451889 0.0064037964 -0.026742198
00000000: 40c7 debc 4b13 83bb 5ed8 45bc 48a8 823c
00000010: 0969 8ebd 05f5 abbc c69d 4ebd 56f0 3aba
00000020: a845 f0bc 79c9 873c f9f7 a23b e712 3cbd
00000030: 5090 813b 179f f33b b2ff 6bbd f264 26bd
00000040: d8d1 feba 8843 95bd 1f7e 2f3c 08e0 533b
00000050: c1d2 b0bc d0a1 fb39 e33d 4bbd 5779 87bd
00000060: 7184 5fbd 5d38 23bd 0f51 15bd f561 5bbb
00000070: b41e 573c b04e 5e3d d733 0c3d 96f7 1f3d
00000080: 1848 b53d 9eb3 5d3c 0de1 483d 496e 853d
00000090: 6ff7 49bc f4b5 28bd 6459 a8bc a9dd 723d
000000a0: b4d7 5b3d 8f14 81bd 358b 853d 42f6 51bb
000000b0: 0b4a 90bd 9f56 24bd 2ace 42bc 093a 433c
000000c0: e891 ed3c 2e40 973c de77 98bc 7da0 323c
000000d0: a4f2 6b3c 84d7 573d 333f 0ebd 9b32 4f3c
000000e0: ae36 49bc f5bc 52bc 1004 47bd e9d6 053d
000000f0: 033f 403d e718 2f3d 9633 3f3d 6d3a 863d
00000100: 15ef 813c 19ce 883d 7401 433d 3d7d a63d
00000110: fdc7 f23c a2b1 713c 6d1c 663d e63e 423c
00000120: ca64 49bd 7182 7b3a 66d2 c2bc 4323 cdbb
00000130: b05a 15bd aee2 39bd d712 003c 8948 1bbd
00000140: 1f5e 56bc 8662 97bd 62d3 88ba 3275 47bd
00000150: 3233 8ebd ecc6 0fbd fa5d c33c 7f03 0dbd
00000160: 7736 3d3b 6d53 043d 61eb 683d ee5b 00bd
00000170: a11b acbc 0adc 3d3d 525f e9bc 7c4d 2abd
00000180: 887a 903d a35b af3d c5e9 5e3d c8a1 83bd
00000190: 375e c0bb 5072 d8bb 672f 1d3c 3f89 6cbb
000001a0: fb37 2abc 9309 d43b ce0f 773d 1278 023b
000001b0: ad62 86bc b424 a4bc 760e eabc 9469 85bd
000001c0: 67ef 213d c51a 4abd 3d4b 98bd 164c d3bc
000001d0: c7d3 32bb 30fa 123d 76e7 9ebd bcd4 ed3b
000001e0: ebb2 79bd 6716 043b 1073 39bd a073 34bd
000001f0: e916 93bd fb73 d8bc 0999 88bb f6b2 143d
00000200: 5c31 dabc 7128 f43c a87e b23d a661 913d
00000210: a519 773d 6137 ab3c b310 cc3c 792f 59bd
00000220: a999 d1bc c8ed f03b 5c3f 343c 543e 6dbd
00000230: 9e54 99bc 29f2 51bc 8113 f03c d25b 91bd
00000240: d409 acbc f688 293d 01a9 133c bf8d 5c3c
00000250: 9d25 fa3c 6168 8cbd 0cce 24bc 6dd6 8cbd
00000260: ad5e cbbc 9c82 383d 11b1 3e3d 5091 d6bb
00000270: 1960 d3ba c904 453d 8eac 56bc 25a6 2ebd
00000280: db17 143c b5ce 6bbd 285b 873c d7be 6a3d
00000290: 8702 7c3d 4ccb 38bc 8cd2 bb3b 99b5 2f3b
000002a0: f149 3c3d 080a c33c 5da6 dcbc 0845 ee3c
000002b0: a4e1 203d db12 33ba caa6 ef3c 0c3e c6bc
000002c0: 30a1 52bc b8a3 a5bc 215c 69bd 14f7 dabc
000002d0: ccad 9f3c 8fcb bd3c 6b4d 1cbd 5326 033d
000002e0: 1766 01bc ae16 70bd 3dbd 1cbd 3654 7ebd
000002f0: ad58 5cbd 7ef5 01bc 01f1 123d f174 453d
00000300: 6d28 0b3d f8f5 7f3c a33b 023d 2aff c93c
00000310: 59d5 66bc 39e1 bdbc 0e1f ff3b 35ac 94bb
00000320: 629f f73b 0cd4 f3bb 2c1e 003d 8581 9f3d
00000330: 37f1 8c3d bb46 bd3d 04fa 563d 5ae4 3ebc
00000340: 4449 0ebd 319e 54bd 167b 87bb aebd 85ba
00000350: 7ad5 afbd c3c9 e1bc 8217 e93c 1618 cbbc
00000360: ad81 5b3c 3fd9 6cbc 3989 703b f0bd 6a3d
00000370: 91cf af3d 1cb5 fc3c e1e7 553d e14a b83d
00000380: be65 123d 2a8b 5e3c af6e 8f3d ec31 c83b
00000390: 30c5 833b d260 203c c053 64bd 0298 f1bc
000003a0: 759a 8ebd 032d 73bd e722 80bc 6ceb 9abc
000003b0: eea0 d5bb e69c 2dbd 61db f0bc b84b 28bc
000003c0: 6c19 a7bc af9c 0fbd 8168 d1bc 1492 663c
000003d0: d2e5 67bc 2d93 b13b c7a8 f13c ae29 f23a
000003e0: dcaf efbc 5fdf 07bd 8143 96bd b129 3bbd
000003f0: ec52 3f3c ff17 39bd f0d6 d13b 7412 dbbc

model.conv_layers.5.weight f4 [64]
0.31810874 0.64795923 0.6369817 0.5006929 0.7502237 0.4076635 0.9781885 -0.024207026
0.71310997 0.2983273 1.006527 0.42577618 0.6701736 0.1625812 0.800189 0.4011852
0.45516735 0.2430003 0.42223805 0.3897954 0.7763133 0.4350174 1.012388 0.38026163
0.42572278 0.81470335 0.2849815 0.51503986 0.09087815 0.19591966 0.09378501 0.09503138
0.81861997 0.40483695 0.23886648 -0.009676013 0.061206028 0.41214818 0.8803626 0.56624216
0.9279525 0.65903956 0.1751658 0.5534551 0.3642545 0.27079272 -0.013505615 0.37046224
0.7674313 0.93971556 0.5895882 0.9445146 0.6459662 0.39154804 0.70879966 0.70458156
0.8345542 0.55614984 0.46027967 0.8953121 0.74247146 0.8712844 0.67624557 0.74940175
00000000: 26df a23e a8e0 253f 3c11 233f 692d 003f
00000010: a90e 403f 45b9 d03e 906a 7a3f d04d c6bc
00000020: 608e 363f 5bbe 983e e0d5 803f 56ff d93e
00000030: 7f90 2b3f b07b 263e 30d9 4c3f 2668 cd3e
00000040: b20b e93e 12d5 783e 962f d83e 4393 c73e
00000050: 78bc 463f 9aba de3e ee95 813f a7b1 c23e
00000060: 56f8 d93e 6690 503f 18e9 913e a7d9 033f
00000070: 531e ba3d 2a9f 483e 5b12 c03d d09f c23d
00000080: 1491 513f ca46 cf3e 6a99 743e 2488 1ebc
00000090: 2cb3 7a3d 1605 d33e 715f 613f 3ff5 103f
000000a0: 4c8e 6d3f d1b6 283f aa5e 333e 3caf 0d3f
000000b0: 917f ba3e 58a5 8a3e a846 5dbc 3aad bd3e
000000c0: 6176 443f 3391 703f 41ef 163f b5cb 713f
000000d0: 0a5e 253f fc78 c83e e573 353f 755f 343f
000000e0: 58a5 553f d65f 0e3f c7a9 eb3e 2c33 653f
000000f0: 9c12 3e3f 7f0c 5f3f 6e1e 2d3f cbd8 3f3f

model.conv_layers.5.bias f4 [64]
0.018131385 0.0012010497 -0.041315578 0.012505866 -0.011630129 0.038899917 0.031812962 0.05628066
0.043145508 0.020460695 0.033454124 -0.03141116 0.06389024 0.09453172 0.033036307 0.025574548
0.06762293 -0.044844486 0.03564014 -0.023572467 0.0060790456 -0.020146815 0.016961817 -0.043481663
0.038281705 -0.0009481715 -0.03245986 0.012289753 -0.06392596 -0.009358203 -0.05575875 0.031599037
0.068828344 0.0017495503 -0.0058710948 -0.05059197 0.04061815 -0.049261868 0.027490862 -0.007459601
0.03604555 0.033652596 -0.018448293 -0.010066601 -0.021013102 0.04118936 -0.038960736 -0.041983243
0.024116771 0.030193606 0.05128659 0.03638551 0.01867664 -0.0257496 0.017385414 -0.028286578
-0.053869132 -0.07036374 -0.013720564 0.040879443 -0.018976932 0.013178434 0.013723541 0.039890856
00000000: 4588 943c 8a6c 9d3a 863a 29bd 67e5 4c3c
00000010: 4c8c 3ebc 8555 1f3d 4f4e 023d 8d86 663d
00000020: 58b9 303d 309d a73c 3107 093d fda8 00bd
00000030: e3d8 823d d999 c13d 1451 073d b781 d13c
00000040: e47d 8a3d daae 37bd 65fb 113d 0c1b c1bc
00000050: bb32 c73b ef0a a5bc 82f3 8a3c d419 32bd
00000060: 47cd 1c3d b68e 78ba a1f4 04bd f65a 493c
00000070: 9deb 82bd 2653 19bc 4963 64bd fe6d 013d
00000080: e0f5 8c3d 2b51 e53a 5062 c0bb 8739 4fbd
00000090: 385f 263d d0c6 49bd 8434 e13c ab6f f4bb
000000a0: 80a4 133d 4ed7 093d e020 97bc 63ee 24bc
000000b0: ab23 acbc 2db6 283d 4b95 1fbd 9ff6 2bbd
000000c0: 8990 c53c 9558 f73c e311 523d f908 153d
000000d0: c1ff 983c d3f0 d2bc db6b 8e3c 41b9 e7bc
000000e0: e1a5 5cbd dd1a 90bd 37cc 60bc 3471 273d
000000f0: 8375 9bbc 5cea 573c b4d8 603c 9864 233d

model.conv_layers.5.running_mean f4 [64]
-0.15666889 0.22528353 -0.37841746 0.8953537 -0.3641905 -0.06744329 -0.79098 -1.7039626
2.351952 -1.4333533 -0.88268894 0.6163574 1.5390179 2.4690495 -0.23717964 0.11657342
1.3997219 -0.63912904 -0.85339725 -0.47808877 0.19669096 -0.7127764 0.97107816 0.2710077
0.21320392 -0.93336517 1.8304789 0.43960103 -0.6034008 -2.31485 -0.93584573 -0.29251975
3.4124763 -0.03242197 -1.178509 0.49264163 0.7578639 -2.0979135 0.6279682 0.20155977
-1.4577991 0.6684459 1.5652575 -0.14725707 -1.5449418 -1.2426596 -0.65795964 -1.1874197
-0.306134 -0.8960836 -3.5041716 -0.37304336 -0.20211889 -0.14888573 -1.5038455 -0.43969187
-2.8271692 1.3946784 -3.7478151 -1.9614522 -0.8286866 0.31294844 1.0100564 0.5417894
00000000: cf6d 20be bab0 663e efbf c1be e635 653f
00000010: 2d77 babe b51f 8abd aa7d 4abf 721b dabf
00000020: 6286 1640 1f78 b7bf e7f7 61bf 99c9 1d3f
00000030: 8afe c43f e804 1e40 38df 72be 0cbe ee3d
00000040: 162a b33f f69d 23bf 3e78 5abf 0dc8 f4be
00000050: 5b69 493e 8478 36bf 9498 783f 85c1 8a3e
00000060: 2152 5a3e 05f1 6ebf 224d ea3f 6313 e13e
00000070: 7a78 1abf 8126 14c0 9693 6fbf 26c5 95be
00000080: 0366 5a40 e6cc 04bd 62d9 96bf 863b fc3e
00000090: 5e03 423f 3744 06c0 86c2 203f af65 4e3e
000000a0: 2999 babf 451f 2b3f 5c5a c83f 8fca 16be
000000b0: a7c0 c5bf 780f 9fbf 0b70 28bf 5efd 97bf
000000c0: 98bd 9cbe bc65 65bf 5944 60c0 8aff bebe
000000d0: 41f8 4ebe 8075 18be 027e c0bf 4b1f e1be
000000e0: 57f0 34c0 d284 b23f 34dc 6fc0 de10 fbbf
000000f0: ce24 54bf c73a a03e 8749 813f b6b2 0a3f

model.conv_layers.5.running_var f4 [64]
4.027957 13.185226 15.614841 8.512477 3.1372752 9.348352 8.16699 6.367241
3.3730516 7.986857 3.5011883 5.646852 11.664187 3.0209591 5.4091344 3.8263092
7.922317 5.6995635 9.853623 1.9019295 1.2349414 13.061517 5.3959756 9.897785
6.0781403 5.7403364 4.243644 9.869055 1.6453264 5.9561834 6.9048123 4.290695
5.4184146 14.912028 1.5423852 7.385725 4.8730335 11.059534 5.0100164 13.18143
9.959321 10.548193 2.9223702 7.907128 4.2095985 3.49581 10.076242 5.505056
7.750657 7.879516 3.4162977 13.851079 3.3717902 3.2156358 3.445171 10.206747
3.318215 12.313759 3.563579 5.857821 12.58957 11.55006 5.050918 11.392294
00000000: 06e5 8040 b0f6 5241 64d6 7941 1b33 0841
00000010: 1ec9 4840 da92 1541 feab 0241 70c0 cb40
00000020: 14e0 5740 5594 ff40 7813 6040 03b3 b440
00000030: 83a0 3a41 6557 4140 a117 ad40 40e2 7440
00000040: 9f83 fd40 d362 b640 71a8 1d41 6d72 f33f
00000050: 8f12 9e3f f9fb 5041 d5ab ac40 545d 1e41
00000060: 2080 c240 d6b0 b740 efcb 8740 a6e7 1d41
00000070: 0e9a d23f 0e99 be40 39f4 dc40 604d 8940
00000080: a763 ad40 ab97 6e41 e16c c53f dc57 ec40
00000090: e4ef 9b40 daf3 3041 0e52 a040 23e7 5241
000000a0: 6159 1f41 66c5 2841 1d08 3b40 3107 fd40
000000b0: 08b5 8640 5abb 5f40 4a38 2141 6b29 b040
000000c0: 6205 f840 ff24 fc40 9fa4 5a40 059e 5d41
000000d0: 69cb 5740 facc 4d40 af7d 5c40 d64e 2341
000000e0: a25d 5440 2805 4541 ae11 6440 4573 bb40
000000f0: e16e 4941 0ccd 3841 1fa1 a140 d646 3641

model.conv_layers.8.weight f4 [64, 64, 3, 3]
-0.07615855 -0.033942383 -0.0021071406 -0.0156492 0.0016061191 -0.0328231 -0.044439893 -0.026274614
-0.048443545 -0.01328284 0.015935786 -0.07113375 0.010461996 -0.009657998 0.014310438 0.04085891
0.058289167 -0.03792844 0.007672663 0.004623722 0.036083505 0.012886041 0.019046826 0.006472492
-0.008524957 -0.003158775 0.008401277 0.034513768 0.04959259 0.042677198 0.033694245 0.01727096
0.048315052 0.021342779 -0.014426187 0.014958185 -0.05410126 -0.07690616 -0.01600585 -0.052636802
0.002992287 -0.004744984 -0.028471518 -0.029784603 0.029474907 -0.06649153 -0.086380936 -0.015237506
-0.076942764 -0.029642195 0.03518163 -0.07097141 -0.021829797 0.016753692 0.0066530365 -0.00044114928
-0.025405398 0.007692356 0.02764805 0.024424925 -0.07901907 -0.0017077004 -0.053886462 0.06735865
-0.007791597 -0.031895068 -0.06537107 -0.08474662 -0.11614921 -0.1255142 -0.002215108 -0.05611788
-0.03387915 -0.01793465 0.021148318 -0.08675924 0.026454031 -0.026466247 -0.04749899 0.015497647
-0.019979795 -0.053203046 -0.02938991 -0.032868084 -0.055502437 -0.0301276 0.0054472294 -0.030191427
-0.019022243 -0.04998614 -0.08160984 -0.00729612 -0.05662166 -0.06721015 -0.034829702 -0.025109872
-0.043026835 -0.04193517 0.009370459 -0.067735754 0.0008138393 -0.016871229 -0.008894721 -0.012339825
-0.036467448 -0.051186945 0.009492059 -0.013478536 -0.011496336 -0.08062331 -0.08304167 -0.06883125
-0.056919385 -0.046569858 -0.012039459 -0.04886159 0.019272633 0.10271887 0.024862912 -0.002528569
0.028636301 -0.19752292 -0.03874941 -0.05913043 0.069193825 -0.026024394 -0.0030246759 -0.033620343
0.021194225 -0.034870006 0.02239761 0.0038232428 0.031859193 -0.020269485 -0.029780477 -0.003745501
-0.0032890714 -0.018088048 -0.0135237975 0.040505543 0.008723304 0.010522097 0.011244875 -0.022617185
-0.0932911 0.033426385 -0.030162793 -0.013407655 -0.011778317 0.041413207 -0.017514067 0.010844164
0.033846475 0.06749523 0.039193153 -0.0072441613 -0.00020178953 0.029115986 0.076011226 0.028467475
0.0063428413 -0.007007778 -0.03454897 -0.05762221 -0.05141357 -0.022788297 -0.002229455 -0.054002482
-0.029966744 -0.054726742 -0.042483114 -0.051112108 0.010475402 0.010565436 0.007414652 0.05015443
0.024759673 0.010312336 0.046109375 0.017796818 -0.0152915735 -0.07748331 0.00953745 -0.07185514
0.011616535 0.029589828 -0.031520825 -0.04074707 0.0022983246 -0.009232628 -0.04158522 -0.047785614
-0.004242333 0.0034978671 0.029065426 0.01918242 0.023608442 0.033091 -0.04732186 -0.035159595
-0.018005041 -0.02852762 -0.014353493 -0.021150433 -0.0007079817 0.03999414 0.0008425134 -0.06919521
-0.07498959 -0.017153274 -0.008699899 -0.060245745 -0.05430722 -0.06816526 -0.018864073 -0.033850085
-0.051233772 0.0078185825 -0.0654968 -0.02541535 -0.042461 -0.07012379 -0.06550676 -0.07056116
-0.07776099 -0.05173615 -0.06187902 -0.06665595 -0.06306343 -0.014077032 0.0027461813 -0.058911495
-0.06478168 -0.03122376 0.093921795 0.034032337 -0.058436234 0.06356005 0.0232228 -0.054498084
-0.03607089 -0.035712224 -0.08123696 -0.032265753 -0.037628766 -0.0032551074 -0.03990792 -0.028852405
-0.041440185 -0.055126082 -0.05108246 0.025030205 -0.010767126 -0.054650683 -0.015617906 -0.025924193
00000000: 04f9 9bbd 2b07 0bbd f417 0abb c032 80bc
00000010: 6a84 d23a 8471 06bd 9b06 36bd dc3d d7bc
00000020: bd6c 46bd 45a0 59bc c48b 823c 92ae 91bd
00000030: cb68 2b3c 943c 1ebc 5476 6a3c ac5b 273d
00000040: 9fc0 6e3d da5a 1bbd f66a fb3b 9782 973b
00000050: 4ccc 133d f91f 533c 1708 9c3c 3317 d43b
00000060: 43ac 0bbc 7303 4fbb 82a5 093c 4f5e 0d3d
00000070: 9a21 4b3d 49ce 2e3d fa02 0a3d d47b 8d3c
00000080: 01e6 453d 0dd7 ae3c d05b 6cbc 2d13 753c
00000090: 4899 5dbd fa80 9dbd b31e 83bc b099 57bd
000000a0: 3f1a 443b d07b 9bbb 1a3d e9bc d7fe f3bc
000000b0: 5c75 f13c b62c 88bd 7de8 b0bd bba6 79bc
000000c0: 2b94 9dbd 30d4 f2bc 9d1a 103d 7559 91bd
000000d0: 67d4 b2bc 0a3f 893c b701 da3b 0e4a e7b9
000000e0: fb1e d0bc 2910 fc3b 2a7e e23c c816 c83c
000000f0: c0d4 a1bd ebd4 dfba 0db8 5cbd 55f3 893d
00000100: a750 ffbb 67a4 02bd 44e1 85bd a38f adbd
00000110: a3df edbd cb86 00be 582b 11bb dddb 65bd
00000120: ddc4 0abd b0eb 92bc 3d3f ad3c d4ae b1bd
00000130: 20b6 d83c becf d8bc 4d8e 42bd d8e9 7d3c
00000140: abac a3bc 70eb 59bd 1cc3 f0bc afa0 06bd
00000150: 8656 63bd 28ce f6bc ac7e b23b 0354 f7bc
00000160: 89d4 9bbc 44be 4cbd 0f23 a7bd 4a14 efbb
00000170: 1dec 67bd 7aa5 89bd 97a9 0ebd 38b3 cdbc
00000180: e83c 30bd 36c4 2bbd 8e86 193c 0bb9 8abd
00000190: d557 553a 8835 8abc 2abb 11bc fa2c 4abc
000001a0: e45e 15bd 67a9 51bd 9584 1b3c 14d5 5cbc
000001b0: 215b 3cbc d51d a5bd c011 aabd 66f7 8cbd
000001c0: 4d24 69bd 09c0 3ebd 2741 45bc 1723 48bd
000001d0: a4e1 9d3c 455e d23d 4ead cb3c 59b6 25bb
000001e0: ad96 ea3c 7343 4abe b4b7 1ebd c032 72bd
000001f0: 7eb5 8d3d 1c31 d5bc a439 46bb 7cb5 09bd
00000200: 839f ad3c dad3 0ebd 317b b73c 5f8f 7a3b
00000210: c97e 023d 310c a6bc 30f6 f3bc 1477 75bb
00000220: 768d 57bb 632d 94bc eb92 5dbc 24e9 253d
00000230: 30ec 0e3c e064 2c3c 6d3c 383c ad47 b9bc
00000240: 670f bfbd 1bea 083d f617 f7bc c8ab 5bbc
00000250: d8f9 40bc e5a0 293d a979 8fbc b8ab 313c
00000260: 9aa2 0a3d f03a 8a3d 0089 203d 6e60 edbb
00000270: 7797 53b9 a684 ee3c c6ab 9b3d 9f34 e93c
00000280: 9cd7 cf3b 81a1 e5bb 3983 0dbd 4405 6cbd
00000290: 0997 52bd 86ae babc 0c1c 12bb b531 5dbd
000002a0: d17c f5bc 2629 60bd c602 2ebd ee5a 51bd
000002b0: 05a1 2b3c a71a 2d3c 9cf6 f23b bb6e 4d3d
000002c0: ccd4 ca3c 12f5 283c 2fdd 3c3d a2ca 913c
000002d0: 8289 7abc 92af 9ebd f742 1c3c ca28 93bd
000002e0: 4753 3e3c 5e66 f23c fb1b 01bd 66e6 26bd
000002f0: 7d9f 163b 7344 17bc 4355 2abd d9ba 43bd
00000300: 4503 8bbb 793c 653b 9e1a ee3c 7324 9d3c
00000310: 7e66 c13c 6e8a 073d 91d4 41bd 8203 10bd
00000320: 4f7f 93bc c1b2 e9bc ea2a 6bbc ac43 adbc
00000330: d997 39ba e5d0 233d 1edc 5c3a 38b6 8dbd
00000340: 2494 99bd 0685 8cbc 058a 0ebc 3ec4 76bd
00000350: 3f71 5ebd 3a9a 8bbd d488 9abc 63a6 0abd
00000360: 81da 51bd 8319 003c 3023 86bd da33 d0bc
00000370: 96eb 2dbd 109d 8fbd 6828 86bd 5f82 90bd
00000380: 2741 9fbd 49e9 53bd db74 7dbd ea82 88bd
00000390: 6627 81bd 5aa3 66bc 47f9 333b 2e4d 71bd
000003a0: 42ac 84bd f9c8 ffbc 125a c03d 7e65 0b3d
000003b0: d55a 6fbd c62b 823d be3d be3c 6239 5fbd
000003c0: 12bf 13bd fb46 12bd 905f a6bd 1829 04bd
000003d0: 9f20 1abd a453 55bb 7d76 23bd e15b ecbc
000003e0: 2fbd 29bd e3cb 61bd d73b 51bd 250c cd3c
000003f0: 9a68 30bc 65d9 5fbd 3fe2 7fbc f95e d4bc

model.conv_layers.9.weight f4 [64]
0.64980954 0.044539005 0.50534374 0.43327934 0.932036 0.71359444 0.59061617 0.303256
-0.0232076 0.15561727 0.47707286 0.12047744 0.56980675 0.16926242 0.2731408 0.36585465
0.25971133 0.26033482 0.7008847 0.14112963 0.7216919 0.70706636 0.14551882 0.28447214
0.42001966 0.63791573 0.8202582 0.941721 0.5408552 0.8939988 0.4825633 0.52206236
0.05839501 0.9040765 0.0020854264 0.707929 0.8609129 0.73748004 0.8879399 0.06886176
0.5603426 0.7391795 0.9138468 0.17060123 0.9072009 0.588174 0.59791553 0.22601996
0.036793232 0.868453 0.6119135 0.51406795 0.64561254 0.49698263 0.5602309 0.6275341
0.02082798 0.6889289 0.49564537 0.36611024 0.22840619 0.25528395 0.5396741 0.78905237
00000000: eb59 263f 886e 363d 355e 013f cad6 dd3e
00000010: e999 6e3f 20ae 363f 9f32 173f 5f44 9b3e
00000020: dd1d bebc 225a 1f3e e542 f43e e0bc f63d
00000030: dbde 113f 2153 2d3e 1cd9 8b3e 4d51 bb3e
00000040: e2f8 843e 9b4a 853e 2e6d 333f 4984 103e
00000050: cdc0 383f 4d02 353f e302 153e 55a6 913e
00000060: d10c d73e 724e 233f 71fc 513f a114 713f
00000070: 7d75 0a3f 1bdd 643f 8912 f73e e1a5 053f
00000080: 9b2f 6f3d 8f71 673f a6ab 083b d63a 353f
00000090: ca64 5c3f 7ecb 3c3f 0750 633f 6507 8d3d
000000a0: 9d72 0f3f de3a 3d3f ddf1 693f 17b2 2e3e
000000b0: 513e 683f 9292 163f fe10 193f c771 673e
000000c0: 80b4 163d f052 5e3f 5da6 1c3f f599 033f
000000d0: dd46 253f 8274 fe3e 4b6b 0f3f 13a6 203f
000000e0: 719f aa3c a55d 303f 3bc5 fd3e cd72 bb3e
000000f0: 50e3 693e 94b4 823e 1528 0a3f 56ff 493f

model.conv_layers.9.bias f4 [64]
-0.068997286 -0.045737572 -0.050210744 -0.044386856 -0.06148085 -0.04299816 -0.09240402 -0.050120182
-0.054330617 -0.036096413 -0.052612346 -0.0520222 -0.055816293 -0.05483934 -0.04084435 -0.030908514
-0.0721096 -0.04543026 -0.049525708 -0.07132366 -0.06312036 -0.055683967 -0.037110478 -0.03140391
-0.041903514 -0.065542944 -0.088666186 -0.028944496 -0.06774287 -0.04772075 -0.04766474 -0.06766642
-0.03298368 -0.060710825 -0.04750246 -0.07058643 -0.080217704 -0.053936638 -0.053437263 -0.030761331
-0.038019 -0.026105776 -0.05279213 -0.06682321 -0.062364075 -0.050118163 -0.06981368 -0.033194948
-0.05250597 -0.054422326 -0.024011718 -0.026815565 -0.06527575 -0.024851175 -0.07298708 -0.07183071
-0.023454392 -0.068589486 -0.05501615 -0.102902785 -0.038488112 -0.058699157 -0.0721706 -0.06742781
00000000: 734e 8dbd 5257 3bbd c8a9 4dbd fece 35bd
00000010: 58d3 7bbd d71e 30bd 523e bdbd d24a 4dbd
00000020: c889 5ebd d5d9 13bd 0b80 57bd 3b15 55bd
00000030: a09f 64bd 379f 60bd 684c 27bd da33 fdbc
00000040: 33ae 93bd 1515 3abd 78db 4abd 2412 92bd
00000050: 3f45 81bd df14 64bd 2801 18bd 63a1 00bd
00000060: 05a3 2bbd 613b 86bd 9e96 b5bd 021d edbc
00000070: c6bc 8abd d576 43bd 1a3c 43bd b194 8abd
00000080: e519 07bd eaab 78bd f191 42bd 9e8f 90bd
00000090: 2e49 a4bd aaec 5cbd 08e1 5abd 30ff fbbc
000000a0: d0b9 1bbd c8db d5bc 8f3c 58bd 9bda 88bd
000000b0: 7971 7fbd b448 4dbd 7afa 8ebd 6df7 07bd
000000c0: 8010 57bd f2e9 5ebd 39b4 c4bc 51ac dbbc
000000d0: 4baf 85bd b194 cbbc 407a 95bd fb1b 93bd
000000e0: 6d23 c0bc a578 8cbd 9d58 61bd b2be d2bd
000000f0: b6a5 1dbd 876e 70bd 2ece 93bd 9717 8abd

model.conv_layers.9.running_mean f4 [64]
-2.6053178 -0.075166926 -0.94659334 -3.6557152 -2.201086 0.5048336 -1.3428507 -3.0998816
2.3243241 -3.0638838 -3.3672116 2.655576 -3.1444623 2.030368 1.6270833 1.1938512
2.410537 -2.5480077 1.0667534 -2.5293434 -2.8910327 -1.9993304 -3.7529778 -3.1831992
-3.10151 0.17110427 -4.4322214 -3.7545016 -1.5816859 -3.7574146 -2.9191384 -2.7249684
-2.2348144 -2.5494595 -2.2507353 0.8644904 2.6411939 2.4755654 -3.564244 0.86441904
-2.770123 -2.959982 -2.6378717 -2.424364 -3.3295074 1.1646136 2.4534345 -2.743089
1.0944476 -3.5508766 1.8233857 2.678919 -3.97533 -2.0480185 1.4737175 -2.8901765
-3.8640661 -3.7579932 -1.8065552 -3.4496305 -2.3753338 -3.8105795 -3.0498624 -2.3715549
00000000: 87bd 26c0 1ef1 99bd f153 72bf 3df7 69c0
00000010: 98de 0cc0 c63c 013f 88e2 abbf 7664 46c0
00000020: bac1 1440 ac16 44c0 6580 57c0 f5f4 2940
00000030: df3e 49c0 8df1 0140 4444 d03f 1ed0 983f
00000040: 3d46 1a40 8f12 23c0 608b 883f c3e0 21c0
00000050: ae06 39c0 0fea ffbf ca30 70c0 89b9 4bc0
00000060: 247f 46c0 f535 2f3e c2d4 8dc0 c149 70c0
00000070: af74 cabf 7b79 70c0 2ad3 3ac0 e265 2ec0
00000080: 3307 0fc0 582a 23c0 0c0c 10c0 3e4f 5d3f
00000090: 5209 2940 aa6f 1e40 931c 64c0 914a 5d3f
000000a0: b249 31c0 5870 3dc0 e4d2 28c0 c828 1bc0
000000b0: a616 55c0 0f12 953f 1205 1d40 c58e 2fc0
000000c0: dc16 8c3f 9041 63c0 b464 e93f 6973 2b40
000000d0: cf6b 7ec0 bc12 03c0 c6a2 bc3f a7f8 38c0
000000e0: dc4c 77c0 f682 70c0 333d e7bf bfc6 5cc0
000000f0: 7805 18c0 89e0 73c0 f230 43c0 8ec7 17c0

model.conv_layers.9.running_var f4 [64]
10.982309 3.0037138 2.166994 15.425786 13.463377 3.7834504 12.423534 8.509496
3.8086717 16.922014 14.383117 4.956467 16.195559 8.031962 9.584951 9.165277
14.777274 8.2492695 2.2031894 12.430018 16.087748 9.109871 12.11916 10.79726
17.40882 5.8102913 14.355115 11.070519 8.624561 13.474714 9.77182 7.9353437
7.797188 13.073545 8.068056 16.32898 11.185998 19.011608 16.745274 9.685839
11.681412 11.554591 13.472887 10.91959 7.9735518 6.3940654 9.713877 8.073197
5.477148 11.479156 5.444927 11.51525 13.241159 9.538084 8.841622 10.7495575
5.405519 8.497949 16.765549 18.227533 10.508335 16.25906 13.358052 10.809309
00000000: 8ab7 2f41 d93c 4040 08b0 0a40 05d0 7641
00000010: fe69 5741 0d24 7240 ccc6 4641 e526 0841
00000020: 47c1 7340 4960 8741 3f21 6641 619b 9e40
00000030: 8190 8141 eb82 0041 f65b 1941 f9a4 1241
00000040: b76f 6c41 02fd 0341 0e01 0d40 5be1 4641
00000050: b5b3 8041 08c2 1141 14e8 4141 94c1 2c41
00000060: 4345 8b41 e8ed b940 8dae 6541 d920 3141
00000070: 34fe 0941 6e98 5741 6059 1c41 56ee fd40
00000080: 9082 f940 3e2d 5141 c216 0141 c0a1 8241
00000090: d9f9 3241 c617 9841 52f6 8541 32f9 1a41
000000a0: 10e7 3a41 9bdf 3841 f290 5741 a4b6 2e41
000000b0: 5627 ff40 2f9c cc40 0a6c 1b41 d12b 0141
000000c0: cc44 af40 9faa 3741 d83c ae40 773e 3841
000000d0: cadb 5341 fe9b 1841 4977 0d41 30fe 2b41
000000e0: 03fa ac40 99f7 0741 d81f 8641 fdd1 9141
000000f0: 2422 2841 8e12 8241 95ba 5541 eef2 2c41
